<?xml version="1.0" ?>
<net name="RMNet_LReLU with SSD head for Action Detection and Action Recognition" version="11">
	<layers>
		<layer id="24" name="data" type="Parameter" version="opset1">
			<data shape="1,3,400,680" element_type="f32"/>
			<rt_info>
				<attribute name="old_api_map_element_type" version="0" value="f16"/>
			</rt_info>
			<output>
				<port id="0" precision="FP32" names="data">
					<dim>1</dim>
					<dim>3</dim>
					<dim>400</dim>
					<dim>680</dim>
					<rt_info>
						<attribute name="layout" version="0" layout="[N,C,H,W]"/>
					</rt_info>
				</port>
			</output>
		</layer>
		<layer id="0" name="119491195348096" type="Const" version="opset1">
			<data offset="0" size="4" shape="" element_type="f32"/>
			<output>
				<port id="0" precision="FP32"/>
			</output>
		</layer>
		<layer id="1" name="119501195450901" type="Const" version="opset1">
			<data offset="4" size="4" shape="" element_type="f32"/>
			<output>
				<port id="0" precision="FP32"/>
			</output>
		</layer>
		<layer id="2" name="119511195553229" type="Const" version="opset1">
			<data offset="0" size="4" shape="" element_type="f32"/>
			<output>
				<port id="0" precision="FP32"/>
			</output>
		</layer>
		<layer id="3" name="119521195650448" type="Const" version="opset1">
			<data offset="4" size="4" shape="" element_type="f32"/>
			<output>
				<port id="0" precision="FP32"/>
			</output>
		</layer>
		<layer id="4" name="106791068351003" type="Const" version="opset1">
			<data offset="8" size="4" shape="" element_type="f32"/>
			<output>
				<port id="0" precision="FP32"/>
			</output>
		</layer>
		<layer id="5" name="106801068450112" type="Const" version="opset1">
			<data offset="12" size="4" shape="" element_type="f32"/>
			<output>
				<port id="0" precision="FP32"/>
			</output>
		</layer>
		<layer id="6" name="106811068550484" type="Const" version="opset1">
			<data offset="8" size="4" shape="" element_type="f32"/>
			<output>
				<port id="0" precision="FP32"/>
			</output>
		</layer>
		<layer id="7" name="106821068653226" type="Const" version="opset1">
			<data offset="12" size="4" shape="" element_type="f32"/>
			<output>
				<port id="0" precision="FP32"/>
			</output>
		</layer>
		<layer id="8" name="111491115352917" type="Const" version="opset1">
			<data offset="16" size="4" shape="" element_type="f32"/>
			<output>
				<port id="0" precision="FP32"/>
			</output>
		</layer>
		<layer id="9" name="111501115451633" type="Const" version="opset1">
			<data offset="20" size="4" shape="" element_type="f32"/>
			<output>
				<port id="0" precision="FP32"/>
			</output>
		</layer>
		<layer id="10" name="111511115553757" type="Const" version="opset1">
			<data offset="16" size="4" shape="" element_type="f32"/>
			<output>
				<port id="0" precision="FP32"/>
			</output>
		</layer>
		<layer id="11" name="111521115649674" type="Const" version="opset1">
			<data offset="20" size="4" shape="" element_type="f32"/>
			<output>
				<port id="0" precision="FP32"/>
			</output>
		</layer>
		<layer id="12" name="8759876347730" type="Const" version="opset1">
			<data offset="24" size="4" shape="" element_type="f32"/>
			<output>
				<port id="0" precision="FP32"/>
			</output>
		</layer>
		<layer id="13" name="8760876453181" type="Const" version="opset1">
			<data offset="28" size="4" shape="" element_type="f32"/>
			<output>
				<port id="0" precision="FP32"/>
			</output>
		</layer>
		<layer id="14" name="8761876548552" type="Const" version="opset1">
			<data offset="24" size="4" shape="" element_type="f32"/>
			<output>
				<port id="0" precision="FP32"/>
			</output>
		</layer>
		<layer id="15" name="8762876653415" type="Const" version="opset1">
			<data offset="28" size="4" shape="" element_type="f32"/>
			<output>
				<port id="0" precision="FP32"/>
			</output>
		</layer>
		<layer id="16" name="8319832352584" type="Const" version="opset1">
			<data offset="32" size="4" shape="" element_type="f32"/>
			<output>
				<port id="0" precision="FP32"/>
			</output>
		</layer>
		<layer id="17" name="8320832453241" type="Const" version="opset1">
			<data offset="36" size="4" shape="" element_type="f32"/>
			<output>
				<port id="0" precision="FP32"/>
			</output>
		</layer>
		<layer id="18" name="8321832549098" type="Const" version="opset1">
			<data offset="32" size="4" shape="" element_type="f32"/>
			<output>
				<port id="0" precision="FP32"/>
			</output>
		</layer>
		<layer id="19" name="8322832648825" type="Const" version="opset1">
			<data offset="36" size="4" shape="" element_type="f32"/>
			<output>
				<port id="0" precision="FP32"/>
			</output>
		</layer>
		<layer id="20" name="6969697352845" type="Const" version="opset1">
			<data offset="40" size="4" shape="" element_type="f32"/>
			<output>
				<port id="0" precision="FP32"/>
			</output>
		</layer>
		<layer id="21" name="6970697453205" type="Const" version="opset1">
			<data offset="44" size="4" shape="" element_type="f32"/>
			<output>
				<port id="0" precision="FP32"/>
			</output>
		</layer>
		<layer id="22" name="6971697549722" type="Const" version="opset1">
			<data offset="40" size="4" shape="" element_type="f32"/>
			<output>
				<port id="0" precision="FP32"/>
			</output>
		</layer>
		<layer id="23" name="6972697653151" type="Const" version="opset1">
			<data offset="44" size="4" shape="" element_type="f32"/>
			<output>
				<port id="0" precision="FP32"/>
			</output>
		</layer>
		<layer id="25" name="data_mul_44995196151975" type="Const" version="opset1">
			<data offset="48" size="6" shape="1,3,1,1" element_type="f16"/>
			<output>
				<port id="0" precision="FP16">
					<dim>1</dim>
					<dim>3</dim>
					<dim>1</dim>
					<dim>1</dim>
				</port>
			</output>
		</layer>
		<layer id="26" name="data_mul_44995196125722/restored_convert" type="Convert" version="opset1">
			<data destination_type="f32"/>
			<rt_info>
				<attribute name="decompression" version="0"/>
			</rt_info>
			<input>
				<port id="0">
					<dim>1</dim>
					<dim>3</dim>
					<dim>1</dim>
					<dim>1</dim>
				</port>
			</input>
			<output>
				<port id="1" precision="FP32">
					<dim>1</dim>
					<dim>3</dim>
					<dim>1</dim>
					<dim>1</dim>
				</port>
			</output>
		</layer>
		<layer id="27" name="data/norm/bn/mean/Fused_Mul_" type="Multiply" version="opset1">
			<data auto_broadcast="numpy"/>
			<input>
				<port id="0">
					<dim>1</dim>
					<dim>3</dim>
					<dim>400</dim>
					<dim>680</dim>
				</port>
				<port id="1">
					<dim>1</dim>
					<dim>3</dim>
					<dim>1</dim>
					<dim>1</dim>
				</port>
			</input>
			<output>
				<port id="2" precision="FP32">
					<dim>1</dim>
					<dim>3</dim>
					<dim>400</dim>
					<dim>680</dim>
				</port>
			</output>
		</layer>
		<layer id="28" name="data_add_44997196448792" type="Const" version="opset1">
			<data offset="54" size="6" shape="1,3,1,1" element_type="f16"/>
			<output>
				<port id="0" precision="FP16">
					<dim>1</dim>
					<dim>3</dim>
					<dim>1</dim>
					<dim>1</dim>
				</port>
			</output>
		</layer>
		<layer id="29" name="data_add_44997196425723/restored_convert" type="Convert" version="opset1">
			<data destination_type="f32"/>
			<rt_info>
				<attribute name="decompression" version="0"/>
			</rt_info>
			<input>
				<port id="0">
					<dim>1</dim>
					<dim>3</dim>
					<dim>1</dim>
					<dim>1</dim>
				</port>
			</input>
			<output>
				<port id="1" precision="FP32">
					<dim>1</dim>
					<dim>3</dim>
					<dim>1</dim>
					<dim>1</dim>
				</port>
			</output>
		</layer>
		<layer id="30" name="data/norm/bn/variance/Fused_Add_" type="Add" version="opset1">
			<data auto_broadcast="numpy"/>
			<input>
				<port id="0">
					<dim>1</dim>
					<dim>3</dim>
					<dim>400</dim>
					<dim>680</dim>
				</port>
				<port id="1">
					<dim>1</dim>
					<dim>3</dim>
					<dim>1</dim>
					<dim>1</dim>
				</port>
			</input>
			<output>
				<port id="2" precision="FP32" names="data/norm/bn">
					<dim>1</dim>
					<dim>3</dim>
					<dim>400</dim>
					<dim>680</dim>
				</port>
			</output>
		</layer>
		<layer id="31" name="init_block1/dim_inc/conv/fq_input_0" type="FakeQuantize" version="opset1">
			<data levels="256" auto_broadcast="numpy"/>
			<input>
				<port id="0">
					<dim>1</dim>
					<dim>3</dim>
					<dim>400</dim>
					<dim>680</dim>
				</port>
				<port id="1"/>
				<port id="2"/>
				<port id="3"/>
				<port id="4"/>
			</input>
			<output>
				<port id="5" precision="FP32">
					<dim>1</dim>
					<dim>3</dim>
					<dim>400</dim>
					<dim>680</dim>
				</port>
			</output>
		</layer>
		<layer id="32" name="init_block1/dim_inc/conv/fq_weights_1/scale3327149713" type="Const" version="opset1">
			<data offset="60" size="128" shape="32,1,1,1" element_type="f32"/>
			<output>
				<port id="0" precision="FP32">
					<dim>32</dim>
					<dim>1</dim>
					<dim>1</dim>
					<dim>1</dim>
				</port>
			</output>
		</layer>
		<layer id="33" name="init_block1/dim_inc/bn/mean/Fused_Mul__copy196725724/restored_convert/quantized3326348669" type="Const" version="opset1">
			<data offset="188" size="864" shape="32,3,3,3" element_type="i8"/>
			<output>
				<port id="0" precision="I8">
					<dim>32</dim>
					<dim>3</dim>
					<dim>3</dim>
					<dim>3</dim>
				</port>
			</output>
		</layer>
		<layer id="34" name="init_block1/dim_inc/bn/mean/Fused_Mul__copy196725724/restored_convert/quantized/to_f32" type="Convert" version="opset1">
			<data destination_type="f32"/>
			<input>
				<port id="0">
					<dim>32</dim>
					<dim>3</dim>
					<dim>3</dim>
					<dim>3</dim>
				</port>
			</input>
			<output>
				<port id="1" precision="FP32">
					<dim>32</dim>
					<dim>3</dim>
					<dim>3</dim>
					<dim>3</dim>
				</port>
			</output>
		</layer>
		<layer id="35" name="init_block1/dim_inc/conv/fq_weights_1/mulpiply_by_scale" type="Multiply" version="opset1">
			<data auto_broadcast="numpy"/>
			<input>
				<port id="0">
					<dim>32</dim>
					<dim>3</dim>
					<dim>3</dim>
					<dim>3</dim>
				</port>
				<port id="1">
					<dim>32</dim>
					<dim>1</dim>
					<dim>1</dim>
					<dim>1</dim>
				</port>
			</input>
			<output>
				<port id="2" precision="FP32">
					<dim>32</dim>
					<dim>3</dim>
					<dim>3</dim>
					<dim>3</dim>
				</port>
			</output>
		</layer>
		<layer id="36" name="init_block1/dim_inc/conv" type="Convolution" version="opset1">
			<data auto_pad="explicit" strides="2,2" dilations="1,1" pads_begin="1,1" pads_end="1,1"/>
			<input>
				<port id="0">
					<dim>1</dim>
					<dim>3</dim>
					<dim>400</dim>
					<dim>680</dim>
				</port>
				<port id="1">
					<dim>32</dim>
					<dim>3</dim>
					<dim>3</dim>
					<dim>3</dim>
				</port>
			</input>
			<output>
				<port id="2" precision="FP32">
					<dim>1</dim>
					<dim>32</dim>
					<dim>200</dim>
					<dim>340</dim>
				</port>
			</output>
		</layer>
		<layer id="37" name="data_add_4500045005197049782" type="Const" version="opset1">
			<data offset="1052" size="64" shape="1,32,1,1" element_type="f16"/>
			<output>
				<port id="0" precision="FP16">
					<dim>1</dim>
					<dim>32</dim>
					<dim>1</dim>
					<dim>1</dim>
				</port>
			</output>
		</layer>
		<layer id="38" name="data_add_4500045005197025725/restored_convert" type="Convert" version="opset1">
			<data destination_type="f32"/>
			<rt_info>
				<attribute name="decompression" version="0"/>
			</rt_info>
			<input>
				<port id="0">
					<dim>1</dim>
					<dim>32</dim>
					<dim>1</dim>
					<dim>1</dim>
				</port>
			</input>
			<output>
				<port id="1" precision="FP32">
					<dim>1</dim>
					<dim>32</dim>
					<dim>1</dim>
					<dim>1</dim>
				</port>
			</output>
		</layer>
		<layer id="39" name="init_block1/dim_inc/bn/variance/Fused_Add_" type="Add" version="opset1">
			<data auto_broadcast="numpy"/>
			<input>
				<port id="0">
					<dim>1</dim>
					<dim>32</dim>
					<dim>200</dim>
					<dim>340</dim>
				</port>
				<port id="1">
					<dim>1</dim>
					<dim>32</dim>
					<dim>1</dim>
					<dim>1</dim>
				</port>
			</input>
			<output>
				<port id="2" precision="FP32" names="init_block1/dim_inc/conv">
					<dim>1</dim>
					<dim>32</dim>
					<dim>200</dim>
					<dim>340</dim>
				</port>
			</output>
		</layer>
		<layer id="40" name="init_block1/dim_inc/fn" type="ReLU" version="opset1">
			<input>
				<port id="0">
					<dim>1</dim>
					<dim>32</dim>
					<dim>200</dim>
					<dim>340</dim>
				</port>
			</input>
			<output>
				<port id="1" precision="FP32" names="init_block1/dim_inc/conv">
					<dim>1</dim>
					<dim>32</dim>
					<dim>200</dim>
					<dim>340</dim>
				</port>
			</output>
		</layer>
		<layer id="41" name="bottleneck1_1/add/fq_input_0" type="FakeQuantize" version="opset1">
			<data levels="256" auto_broadcast="numpy"/>
			<input>
				<port id="0">
					<dim>1</dim>
					<dim>32</dim>
					<dim>200</dim>
					<dim>340</dim>
				</port>
				<port id="1"/>
				<port id="2"/>
				<port id="3"/>
				<port id="4"/>
			</input>
			<output>
				<port id="5" precision="FP32">
					<dim>1</dim>
					<dim>32</dim>
					<dim>200</dim>
					<dim>340</dim>
				</port>
			</output>
		</layer>
		<layer id="42" name="8329833351816" type="Const" version="opset1">
			<data offset="1116" size="4" shape="" element_type="f32"/>
			<output>
				<port id="0" precision="FP32"/>
			</output>
		</layer>
		<layer id="43" name="8330833451513" type="Const" version="opset1">
			<data offset="1120" size="4" shape="" element_type="f32"/>
			<output>
				<port id="0" precision="FP32"/>
			</output>
		</layer>
		<layer id="44" name="8331833550652" type="Const" version="opset1">
			<data offset="1116" size="4" shape="" element_type="f32"/>
			<output>
				<port id="0" precision="FP32"/>
			</output>
		</layer>
		<layer id="45" name="8332833650223" type="Const" version="opset1">
			<data offset="1120" size="4" shape="" element_type="f32"/>
			<output>
				<port id="0" precision="FP32"/>
			</output>
		</layer>
		<layer id="46" name="110691107350469" type="Const" version="opset1">
			<data offset="1124" size="4" shape="" element_type="f32"/>
			<output>
				<port id="0" precision="FP32"/>
			</output>
		</layer>
		<layer id="47" name="110701107449209" type="Const" version="opset1">
			<data offset="1128" size="4" shape="" element_type="f32"/>
			<output>
				<port id="0" precision="FP32"/>
			</output>
		</layer>
		<layer id="48" name="110711107547691" type="Const" version="opset1">
			<data offset="1124" size="4" shape="" element_type="f32"/>
			<output>
				<port id="0" precision="FP32"/>
			</output>
		</layer>
		<layer id="49" name="110721107648921" type="Const" version="opset1">
			<data offset="1128" size="4" shape="" element_type="f32"/>
			<output>
				<port id="0" precision="FP32"/>
			</output>
		</layer>
		<layer id="50" name="8119812348864" type="Const" version="opset1">
			<data offset="1132" size="32" shape="1,8,1,1" element_type="f32"/>
			<output>
				<port id="0" precision="FP32">
					<dim>1</dim>
					<dim>8</dim>
					<dim>1</dim>
					<dim>1</dim>
				</port>
			</output>
		</layer>
		<layer id="51" name="8120812449902" type="Const" version="opset1">
			<data offset="1164" size="32" shape="1,8,1,1" element_type="f32"/>
			<output>
				<port id="0" precision="FP32">
					<dim>1</dim>
					<dim>8</dim>
					<dim>1</dim>
					<dim>1</dim>
				</port>
			</output>
		</layer>
		<layer id="52" name="8121812551675" type="Const" version="opset1">
			<data offset="1132" size="32" shape="1,8,1,1" element_type="f32"/>
			<output>
				<port id="0" precision="FP32">
					<dim>1</dim>
					<dim>8</dim>
					<dim>1</dim>
					<dim>1</dim>
				</port>
			</output>
		</layer>
		<layer id="53" name="8122812651108" type="Const" version="opset1">
			<data offset="1164" size="32" shape="1,8,1,1" element_type="f32"/>
			<output>
				<port id="0" precision="FP32">
					<dim>1</dim>
					<dim>8</dim>
					<dim>1</dim>
					<dim>1</dim>
				</port>
			</output>
		</layer>
		<layer id="54" name="bottleneck1_1/dim_red/conv/fq_weights_1/scale3489150103" type="Const" version="opset1">
			<data offset="1196" size="32" shape="8,1,1,1" element_type="f32"/>
			<output>
				<port id="0" precision="FP32">
					<dim>8</dim>
					<dim>1</dim>
					<dim>1</dim>
					<dim>1</dim>
				</port>
			</output>
		</layer>
		<layer id="55" name="bottleneck1_1/dim_red/bn/mean/Fused_Mul__copy197425726/restored_convert/quantized3488350931" type="Const" version="opset1">
			<data offset="1228" size="256" shape="8,32,1,1" element_type="i8"/>
			<output>
				<port id="0" precision="I8">
					<dim>8</dim>
					<dim>32</dim>
					<dim>1</dim>
					<dim>1</dim>
				</port>
			</output>
		</layer>
		<layer id="56" name="bottleneck1_1/dim_red/bn/mean/Fused_Mul__copy197425726/restored_convert/quantized/to_f32" type="Convert" version="opset1">
			<data destination_type="f32"/>
			<input>
				<port id="0">
					<dim>8</dim>
					<dim>32</dim>
					<dim>1</dim>
					<dim>1</dim>
				</port>
			</input>
			<output>
				<port id="1" precision="FP32">
					<dim>8</dim>
					<dim>32</dim>
					<dim>1</dim>
					<dim>1</dim>
				</port>
			</output>
		</layer>
		<layer id="57" name="bottleneck1_1/dim_red/conv/fq_weights_1/mulpiply_by_scale" type="Multiply" version="opset1">
			<data auto_broadcast="numpy"/>
			<input>
				<port id="0">
					<dim>8</dim>
					<dim>32</dim>
					<dim>1</dim>
					<dim>1</dim>
				</port>
				<port id="1">
					<dim>8</dim>
					<dim>1</dim>
					<dim>1</dim>
					<dim>1</dim>
				</port>
			</input>
			<output>
				<port id="2" precision="FP32">
					<dim>8</dim>
					<dim>32</dim>
					<dim>1</dim>
					<dim>1</dim>
				</port>
			</output>
		</layer>
		<layer id="58" name="bottleneck1_1/dim_red/conv" type="Convolution" version="opset1">
			<data auto_pad="explicit" strides="1,1" dilations="1,1" pads_begin="0,0" pads_end="0,0"/>
			<input>
				<port id="0">
					<dim>1</dim>
					<dim>32</dim>
					<dim>200</dim>
					<dim>340</dim>
				</port>
				<port id="1">
					<dim>8</dim>
					<dim>32</dim>
					<dim>1</dim>
					<dim>1</dim>
				</port>
			</input>
			<output>
				<port id="2" precision="FP32">
					<dim>1</dim>
					<dim>8</dim>
					<dim>200</dim>
					<dim>340</dim>
				</port>
			</output>
		</layer>
		<layer id="59" name="data_add_4500845013197747802" type="Const" version="opset1">
			<data offset="1484" size="16" shape="1,8,1,1" element_type="f16"/>
			<output>
				<port id="0" precision="FP16">
					<dim>1</dim>
					<dim>8</dim>
					<dim>1</dim>
					<dim>1</dim>
				</port>
			</output>
		</layer>
		<layer id="60" name="data_add_4500845013197725727/restored_convert" type="Convert" version="opset1">
			<data destination_type="f32"/>
			<rt_info>
				<attribute name="decompression" version="0"/>
			</rt_info>
			<input>
				<port id="0">
					<dim>1</dim>
					<dim>8</dim>
					<dim>1</dim>
					<dim>1</dim>
				</port>
			</input>
			<output>
				<port id="1" precision="FP32">
					<dim>1</dim>
					<dim>8</dim>
					<dim>1</dim>
					<dim>1</dim>
				</port>
			</output>
		</layer>
		<layer id="61" name="bottleneck1_1/dim_red/bn/variance/Fused_Add_" type="Add" version="opset1">
			<data auto_broadcast="numpy"/>
			<input>
				<port id="0">
					<dim>1</dim>
					<dim>8</dim>
					<dim>200</dim>
					<dim>340</dim>
				</port>
				<port id="1">
					<dim>1</dim>
					<dim>8</dim>
					<dim>1</dim>
					<dim>1</dim>
				</port>
			</input>
			<output>
				<port id="2" precision="FP32" names="bottleneck1_1/dim_red/conv">
					<dim>1</dim>
					<dim>8</dim>
					<dim>200</dim>
					<dim>340</dim>
				</port>
			</output>
		</layer>
		<layer id="62" name="bottleneck1_1/dim_red/fn/weights5687873789198048381" type="Const" version="opset1">
			<data offset="1500" size="2" shape="1" element_type="f16"/>
			<output>
				<port id="0" precision="FP16">
					<dim>1</dim>
				</port>
			</output>
		</layer>
		<layer id="63" name="bottleneck1_1/dim_red/fn/weights5687873789198025728/restored_convert" type="Convert" version="opset1">
			<data destination_type="f32"/>
			<rt_info>
				<attribute name="decompression" version="0"/>
			</rt_info>
			<input>
				<port id="0">
					<dim>1</dim>
				</port>
			</input>
			<output>
				<port id="1" precision="FP32">
					<dim>1</dim>
				</port>
			</output>
		</layer>
		<layer id="64" name="bottleneck1_1/dim_red/fn" type="PReLU" version="opset1">
			<input>
				<port id="0">
					<dim>1</dim>
					<dim>8</dim>
					<dim>200</dim>
					<dim>340</dim>
				</port>
				<port id="1">
					<dim>1</dim>
				</port>
			</input>
			<output>
				<port id="2" precision="FP32" names="bottleneck1_1/dim_red/conv">
					<dim>1</dim>
					<dim>8</dim>
					<dim>200</dim>
					<dim>340</dim>
				</port>
			</output>
		</layer>
		<layer id="65" name="bottleneck1_1/inner/dw1/conv/fq_input_0" type="FakeQuantize" version="opset1">
			<data levels="256" auto_broadcast="numpy"/>
			<input>
				<port id="0">
					<dim>1</dim>
					<dim>8</dim>
					<dim>200</dim>
					<dim>340</dim>
				</port>
				<port id="1">
					<dim>1</dim>
					<dim>8</dim>
					<dim>1</dim>
					<dim>1</dim>
				</port>
				<port id="2">
					<dim>1</dim>
					<dim>8</dim>
					<dim>1</dim>
					<dim>1</dim>
				</port>
				<port id="3">
					<dim>1</dim>
					<dim>8</dim>
					<dim>1</dim>
					<dim>1</dim>
				</port>
				<port id="4">
					<dim>1</dim>
					<dim>8</dim>
					<dim>1</dim>
					<dim>1</dim>
				</port>
			</input>
			<output>
				<port id="5" precision="FP32">
					<dim>1</dim>
					<dim>8</dim>
					<dim>200</dim>
					<dim>340</dim>
				</port>
			</output>
		</layer>
		<layer id="66" name="bottleneck1_1/inner/dw1/conv/fq_weights_1/scale3558152710" type="Const" version="opset1">
			<data offset="1502" size="32" shape="8,1,1,1" element_type="f32"/>
			<output>
				<port id="0" precision="FP32">
					<dim>8</dim>
					<dim>1</dim>
					<dim>1</dim>
					<dim>1</dim>
				</port>
			</output>
		</layer>
		<layer id="67" name="bottleneck1_1/inner/dw1/bn/mean/Fused_Mul__copy198325729/restored_convert/quantized3557350046" type="Const" version="opset1">
			<data offset="1534" size="72" shape="8,1,3,3" element_type="i8"/>
			<output>
				<port id="0" precision="I8">
					<dim>8</dim>
					<dim>1</dim>
					<dim>3</dim>
					<dim>3</dim>
				</port>
			</output>
		</layer>
		<layer id="68" name="bottleneck1_1/inner/dw1/bn/mean/Fused_Mul__copy198325729/restored_convert/quantized/to_f32" type="Convert" version="opset1">
			<data destination_type="f32"/>
			<input>
				<port id="0">
					<dim>8</dim>
					<dim>1</dim>
					<dim>3</dim>
					<dim>3</dim>
				</port>
			</input>
			<output>
				<port id="1" precision="FP32">
					<dim>8</dim>
					<dim>1</dim>
					<dim>3</dim>
					<dim>3</dim>
				</port>
			</output>
		</layer>
		<layer id="69" name="bottleneck1_1/inner/dw1/conv/fq_weights_1/mulpiply_by_scale" type="Multiply" version="opset1">
			<data auto_broadcast="numpy"/>
			<input>
				<port id="0">
					<dim>8</dim>
					<dim>1</dim>
					<dim>3</dim>
					<dim>3</dim>
				</port>
				<port id="1">
					<dim>8</dim>
					<dim>1</dim>
					<dim>1</dim>
					<dim>1</dim>
				</port>
			</input>
			<output>
				<port id="2" precision="FP32">
					<dim>8</dim>
					<dim>1</dim>
					<dim>3</dim>
					<dim>3</dim>
				</port>
			</output>
		</layer>
		<layer id="70" name="bottleneck1_1/inner/dw1/conv/GOI_weights_part4238548639" type="Const" version="opset1">
			<data offset="1606" size="24" shape="3" element_type="i64"/>
			<output>
				<port id="0" precision="I64">
					<dim>3</dim>
				</port>
			</output>
		</layer>
		<layer id="71" name="bottleneck1_1/inner/dw1/conv/WeightsShape" type="ShapeOf" version="opset3">
			<data output_type="i64"/>
			<input>
				<port id="0">
					<dim>8</dim>
					<dim>1</dim>
					<dim>3</dim>
					<dim>3</dim>
				</port>
			</input>
			<output>
				<port id="1" precision="I64">
					<dim>4</dim>
				</port>
			</output>
		</layer>
		<layer id="72" name="bottleneck1_1/inner/dw1/conv/XY_weights_part_input_port_1/value4238150580" type="Const" version="opset1">
			<data offset="1630" size="16" shape="2" element_type="i64"/>
			<output>
				<port id="0" precision="I64">
					<dim>2</dim>
				</port>
			</output>
		</layer>
		<layer id="73" name="bottleneck1_1/inner/dw1/conv/XY_weights_part_input_port_2/value4238347568" type="Const" version="opset1">
			<data offset="1646" size="8" shape="" element_type="i64"/>
			<output>
				<port id="0" precision="I64"/>
			</output>
		</layer>
		<layer id="74" name="bottleneck1_1/inner/dw1/conv/XY_weights_part" type="Gather" version="opset8">
			<data batch_dims="0"/>
			<input>
				<port id="0">
					<dim>4</dim>
				</port>
				<port id="1">
					<dim>2</dim>
				</port>
				<port id="2"/>
			</input>
			<output>
				<port id="3" precision="I64">
					<dim>2</dim>
				</port>
			</output>
		</layer>
		<layer id="75" name="bottleneck1_1/inner/dw1/conv/weights_shape" type="Concat" version="opset1">
			<data axis="0"/>
			<input>
				<port id="0">
					<dim>3</dim>
				</port>
				<port id="1">
					<dim>2</dim>
				</port>
			</input>
			<output>
				<port id="2" precision="I64">
					<dim>5</dim>
				</port>
			</output>
		</layer>
		<layer id="76" name="42387" type="Reshape" version="opset1">
			<data special_zero="true"/>
			<input>
				<port id="0">
					<dim>8</dim>
					<dim>1</dim>
					<dim>3</dim>
					<dim>3</dim>
				</port>
				<port id="1">
					<dim>5</dim>
				</port>
			</input>
			<output>
				<port id="2" precision="FP32">
					<dim>8</dim>
					<dim>1</dim>
					<dim>1</dim>
					<dim>3</dim>
					<dim>3</dim>
				</port>
			</output>
		</layer>
		<layer id="77" name="bottleneck1_1/inner/dw1/conv" type="GroupConvolution" version="opset1">
			<data auto_pad="explicit" strides="1,1" dilations="1,1" pads_begin="1,1" pads_end="1,1"/>
			<input>
				<port id="0">
					<dim>1</dim>
					<dim>8</dim>
					<dim>200</dim>
					<dim>340</dim>
				</port>
				<port id="1">
					<dim>8</dim>
					<dim>1</dim>
					<dim>1</dim>
					<dim>3</dim>
					<dim>3</dim>
				</port>
			</input>
			<output>
				<port id="2" precision="FP32">
					<dim>1</dim>
					<dim>8</dim>
					<dim>200</dim>
					<dim>340</dim>
				</port>
			</output>
		</layer>
		<layer id="78" name="data_add_4501645021198653061" type="Const" version="opset1">
			<data offset="1654" size="16" shape="1,8,1,1" element_type="f16"/>
			<output>
				<port id="0" precision="FP16">
					<dim>1</dim>
					<dim>8</dim>
					<dim>1</dim>
					<dim>1</dim>
				</port>
			</output>
		</layer>
		<layer id="79" name="data_add_4501645021198625730/restored_convert" type="Convert" version="opset1">
			<data destination_type="f32"/>
			<rt_info>
				<attribute name="decompression" version="0"/>
			</rt_info>
			<input>
				<port id="0">
					<dim>1</dim>
					<dim>8</dim>
					<dim>1</dim>
					<dim>1</dim>
				</port>
			</input>
			<output>
				<port id="1" precision="FP32">
					<dim>1</dim>
					<dim>8</dim>
					<dim>1</dim>
					<dim>1</dim>
				</port>
			</output>
		</layer>
		<layer id="80" name="bottleneck1_1/inner/dw1/bn/variance/Fused_Add_" type="Add" version="opset1">
			<data auto_broadcast="numpy"/>
			<input>
				<port id="0">
					<dim>1</dim>
					<dim>8</dim>
					<dim>200</dim>
					<dim>340</dim>
				</port>
				<port id="1">
					<dim>1</dim>
					<dim>8</dim>
					<dim>1</dim>
					<dim>1</dim>
				</port>
			</input>
			<output>
				<port id="2" precision="FP32" names="bottleneck1_1/inner/dw1/conv">
					<dim>1</dim>
					<dim>8</dim>
					<dim>200</dim>
					<dim>340</dim>
				</port>
			</output>
		</layer>
		<layer id="81" name="bottleneck1_1/inner/dw1/fn/weights5749873579198950493" type="Const" version="opset1">
			<data offset="1500" size="2" shape="1" element_type="f16"/>
			<output>
				<port id="0" precision="FP16">
					<dim>1</dim>
				</port>
			</output>
		</layer>
		<layer id="82" name="bottleneck1_1/inner/dw1/fn/weights5749873579198925731/restored_convert" type="Convert" version="opset1">
			<data destination_type="f32"/>
			<rt_info>
				<attribute name="decompression" version="0"/>
			</rt_info>
			<input>
				<port id="0">
					<dim>1</dim>
				</port>
			</input>
			<output>
				<port id="1" precision="FP32">
					<dim>1</dim>
				</port>
			</output>
		</layer>
		<layer id="83" name="bottleneck1_1/inner/dw1/fn" type="PReLU" version="opset1">
			<input>
				<port id="0">
					<dim>1</dim>
					<dim>8</dim>
					<dim>200</dim>
					<dim>340</dim>
				</port>
				<port id="1">
					<dim>1</dim>
				</port>
			</input>
			<output>
				<port id="2" precision="FP32" names="bottleneck1_1/inner/dw1/conv">
					<dim>1</dim>
					<dim>8</dim>
					<dim>200</dim>
					<dim>340</dim>
				</port>
			</output>
		</layer>
		<layer id="84" name="bottleneck1_1/dim_inc/conv/fq_input_0" type="FakeQuantize" version="opset1">
			<data levels="256" auto_broadcast="numpy"/>
			<input>
				<port id="0">
					<dim>1</dim>
					<dim>8</dim>
					<dim>200</dim>
					<dim>340</dim>
				</port>
				<port id="1"/>
				<port id="2"/>
				<port id="3"/>
				<port id="4"/>
			</input>
			<output>
				<port id="5" precision="FP32">
					<dim>1</dim>
					<dim>8</dim>
					<dim>200</dim>
					<dim>340</dim>
				</port>
			</output>
		</layer>
		<layer id="85" name="bottleneck1_1/dim_inc/conv/fq_weights_1/scale3096151507" type="Const" version="opset1">
			<data offset="1670" size="128" shape="32,1,1,1" element_type="f32"/>
			<output>
				<port id="0" precision="FP32">
					<dim>32</dim>
					<dim>1</dim>
					<dim>1</dim>
					<dim>1</dim>
				</port>
			</output>
		</layer>
		<layer id="86" name="bottleneck1_1/dim_inc/bn/mean/Fused_Mul__copy199225732/restored_convert/quantized3095351081" type="Const" version="opset1">
			<data offset="1798" size="256" shape="32,8,1,1" element_type="i8"/>
			<output>
				<port id="0" precision="I8">
					<dim>32</dim>
					<dim>8</dim>
					<dim>1</dim>
					<dim>1</dim>
				</port>
			</output>
		</layer>
		<layer id="87" name="bottleneck1_1/dim_inc/bn/mean/Fused_Mul__copy199225732/restored_convert/quantized/to_f32" type="Convert" version="opset1">
			<data destination_type="f32"/>
			<input>
				<port id="0">
					<dim>32</dim>
					<dim>8</dim>
					<dim>1</dim>
					<dim>1</dim>
				</port>
			</input>
			<output>
				<port id="1" precision="FP32">
					<dim>32</dim>
					<dim>8</dim>
					<dim>1</dim>
					<dim>1</dim>
				</port>
			</output>
		</layer>
		<layer id="88" name="bottleneck1_1/dim_inc/conv/fq_weights_1/mulpiply_by_scale" type="Multiply" version="opset1">
			<data auto_broadcast="numpy"/>
			<input>
				<port id="0">
					<dim>32</dim>
					<dim>8</dim>
					<dim>1</dim>
					<dim>1</dim>
				</port>
				<port id="1">
					<dim>32</dim>
					<dim>1</dim>
					<dim>1</dim>
					<dim>1</dim>
				</port>
			</input>
			<output>
				<port id="2" precision="FP32">
					<dim>32</dim>
					<dim>8</dim>
					<dim>1</dim>
					<dim>1</dim>
				</port>
			</output>
		</layer>
		<layer id="89" name="bottleneck1_1/dim_inc/conv" type="Convolution" version="opset1">
			<data auto_pad="explicit" strides="1,1" dilations="1,1" pads_begin="0,0" pads_end="0,0"/>
			<input>
				<port id="0">
					<dim>1</dim>
					<dim>8</dim>
					<dim>200</dim>
					<dim>340</dim>
				</port>
				<port id="1">
					<dim>32</dim>
					<dim>8</dim>
					<dim>1</dim>
					<dim>1</dim>
				</port>
			</input>
			<output>
				<port id="2" precision="FP32">
					<dim>1</dim>
					<dim>32</dim>
					<dim>200</dim>
					<dim>340</dim>
				</port>
			</output>
		</layer>
		<layer id="90" name="data_add_4502445029199549377" type="Const" version="opset1">
			<data offset="2054" size="64" shape="1,32,1,1" element_type="f16"/>
			<output>
				<port id="0" precision="FP16">
					<dim>1</dim>
					<dim>32</dim>
					<dim>1</dim>
					<dim>1</dim>
				</port>
			</output>
		</layer>
		<layer id="91" name="data_add_4502445029199525733/restored_convert" type="Convert" version="opset1">
			<data destination_type="f32"/>
			<rt_info>
				<attribute name="decompression" version="0"/>
			</rt_info>
			<input>
				<port id="0">
					<dim>1</dim>
					<dim>32</dim>
					<dim>1</dim>
					<dim>1</dim>
				</port>
			</input>
			<output>
				<port id="1" precision="FP32">
					<dim>1</dim>
					<dim>32</dim>
					<dim>1</dim>
					<dim>1</dim>
				</port>
			</output>
		</layer>
		<layer id="92" name="bottleneck1_1/dim_inc/bn/variance/Fused_Add_" type="Add" version="opset1">
			<data auto_broadcast="numpy"/>
			<input>
				<port id="0">
					<dim>1</dim>
					<dim>32</dim>
					<dim>200</dim>
					<dim>340</dim>
				</port>
				<port id="1">
					<dim>1</dim>
					<dim>32</dim>
					<dim>1</dim>
					<dim>1</dim>
				</port>
			</input>
			<output>
				<port id="2" precision="FP32" names="bottleneck1_1/dim_inc/conv,bottleneck1_1/dim_inc/dropout">
					<dim>1</dim>
					<dim>32</dim>
					<dim>200</dim>
					<dim>340</dim>
				</port>
			</output>
		</layer>
		<layer id="93" name="bottleneck1_1/add/fq_input_1" type="FakeQuantize" version="opset1">
			<data levels="256" auto_broadcast="numpy"/>
			<input>
				<port id="0">
					<dim>1</dim>
					<dim>32</dim>
					<dim>200</dim>
					<dim>340</dim>
				</port>
				<port id="1"/>
				<port id="2"/>
				<port id="3"/>
				<port id="4"/>
			</input>
			<output>
				<port id="5" precision="FP32">
					<dim>1</dim>
					<dim>32</dim>
					<dim>200</dim>
					<dim>340</dim>
				</port>
			</output>
		</layer>
		<layer id="94" name="bottleneck1_1/add" type="Add" version="opset1">
			<data auto_broadcast="numpy"/>
			<input>
				<port id="0">
					<dim>1</dim>
					<dim>32</dim>
					<dim>200</dim>
					<dim>340</dim>
				</port>
				<port id="1">
					<dim>1</dim>
					<dim>32</dim>
					<dim>200</dim>
					<dim>340</dim>
				</port>
			</input>
			<output>
				<port id="2" precision="FP32" names="bottleneck1_1/add">
					<dim>1</dim>
					<dim>32</dim>
					<dim>200</dim>
					<dim>340</dim>
				</port>
			</output>
		</layer>
		<layer id="95" name="bottleneck1_1/fn/weights5695874227199950586" type="Const" version="opset1">
			<data offset="1500" size="2" shape="1" element_type="f16"/>
			<output>
				<port id="0" precision="FP16">
					<dim>1</dim>
				</port>
			</output>
		</layer>
		<layer id="96" name="bottleneck1_1/fn/weights5695874227199925734/restored_convert" type="Convert" version="opset1">
			<data destination_type="f32"/>
			<rt_info>
				<attribute name="decompression" version="0"/>
			</rt_info>
			<input>
				<port id="0">
					<dim>1</dim>
				</port>
			</input>
			<output>
				<port id="1" precision="FP32">
					<dim>1</dim>
				</port>
			</output>
		</layer>
		<layer id="97" name="bottleneck1_1/fn" type="PReLU" version="opset1">
			<input>
				<port id="0">
					<dim>1</dim>
					<dim>32</dim>
					<dim>200</dim>
					<dim>340</dim>
				</port>
				<port id="1">
					<dim>1</dim>
				</port>
			</input>
			<output>
				<port id="2" precision="FP32" names="bottleneck1_1/add">
					<dim>1</dim>
					<dim>32</dim>
					<dim>200</dim>
					<dim>340</dim>
				</port>
			</output>
		</layer>
		<layer id="98" name="bottleneck1_2/add/fq_input_0" type="FakeQuantize" version="opset1">
			<data levels="256" auto_broadcast="numpy"/>
			<input>
				<port id="0">
					<dim>1</dim>
					<dim>32</dim>
					<dim>200</dim>
					<dim>340</dim>
				</port>
				<port id="1"/>
				<port id="2"/>
				<port id="3"/>
				<port id="4"/>
			</input>
			<output>
				<port id="5" precision="FP32">
					<dim>1</dim>
					<dim>32</dim>
					<dim>200</dim>
					<dim>340</dim>
				</port>
			</output>
		</layer>
		<layer id="99" name="8769877350730" type="Const" version="opset1">
			<data offset="2118" size="4" shape="" element_type="f32"/>
			<output>
				<port id="0" precision="FP32"/>
			</output>
		</layer>
		<layer id="100" name="8770877453010" type="Const" version="opset1">
			<data offset="2122" size="4" shape="" element_type="f32"/>
			<output>
				<port id="0" precision="FP32"/>
			</output>
		</layer>
		<layer id="101" name="8771877549665" type="Const" version="opset1">
			<data offset="2118" size="4" shape="" element_type="f32"/>
			<output>
				<port id="0" precision="FP32"/>
			</output>
		</layer>
		<layer id="102" name="8772877648375" type="Const" version="opset1">
			<data offset="2122" size="4" shape="" element_type="f32"/>
			<output>
				<port id="0" precision="FP32"/>
			</output>
		</layer>
		<layer id="103" name="118891189348342" type="Const" version="opset1">
			<data offset="2126" size="4" shape="" element_type="f32"/>
			<output>
				<port id="0" precision="FP32"/>
			</output>
		</layer>
		<layer id="104" name="118901189450838" type="Const" version="opset1">
			<data offset="2130" size="4" shape="" element_type="f32"/>
			<output>
				<port id="0" precision="FP32"/>
			</output>
		</layer>
		<layer id="105" name="118911189553604" type="Const" version="opset1">
			<data offset="2126" size="4" shape="" element_type="f32"/>
			<output>
				<port id="0" precision="FP32"/>
			</output>
		</layer>
		<layer id="106" name="118921189650259" type="Const" version="opset1">
			<data offset="2130" size="4" shape="" element_type="f32"/>
			<output>
				<port id="0" precision="FP32"/>
			</output>
		</layer>
		<layer id="107" name="7589759353541" type="Const" version="opset1">
			<data offset="2134" size="32" shape="1,8,1,1" element_type="f32"/>
			<output>
				<port id="0" precision="FP32">
					<dim>1</dim>
					<dim>8</dim>
					<dim>1</dim>
					<dim>1</dim>
				</port>
			</output>
		</layer>
		<layer id="108" name="7590759450151" type="Const" version="opset1">
			<data offset="2166" size="32" shape="1,8,1,1" element_type="f32"/>
			<output>
				<port id="0" precision="FP32">
					<dim>1</dim>
					<dim>8</dim>
					<dim>1</dim>
					<dim>1</dim>
				</port>
			</output>
		</layer>
		<layer id="109" name="7591759549122" type="Const" version="opset1">
			<data offset="2134" size="32" shape="1,8,1,1" element_type="f32"/>
			<output>
				<port id="0" precision="FP32">
					<dim>1</dim>
					<dim>8</dim>
					<dim>1</dim>
					<dim>1</dim>
				</port>
			</output>
		</layer>
		<layer id="110" name="7592759649011" type="Const" version="opset1">
			<data offset="2166" size="32" shape="1,8,1,1" element_type="f32"/>
			<output>
				<port id="0" precision="FP32">
					<dim>1</dim>
					<dim>8</dim>
					<dim>1</dim>
					<dim>1</dim>
				</port>
			</output>
		</layer>
		<layer id="111" name="bottleneck1_2/dim_red/conv/fq_weights_1/scale3531148108" type="Const" version="opset1">
			<data offset="2198" size="32" shape="8,1,1,1" element_type="f32"/>
			<output>
				<port id="0" precision="FP32">
					<dim>8</dim>
					<dim>1</dim>
					<dim>1</dim>
					<dim>1</dim>
				</port>
			</output>
		</layer>
		<layer id="112" name="bottleneck1_2/dim_red/bn/mean/Fused_Mul__copy200225735/restored_convert/quantized3530351084" type="Const" version="opset1">
			<data offset="2230" size="256" shape="8,32,1,1" element_type="i8"/>
			<output>
				<port id="0" precision="I8">
					<dim>8</dim>
					<dim>32</dim>
					<dim>1</dim>
					<dim>1</dim>
				</port>
			</output>
		</layer>
		<layer id="113" name="bottleneck1_2/dim_red/bn/mean/Fused_Mul__copy200225735/restored_convert/quantized/to_f32" type="Convert" version="opset1">
			<data destination_type="f32"/>
			<input>
				<port id="0">
					<dim>8</dim>
					<dim>32</dim>
					<dim>1</dim>
					<dim>1</dim>
				</port>
			</input>
			<output>
				<port id="1" precision="FP32">
					<dim>8</dim>
					<dim>32</dim>
					<dim>1</dim>
					<dim>1</dim>
				</port>
			</output>
		</layer>
		<layer id="114" name="bottleneck1_2/dim_red/conv/fq_weights_1/mulpiply_by_scale" type="Multiply" version="opset1">
			<data auto_broadcast="numpy"/>
			<input>
				<port id="0">
					<dim>8</dim>
					<dim>32</dim>
					<dim>1</dim>
					<dim>1</dim>
				</port>
				<port id="1">
					<dim>8</dim>
					<dim>1</dim>
					<dim>1</dim>
					<dim>1</dim>
				</port>
			</input>
			<output>
				<port id="2" precision="FP32">
					<dim>8</dim>
					<dim>32</dim>
					<dim>1</dim>
					<dim>1</dim>
				</port>
			</output>
		</layer>
		<layer id="115" name="bottleneck1_2/dim_red/conv" type="Convolution" version="opset1">
			<data auto_pad="explicit" strides="1,1" dilations="1,1" pads_begin="0,0" pads_end="0,0"/>
			<input>
				<port id="0">
					<dim>1</dim>
					<dim>32</dim>
					<dim>200</dim>
					<dim>340</dim>
				</port>
				<port id="1">
					<dim>8</dim>
					<dim>32</dim>
					<dim>1</dim>
					<dim>1</dim>
				</port>
			</input>
			<output>
				<port id="2" precision="FP32">
					<dim>1</dim>
					<dim>8</dim>
					<dim>200</dim>
					<dim>340</dim>
				</port>
			</output>
		</layer>
		<layer id="116" name="data_add_4503245037200553661" type="Const" version="opset1">
			<data offset="2486" size="16" shape="1,8,1,1" element_type="f16"/>
			<output>
				<port id="0" precision="FP16">
					<dim>1</dim>
					<dim>8</dim>
					<dim>1</dim>
					<dim>1</dim>
				</port>
			</output>
		</layer>
		<layer id="117" name="data_add_4503245037200525736/restored_convert" type="Convert" version="opset1">
			<data destination_type="f32"/>
			<rt_info>
				<attribute name="decompression" version="0"/>
			</rt_info>
			<input>
				<port id="0">
					<dim>1</dim>
					<dim>8</dim>
					<dim>1</dim>
					<dim>1</dim>
				</port>
			</input>
			<output>
				<port id="1" precision="FP32">
					<dim>1</dim>
					<dim>8</dim>
					<dim>1</dim>
					<dim>1</dim>
				</port>
			</output>
		</layer>
		<layer id="118" name="bottleneck1_2/dim_red/bn/variance/Fused_Add_" type="Add" version="opset1">
			<data auto_broadcast="numpy"/>
			<input>
				<port id="0">
					<dim>1</dim>
					<dim>8</dim>
					<dim>200</dim>
					<dim>340</dim>
				</port>
				<port id="1">
					<dim>1</dim>
					<dim>8</dim>
					<dim>1</dim>
					<dim>1</dim>
				</port>
			</input>
			<output>
				<port id="2" precision="FP32" names="bottleneck1_2/dim_red/conv">
					<dim>1</dim>
					<dim>8</dim>
					<dim>200</dim>
					<dim>340</dim>
				</port>
			</output>
		</layer>
		<layer id="119" name="bottleneck1_2/dim_red/fn/weights5730273969200849740" type="Const" version="opset1">
			<data offset="1500" size="2" shape="1" element_type="f16"/>
			<output>
				<port id="0" precision="FP16">
					<dim>1</dim>
				</port>
			</output>
		</layer>
		<layer id="120" name="bottleneck1_2/dim_red/fn/weights5730273969200825737/restored_convert" type="Convert" version="opset1">
			<data destination_type="f32"/>
			<rt_info>
				<attribute name="decompression" version="0"/>
			</rt_info>
			<input>
				<port id="0">
					<dim>1</dim>
				</port>
			</input>
			<output>
				<port id="1" precision="FP32">
					<dim>1</dim>
				</port>
			</output>
		</layer>
		<layer id="121" name="bottleneck1_2/dim_red/fn" type="PReLU" version="opset1">
			<input>
				<port id="0">
					<dim>1</dim>
					<dim>8</dim>
					<dim>200</dim>
					<dim>340</dim>
				</port>
				<port id="1">
					<dim>1</dim>
				</port>
			</input>
			<output>
				<port id="2" precision="FP32" names="bottleneck1_2/dim_red/conv">
					<dim>1</dim>
					<dim>8</dim>
					<dim>200</dim>
					<dim>340</dim>
				</port>
			</output>
		</layer>
		<layer id="122" name="bottleneck1_2/inner/dw1/conv/fq_input_0" type="FakeQuantize" version="opset1">
			<data levels="256" auto_broadcast="numpy"/>
			<input>
				<port id="0">
					<dim>1</dim>
					<dim>8</dim>
					<dim>200</dim>
					<dim>340</dim>
				</port>
				<port id="1">
					<dim>1</dim>
					<dim>8</dim>
					<dim>1</dim>
					<dim>1</dim>
				</port>
				<port id="2">
					<dim>1</dim>
					<dim>8</dim>
					<dim>1</dim>
					<dim>1</dim>
				</port>
				<port id="3">
					<dim>1</dim>
					<dim>8</dim>
					<dim>1</dim>
					<dim>1</dim>
				</port>
				<port id="4">
					<dim>1</dim>
					<dim>8</dim>
					<dim>1</dim>
					<dim>1</dim>
				</port>
			</input>
			<output>
				<port id="5" precision="FP32">
					<dim>1</dim>
					<dim>8</dim>
					<dim>200</dim>
					<dim>340</dim>
				</port>
			</output>
		</layer>
		<layer id="123" name="bottleneck1_2/inner/dw1/conv/fq_weights_1/scale3285147805" type="Const" version="opset1">
			<data offset="2502" size="32" shape="8,1,1,1" element_type="f32"/>
			<output>
				<port id="0" precision="FP32">
					<dim>8</dim>
					<dim>1</dim>
					<dim>1</dim>
					<dim>1</dim>
				</port>
			</output>
		</layer>
		<layer id="124" name="bottleneck1_2/inner/dw1/bn/mean/Fused_Mul__copy201125738/restored_convert/quantized3284351993" type="Const" version="opset1">
			<data offset="2534" size="72" shape="8,1,3,3" element_type="i8"/>
			<output>
				<port id="0" precision="I8">
					<dim>8</dim>
					<dim>1</dim>
					<dim>3</dim>
					<dim>3</dim>
				</port>
			</output>
		</layer>
		<layer id="125" name="bottleneck1_2/inner/dw1/bn/mean/Fused_Mul__copy201125738/restored_convert/quantized/to_f32" type="Convert" version="opset1">
			<data destination_type="f32"/>
			<input>
				<port id="0">
					<dim>8</dim>
					<dim>1</dim>
					<dim>3</dim>
					<dim>3</dim>
				</port>
			</input>
			<output>
				<port id="1" precision="FP32">
					<dim>8</dim>
					<dim>1</dim>
					<dim>3</dim>
					<dim>3</dim>
				</port>
			</output>
		</layer>
		<layer id="126" name="bottleneck1_2/inner/dw1/conv/fq_weights_1/mulpiply_by_scale" type="Multiply" version="opset1">
			<data auto_broadcast="numpy"/>
			<input>
				<port id="0">
					<dim>8</dim>
					<dim>1</dim>
					<dim>3</dim>
					<dim>3</dim>
				</port>
				<port id="1">
					<dim>8</dim>
					<dim>1</dim>
					<dim>1</dim>
					<dim>1</dim>
				</port>
			</input>
			<output>
				<port id="2" precision="FP32">
					<dim>8</dim>
					<dim>1</dim>
					<dim>3</dim>
					<dim>3</dim>
				</port>
			</output>
		</layer>
		<layer id="127" name="bottleneck1_2/inner/dw1/conv/GOI_weights_part4239950904" type="Const" version="opset1">
			<data offset="1606" size="24" shape="3" element_type="i64"/>
			<output>
				<port id="0" precision="I64">
					<dim>3</dim>
				</port>
			</output>
		</layer>
		<layer id="128" name="bottleneck1_2/inner/dw1/conv/WeightsShape" type="ShapeOf" version="opset3">
			<data output_type="i64"/>
			<input>
				<port id="0">
					<dim>8</dim>
					<dim>1</dim>
					<dim>3</dim>
					<dim>3</dim>
				</port>
			</input>
			<output>
				<port id="1" precision="I64">
					<dim>4</dim>
				</port>
			</output>
		</layer>
		<layer id="129" name="bottleneck1_2/inner/dw1/conv/XY_weights_part_input_port_1/value4239552266" type="Const" version="opset1">
			<data offset="1630" size="16" shape="2" element_type="i64"/>
			<output>
				<port id="0" precision="I64">
					<dim>2</dim>
				</port>
			</output>
		</layer>
		<layer id="130" name="bottleneck1_2/inner/dw1/conv/XY_weights_part_input_port_2/value4239749836" type="Const" version="opset1">
			<data offset="1646" size="8" shape="" element_type="i64"/>
			<output>
				<port id="0" precision="I64"/>
			</output>
		</layer>
		<layer id="131" name="bottleneck1_2/inner/dw1/conv/XY_weights_part" type="Gather" version="opset8">
			<data batch_dims="0"/>
			<input>
				<port id="0">
					<dim>4</dim>
				</port>
				<port id="1">
					<dim>2</dim>
				</port>
				<port id="2"/>
			</input>
			<output>
				<port id="3" precision="I64">
					<dim>2</dim>
				</port>
			</output>
		</layer>
		<layer id="132" name="bottleneck1_2/inner/dw1/conv/weights_shape" type="Concat" version="opset1">
			<data axis="0"/>
			<input>
				<port id="0">
					<dim>3</dim>
				</port>
				<port id="1">
					<dim>2</dim>
				</port>
			</input>
			<output>
				<port id="2" precision="I64">
					<dim>5</dim>
				</port>
			</output>
		</layer>
		<layer id="133" name="42401" type="Reshape" version="opset1">
			<data special_zero="true"/>
			<input>
				<port id="0">
					<dim>8</dim>
					<dim>1</dim>
					<dim>3</dim>
					<dim>3</dim>
				</port>
				<port id="1">
					<dim>5</dim>
				</port>
			</input>
			<output>
				<port id="2" precision="FP32">
					<dim>8</dim>
					<dim>1</dim>
					<dim>1</dim>
					<dim>3</dim>
					<dim>3</dim>
				</port>
			</output>
		</layer>
		<layer id="134" name="bottleneck1_2/inner/dw1/conv" type="GroupConvolution" version="opset1">
			<data auto_pad="explicit" strides="1,1" dilations="1,1" pads_begin="1,1" pads_end="1,1"/>
			<input>
				<port id="0">
					<dim>1</dim>
					<dim>8</dim>
					<dim>200</dim>
					<dim>340</dim>
				</port>
				<port id="1">
					<dim>8</dim>
					<dim>1</dim>
					<dim>1</dim>
					<dim>3</dim>
					<dim>3</dim>
				</port>
			</input>
			<output>
				<port id="2" precision="FP32">
					<dim>1</dim>
					<dim>8</dim>
					<dim>200</dim>
					<dim>340</dim>
				</port>
			</output>
		</layer>
		<layer id="135" name="data_add_4504045045201451609" type="Const" version="opset1">
			<data offset="2606" size="16" shape="1,8,1,1" element_type="f16"/>
			<output>
				<port id="0" precision="FP16">
					<dim>1</dim>
					<dim>8</dim>
					<dim>1</dim>
					<dim>1</dim>
				</port>
			</output>
		</layer>
		<layer id="136" name="data_add_4504045045201425739/restored_convert" type="Convert" version="opset1">
			<data destination_type="f32"/>
			<rt_info>
				<attribute name="decompression" version="0"/>
			</rt_info>
			<input>
				<port id="0">
					<dim>1</dim>
					<dim>8</dim>
					<dim>1</dim>
					<dim>1</dim>
				</port>
			</input>
			<output>
				<port id="1" precision="FP32">
					<dim>1</dim>
					<dim>8</dim>
					<dim>1</dim>
					<dim>1</dim>
				</port>
			</output>
		</layer>
		<layer id="137" name="bottleneck1_2/inner/dw1/bn/variance/Fused_Add_" type="Add" version="opset1">
			<data auto_broadcast="numpy"/>
			<input>
				<port id="0">
					<dim>1</dim>
					<dim>8</dim>
					<dim>200</dim>
					<dim>340</dim>
				</port>
				<port id="1">
					<dim>1</dim>
					<dim>8</dim>
					<dim>1</dim>
					<dim>1</dim>
				</port>
			</input>
			<output>
				<port id="2" precision="FP32" names="bottleneck1_2/inner/dw1/conv">
					<dim>1</dim>
					<dim>8</dim>
					<dim>200</dim>
					<dim>340</dim>
				</port>
			</output>
		</layer>
		<layer id="138" name="bottleneck1_2/inner/dw1/fn/weights5698673699201752374" type="Const" version="opset1">
			<data offset="1500" size="2" shape="1" element_type="f16"/>
			<output>
				<port id="0" precision="FP16">
					<dim>1</dim>
				</port>
			</output>
		</layer>
		<layer id="139" name="bottleneck1_2/inner/dw1/fn/weights5698673699201725740/restored_convert" type="Convert" version="opset1">
			<data destination_type="f32"/>
			<rt_info>
				<attribute name="decompression" version="0"/>
			</rt_info>
			<input>
				<port id="0">
					<dim>1</dim>
				</port>
			</input>
			<output>
				<port id="1" precision="FP32">
					<dim>1</dim>
				</port>
			</output>
		</layer>
		<layer id="140" name="bottleneck1_2/inner/dw1/fn" type="PReLU" version="opset1">
			<input>
				<port id="0">
					<dim>1</dim>
					<dim>8</dim>
					<dim>200</dim>
					<dim>340</dim>
				</port>
				<port id="1">
					<dim>1</dim>
				</port>
			</input>
			<output>
				<port id="2" precision="FP32" names="bottleneck1_2/inner/dw1/conv">
					<dim>1</dim>
					<dim>8</dim>
					<dim>200</dim>
					<dim>340</dim>
				</port>
			</output>
		</layer>
		<layer id="141" name="bottleneck1_2/dim_inc/conv/fq_input_0" type="FakeQuantize" version="opset1">
			<data levels="256" auto_broadcast="numpy"/>
			<input>
				<port id="0">
					<dim>1</dim>
					<dim>8</dim>
					<dim>200</dim>
					<dim>340</dim>
				</port>
				<port id="1"/>
				<port id="2"/>
				<port id="3"/>
				<port id="4"/>
			</input>
			<output>
				<port id="5" precision="FP32">
					<dim>1</dim>
					<dim>8</dim>
					<dim>200</dim>
					<dim>340</dim>
				</port>
			</output>
		</layer>
		<layer id="142" name="bottleneck1_2/dim_inc/conv/fq_weights_1/scale3360148771" type="Const" version="opset1">
			<data offset="2622" size="128" shape="32,1,1,1" element_type="f32"/>
			<output>
				<port id="0" precision="FP32">
					<dim>32</dim>
					<dim>1</dim>
					<dim>1</dim>
					<dim>1</dim>
				</port>
			</output>
		</layer>
		<layer id="143" name="bottleneck1_2/dim_inc/bn/mean/Fused_Mul__copy202025741/restored_convert/quantized3359349824" type="Const" version="opset1">
			<data offset="2750" size="256" shape="32,8,1,1" element_type="i8"/>
			<output>
				<port id="0" precision="I8">
					<dim>32</dim>
					<dim>8</dim>
					<dim>1</dim>
					<dim>1</dim>
				</port>
			</output>
		</layer>
		<layer id="144" name="bottleneck1_2/dim_inc/bn/mean/Fused_Mul__copy202025741/restored_convert/quantized/to_f32" type="Convert" version="opset1">
			<data destination_type="f32"/>
			<input>
				<port id="0">
					<dim>32</dim>
					<dim>8</dim>
					<dim>1</dim>
					<dim>1</dim>
				</port>
			</input>
			<output>
				<port id="1" precision="FP32">
					<dim>32</dim>
					<dim>8</dim>
					<dim>1</dim>
					<dim>1</dim>
				</port>
			</output>
		</layer>
		<layer id="145" name="bottleneck1_2/dim_inc/conv/fq_weights_1/mulpiply_by_scale" type="Multiply" version="opset1">
			<data auto_broadcast="numpy"/>
			<input>
				<port id="0">
					<dim>32</dim>
					<dim>8</dim>
					<dim>1</dim>
					<dim>1</dim>
				</port>
				<port id="1">
					<dim>32</dim>
					<dim>1</dim>
					<dim>1</dim>
					<dim>1</dim>
				</port>
			</input>
			<output>
				<port id="2" precision="FP32">
					<dim>32</dim>
					<dim>8</dim>
					<dim>1</dim>
					<dim>1</dim>
				</port>
			</output>
		</layer>
		<layer id="146" name="bottleneck1_2/dim_inc/conv" type="Convolution" version="opset1">
			<data auto_pad="explicit" strides="1,1" dilations="1,1" pads_begin="0,0" pads_end="0,0"/>
			<input>
				<port id="0">
					<dim>1</dim>
					<dim>8</dim>
					<dim>200</dim>
					<dim>340</dim>
				</port>
				<port id="1">
					<dim>32</dim>
					<dim>8</dim>
					<dim>1</dim>
					<dim>1</dim>
				</port>
			</input>
			<output>
				<port id="2" precision="FP32">
					<dim>1</dim>
					<dim>32</dim>
					<dim>200</dim>
					<dim>340</dim>
				</port>
			</output>
		</layer>
		<layer id="147" name="data_add_4504845053202350025" type="Const" version="opset1">
			<data offset="3006" size="64" shape="1,32,1,1" element_type="f16"/>
			<output>
				<port id="0" precision="FP16">
					<dim>1</dim>
					<dim>32</dim>
					<dim>1</dim>
					<dim>1</dim>
				</port>
			</output>
		</layer>
		<layer id="148" name="data_add_4504845053202325742/restored_convert" type="Convert" version="opset1">
			<data destination_type="f32"/>
			<rt_info>
				<attribute name="decompression" version="0"/>
			</rt_info>
			<input>
				<port id="0">
					<dim>1</dim>
					<dim>32</dim>
					<dim>1</dim>
					<dim>1</dim>
				</port>
			</input>
			<output>
				<port id="1" precision="FP32">
					<dim>1</dim>
					<dim>32</dim>
					<dim>1</dim>
					<dim>1</dim>
				</port>
			</output>
		</layer>
		<layer id="149" name="bottleneck1_2/dim_inc/bn/variance/Fused_Add_" type="Add" version="opset1">
			<data auto_broadcast="numpy"/>
			<input>
				<port id="0">
					<dim>1</dim>
					<dim>32</dim>
					<dim>200</dim>
					<dim>340</dim>
				</port>
				<port id="1">
					<dim>1</dim>
					<dim>32</dim>
					<dim>1</dim>
					<dim>1</dim>
				</port>
			</input>
			<output>
				<port id="2" precision="FP32" names="bottleneck1_2/dim_inc/conv,bottleneck1_2/dim_inc/dropout">
					<dim>1</dim>
					<dim>32</dim>
					<dim>200</dim>
					<dim>340</dim>
				</port>
			</output>
		</layer>
		<layer id="150" name="bottleneck1_2/add/fq_input_1" type="FakeQuantize" version="opset1">
			<data levels="256" auto_broadcast="numpy"/>
			<input>
				<port id="0">
					<dim>1</dim>
					<dim>32</dim>
					<dim>200</dim>
					<dim>340</dim>
				</port>
				<port id="1"/>
				<port id="2"/>
				<port id="3"/>
				<port id="4"/>
			</input>
			<output>
				<port id="5" precision="FP32">
					<dim>1</dim>
					<dim>32</dim>
					<dim>200</dim>
					<dim>340</dim>
				</port>
			</output>
		</layer>
		<layer id="151" name="bottleneck1_2/add" type="Add" version="opset1">
			<data auto_broadcast="numpy"/>
			<input>
				<port id="0">
					<dim>1</dim>
					<dim>32</dim>
					<dim>200</dim>
					<dim>340</dim>
				</port>
				<port id="1">
					<dim>1</dim>
					<dim>32</dim>
					<dim>200</dim>
					<dim>340</dim>
				</port>
			</input>
			<output>
				<port id="2" precision="FP32" names="bottleneck1_2/add">
					<dim>1</dim>
					<dim>32</dim>
					<dim>200</dim>
					<dim>340</dim>
				</port>
			</output>
		</layer>
		<layer id="152" name="bottleneck1_2/fn/weights5753874731202749473" type="Const" version="opset1">
			<data offset="1500" size="2" shape="1" element_type="f16"/>
			<output>
				<port id="0" precision="FP16">
					<dim>1</dim>
				</port>
			</output>
		</layer>
		<layer id="153" name="bottleneck1_2/fn/weights5753874731202725743/restored_convert" type="Convert" version="opset1">
			<data destination_type="f32"/>
			<rt_info>
				<attribute name="decompression" version="0"/>
			</rt_info>
			<input>
				<port id="0">
					<dim>1</dim>
				</port>
			</input>
			<output>
				<port id="1" precision="FP32">
					<dim>1</dim>
				</port>
			</output>
		</layer>
		<layer id="154" name="bottleneck1_2/fn" type="PReLU" version="opset1">
			<input>
				<port id="0">
					<dim>1</dim>
					<dim>32</dim>
					<dim>200</dim>
					<dim>340</dim>
				</port>
				<port id="1">
					<dim>1</dim>
				</port>
			</input>
			<output>
				<port id="2" precision="FP32" names="bottleneck1_2/add">
					<dim>1</dim>
					<dim>32</dim>
					<dim>200</dim>
					<dim>340</dim>
				</port>
			</output>
		</layer>
		<layer id="155" name="bottleneck1_3/add/fq_input_0" type="FakeQuantize" version="opset1">
			<data levels="256" auto_broadcast="numpy"/>
			<input>
				<port id="0">
					<dim>1</dim>
					<dim>32</dim>
					<dim>200</dim>
					<dim>340</dim>
				</port>
				<port id="1"/>
				<port id="2"/>
				<port id="3"/>
				<port id="4"/>
			</input>
			<output>
				<port id="5" precision="FP32">
					<dim>1</dim>
					<dim>32</dim>
					<dim>200</dim>
					<dim>340</dim>
				</port>
			</output>
		</layer>
		<layer id="156" name="111591116352086" type="Const" version="opset1">
			<data offset="3070" size="4" shape="" element_type="f32"/>
			<output>
				<port id="0" precision="FP32"/>
			</output>
		</layer>
		<layer id="157" name="111601116448711" type="Const" version="opset1">
			<data offset="3074" size="4" shape="" element_type="f32"/>
			<output>
				<port id="0" precision="FP32"/>
			</output>
		</layer>
		<layer id="158" name="111611116548576" type="Const" version="opset1">
			<data offset="3070" size="4" shape="" element_type="f32"/>
			<output>
				<port id="0" precision="FP32"/>
			</output>
		</layer>
		<layer id="159" name="111621116653361" type="Const" version="opset1">
			<data offset="3074" size="4" shape="" element_type="f32"/>
			<output>
				<port id="0" precision="FP32"/>
			</output>
		</layer>
		<layer id="160" name="6709671352965" type="Const" version="opset1">
			<data offset="3078" size="4" shape="" element_type="f32"/>
			<output>
				<port id="0" precision="FP32"/>
			</output>
		</layer>
		<layer id="161" name="6710671450094" type="Const" version="opset1">
			<data offset="3082" size="4" shape="" element_type="f32"/>
			<output>
				<port id="0" precision="FP32"/>
			</output>
		</layer>
		<layer id="162" name="6711671552521" type="Const" version="opset1">
			<data offset="3078" size="4" shape="" element_type="f32"/>
			<output>
				<port id="0" precision="FP32"/>
			</output>
		</layer>
		<layer id="163" name="6712671653268" type="Const" version="opset1">
			<data offset="3082" size="4" shape="" element_type="f32"/>
			<output>
				<port id="0" precision="FP32"/>
			</output>
		</layer>
		<layer id="164" name="7099710350925" type="Const" version="opset1">
			<data offset="3086" size="32" shape="1,8,1,1" element_type="f32"/>
			<output>
				<port id="0" precision="FP32">
					<dim>1</dim>
					<dim>8</dim>
					<dim>1</dim>
					<dim>1</dim>
				</port>
			</output>
		</layer>
		<layer id="165" name="7100710452656" type="Const" version="opset1">
			<data offset="3118" size="32" shape="1,8,1,1" element_type="f32"/>
			<output>
				<port id="0" precision="FP32">
					<dim>1</dim>
					<dim>8</dim>
					<dim>1</dim>
					<dim>1</dim>
				</port>
			</output>
		</layer>
		<layer id="166" name="7101710547823" type="Const" version="opset1">
			<data offset="3086" size="32" shape="1,8,1,1" element_type="f32"/>
			<output>
				<port id="0" precision="FP32">
					<dim>1</dim>
					<dim>8</dim>
					<dim>1</dim>
					<dim>1</dim>
				</port>
			</output>
		</layer>
		<layer id="167" name="7102710652683" type="Const" version="opset1">
			<data offset="3118" size="32" shape="1,8,1,1" element_type="f32"/>
			<output>
				<port id="0" precision="FP32">
					<dim>1</dim>
					<dim>8</dim>
					<dim>1</dim>
					<dim>1</dim>
				</port>
			</output>
		</layer>
		<layer id="168" name="bottleneck1_3/dim_red/conv/fq_weights_1/scale3204150778" type="Const" version="opset1">
			<data offset="3150" size="32" shape="8,1,1,1" element_type="f32"/>
			<output>
				<port id="0" precision="FP32">
					<dim>8</dim>
					<dim>1</dim>
					<dim>1</dim>
					<dim>1</dim>
				</port>
			</output>
		</layer>
		<layer id="169" name="bottleneck1_3/dim_red/bn/mean/Fused_Mul__copy203025744/restored_convert/quantized3203351213" type="Const" version="opset1">
			<data offset="3182" size="256" shape="8,32,1,1" element_type="i8"/>
			<output>
				<port id="0" precision="I8">
					<dim>8</dim>
					<dim>32</dim>
					<dim>1</dim>
					<dim>1</dim>
				</port>
			</output>
		</layer>
		<layer id="170" name="bottleneck1_3/dim_red/bn/mean/Fused_Mul__copy203025744/restored_convert/quantized/to_f32" type="Convert" version="opset1">
			<data destination_type="f32"/>
			<input>
				<port id="0">
					<dim>8</dim>
					<dim>32</dim>
					<dim>1</dim>
					<dim>1</dim>
				</port>
			</input>
			<output>
				<port id="1" precision="FP32">
					<dim>8</dim>
					<dim>32</dim>
					<dim>1</dim>
					<dim>1</dim>
				</port>
			</output>
		</layer>
		<layer id="171" name="bottleneck1_3/dim_red/conv/fq_weights_1/mulpiply_by_scale" type="Multiply" version="opset1">
			<data auto_broadcast="numpy"/>
			<input>
				<port id="0">
					<dim>8</dim>
					<dim>32</dim>
					<dim>1</dim>
					<dim>1</dim>
				</port>
				<port id="1">
					<dim>8</dim>
					<dim>1</dim>
					<dim>1</dim>
					<dim>1</dim>
				</port>
			</input>
			<output>
				<port id="2" precision="FP32">
					<dim>8</dim>
					<dim>32</dim>
					<dim>1</dim>
					<dim>1</dim>
				</port>
			</output>
		</layer>
		<layer id="172" name="bottleneck1_3/dim_red/conv" type="Convolution" version="opset1">
			<data auto_pad="explicit" strides="1,1" dilations="1,1" pads_begin="0,0" pads_end="0,0"/>
			<input>
				<port id="0">
					<dim>1</dim>
					<dim>32</dim>
					<dim>200</dim>
					<dim>340</dim>
				</port>
				<port id="1">
					<dim>8</dim>
					<dim>32</dim>
					<dim>1</dim>
					<dim>1</dim>
				</port>
			</input>
			<output>
				<port id="2" precision="FP32">
					<dim>1</dim>
					<dim>8</dim>
					<dim>200</dim>
					<dim>340</dim>
				</port>
			</output>
		</layer>
		<layer id="173" name="data_add_4505645061203352677" type="Const" version="opset1">
			<data offset="3438" size="16" shape="1,8,1,1" element_type="f16"/>
			<output>
				<port id="0" precision="FP16">
					<dim>1</dim>
					<dim>8</dim>
					<dim>1</dim>
					<dim>1</dim>
				</port>
			</output>
		</layer>
		<layer id="174" name="data_add_4505645061203325745/restored_convert" type="Convert" version="opset1">
			<data destination_type="f32"/>
			<rt_info>
				<attribute name="decompression" version="0"/>
			</rt_info>
			<input>
				<port id="0">
					<dim>1</dim>
					<dim>8</dim>
					<dim>1</dim>
					<dim>1</dim>
				</port>
			</input>
			<output>
				<port id="1" precision="FP32">
					<dim>1</dim>
					<dim>8</dim>
					<dim>1</dim>
					<dim>1</dim>
				</port>
			</output>
		</layer>
		<layer id="175" name="bottleneck1_3/dim_red/bn/variance/Fused_Add_" type="Add" version="opset1">
			<data auto_broadcast="numpy"/>
			<input>
				<port id="0">
					<dim>1</dim>
					<dim>8</dim>
					<dim>200</dim>
					<dim>340</dim>
				</port>
				<port id="1">
					<dim>1</dim>
					<dim>8</dim>
					<dim>1</dim>
					<dim>1</dim>
				</port>
			</input>
			<output>
				<port id="2" precision="FP32" names="bottleneck1_3/dim_red/conv">
					<dim>1</dim>
					<dim>8</dim>
					<dim>200</dim>
					<dim>340</dim>
				</port>
			</output>
		</layer>
		<layer id="176" name="bottleneck1_3/dim_red/fn/weights5699473873203647817" type="Const" version="opset1">
			<data offset="1500" size="2" shape="1" element_type="f16"/>
			<output>
				<port id="0" precision="FP16">
					<dim>1</dim>
				</port>
			</output>
		</layer>
		<layer id="177" name="bottleneck1_3/dim_red/fn/weights5699473873203625746/restored_convert" type="Convert" version="opset1">
			<data destination_type="f32"/>
			<rt_info>
				<attribute name="decompression" version="0"/>
			</rt_info>
			<input>
				<port id="0">
					<dim>1</dim>
				</port>
			</input>
			<output>
				<port id="1" precision="FP32">
					<dim>1</dim>
				</port>
			</output>
		</layer>
		<layer id="178" name="bottleneck1_3/dim_red/fn" type="PReLU" version="opset1">
			<input>
				<port id="0">
					<dim>1</dim>
					<dim>8</dim>
					<dim>200</dim>
					<dim>340</dim>
				</port>
				<port id="1">
					<dim>1</dim>
				</port>
			</input>
			<output>
				<port id="2" precision="FP32" names="bottleneck1_3/dim_red/conv">
					<dim>1</dim>
					<dim>8</dim>
					<dim>200</dim>
					<dim>340</dim>
				</port>
			</output>
		</layer>
		<layer id="179" name="bottleneck1_3/inner/dw1/conv/fq_input_0" type="FakeQuantize" version="opset1">
			<data levels="256" auto_broadcast="numpy"/>
			<input>
				<port id="0">
					<dim>1</dim>
					<dim>8</dim>
					<dim>200</dim>
					<dim>340</dim>
				</port>
				<port id="1">
					<dim>1</dim>
					<dim>8</dim>
					<dim>1</dim>
					<dim>1</dim>
				</port>
				<port id="2">
					<dim>1</dim>
					<dim>8</dim>
					<dim>1</dim>
					<dim>1</dim>
				</port>
				<port id="3">
					<dim>1</dim>
					<dim>8</dim>
					<dim>1</dim>
					<dim>1</dim>
				</port>
				<port id="4">
					<dim>1</dim>
					<dim>8</dim>
					<dim>1</dim>
					<dim>1</dim>
				</port>
			</input>
			<output>
				<port id="5" precision="FP32">
					<dim>1</dim>
					<dim>8</dim>
					<dim>200</dim>
					<dim>340</dim>
				</port>
			</output>
		</layer>
		<layer id="180" name="bottleneck1_3/inner/dw1/conv/fq_weights_1/scale3411152191" type="Const" version="opset1">
			<data offset="3454" size="32" shape="8,1,1,1" element_type="f32"/>
			<output>
				<port id="0" precision="FP32">
					<dim>8</dim>
					<dim>1</dim>
					<dim>1</dim>
					<dim>1</dim>
				</port>
			</output>
		</layer>
		<layer id="181" name="bottleneck1_3/inner/dw1/bn/mean/Fused_Mul__copy203925747/restored_convert/quantized3410348015" type="Const" version="opset1">
			<data offset="3486" size="72" shape="8,1,3,3" element_type="i8"/>
			<output>
				<port id="0" precision="I8">
					<dim>8</dim>
					<dim>1</dim>
					<dim>3</dim>
					<dim>3</dim>
				</port>
			</output>
		</layer>
		<layer id="182" name="bottleneck1_3/inner/dw1/bn/mean/Fused_Mul__copy203925747/restored_convert/quantized/to_f32" type="Convert" version="opset1">
			<data destination_type="f32"/>
			<input>
				<port id="0">
					<dim>8</dim>
					<dim>1</dim>
					<dim>3</dim>
					<dim>3</dim>
				</port>
			</input>
			<output>
				<port id="1" precision="FP32">
					<dim>8</dim>
					<dim>1</dim>
					<dim>3</dim>
					<dim>3</dim>
				</port>
			</output>
		</layer>
		<layer id="183" name="bottleneck1_3/inner/dw1/conv/fq_weights_1/mulpiply_by_scale" type="Multiply" version="opset1">
			<data auto_broadcast="numpy"/>
			<input>
				<port id="0">
					<dim>8</dim>
					<dim>1</dim>
					<dim>3</dim>
					<dim>3</dim>
				</port>
				<port id="1">
					<dim>8</dim>
					<dim>1</dim>
					<dim>1</dim>
					<dim>1</dim>
				</port>
			</input>
			<output>
				<port id="2" precision="FP32">
					<dim>8</dim>
					<dim>1</dim>
					<dim>3</dim>
					<dim>3</dim>
				</port>
			</output>
		</layer>
		<layer id="184" name="bottleneck1_3/inner/dw1/conv/GOI_weights_part4241350835" type="Const" version="opset1">
			<data offset="1606" size="24" shape="3" element_type="i64"/>
			<output>
				<port id="0" precision="I64">
					<dim>3</dim>
				</port>
			</output>
		</layer>
		<layer id="185" name="bottleneck1_3/inner/dw1/conv/WeightsShape" type="ShapeOf" version="opset3">
			<data output_type="i64"/>
			<input>
				<port id="0">
					<dim>8</dim>
					<dim>1</dim>
					<dim>3</dim>
					<dim>3</dim>
				</port>
			</input>
			<output>
				<port id="1" precision="I64">
					<dim>4</dim>
				</port>
			</output>
		</layer>
		<layer id="186" name="bottleneck1_3/inner/dw1/conv/XY_weights_part_input_port_1/value4240949503" type="Const" version="opset1">
			<data offset="1630" size="16" shape="2" element_type="i64"/>
			<output>
				<port id="0" precision="I64">
					<dim>2</dim>
				</port>
			</output>
		</layer>
		<layer id="187" name="bottleneck1_3/inner/dw1/conv/XY_weights_part_input_port_2/value4241152080" type="Const" version="opset1">
			<data offset="1646" size="8" shape="" element_type="i64"/>
			<output>
				<port id="0" precision="I64"/>
			</output>
		</layer>
		<layer id="188" name="bottleneck1_3/inner/dw1/conv/XY_weights_part" type="Gather" version="opset8">
			<data batch_dims="0"/>
			<input>
				<port id="0">
					<dim>4</dim>
				</port>
				<port id="1">
					<dim>2</dim>
				</port>
				<port id="2"/>
			</input>
			<output>
				<port id="3" precision="I64">
					<dim>2</dim>
				</port>
			</output>
		</layer>
		<layer id="189" name="bottleneck1_3/inner/dw1/conv/weights_shape" type="Concat" version="opset1">
			<data axis="0"/>
			<input>
				<port id="0">
					<dim>3</dim>
				</port>
				<port id="1">
					<dim>2</dim>
				</port>
			</input>
			<output>
				<port id="2" precision="I64">
					<dim>5</dim>
				</port>
			</output>
		</layer>
		<layer id="190" name="42415" type="Reshape" version="opset1">
			<data special_zero="true"/>
			<input>
				<port id="0">
					<dim>8</dim>
					<dim>1</dim>
					<dim>3</dim>
					<dim>3</dim>
				</port>
				<port id="1">
					<dim>5</dim>
				</port>
			</input>
			<output>
				<port id="2" precision="FP32">
					<dim>8</dim>
					<dim>1</dim>
					<dim>1</dim>
					<dim>3</dim>
					<dim>3</dim>
				</port>
			</output>
		</layer>
		<layer id="191" name="bottleneck1_3/inner/dw1/conv" type="GroupConvolution" version="opset1">
			<data auto_pad="explicit" strides="1,1" dilations="1,1" pads_begin="1,1" pads_end="1,1"/>
			<input>
				<port id="0">
					<dim>1</dim>
					<dim>8</dim>
					<dim>200</dim>
					<dim>340</dim>
				</port>
				<port id="1">
					<dim>8</dim>
					<dim>1</dim>
					<dim>1</dim>
					<dim>3</dim>
					<dim>3</dim>
				</port>
			</input>
			<output>
				<port id="2" precision="FP32">
					<dim>1</dim>
					<dim>8</dim>
					<dim>200</dim>
					<dim>340</dim>
				</port>
			</output>
		</layer>
		<layer id="192" name="data_add_4506445069204252326" type="Const" version="opset1">
			<data offset="3558" size="16" shape="1,8,1,1" element_type="f16"/>
			<output>
				<port id="0" precision="FP16">
					<dim>1</dim>
					<dim>8</dim>
					<dim>1</dim>
					<dim>1</dim>
				</port>
			</output>
		</layer>
		<layer id="193" name="data_add_4506445069204225748/restored_convert" type="Convert" version="opset1">
			<data destination_type="f32"/>
			<rt_info>
				<attribute name="decompression" version="0"/>
			</rt_info>
			<input>
				<port id="0">
					<dim>1</dim>
					<dim>8</dim>
					<dim>1</dim>
					<dim>1</dim>
				</port>
			</input>
			<output>
				<port id="1" precision="FP32">
					<dim>1</dim>
					<dim>8</dim>
					<dim>1</dim>
					<dim>1</dim>
				</port>
			</output>
		</layer>
		<layer id="194" name="bottleneck1_3/inner/dw1/bn/variance/Fused_Add_" type="Add" version="opset1">
			<data auto_broadcast="numpy"/>
			<input>
				<port id="0">
					<dim>1</dim>
					<dim>8</dim>
					<dim>200</dim>
					<dim>340</dim>
				</port>
				<port id="1">
					<dim>1</dim>
					<dim>8</dim>
					<dim>1</dim>
					<dim>1</dim>
				</port>
			</input>
			<output>
				<port id="2" precision="FP32" names="bottleneck1_3/inner/dw1/conv">
					<dim>1</dim>
					<dim>8</dim>
					<dim>200</dim>
					<dim>340</dim>
				</port>
			</output>
		</layer>
		<layer id="195" name="bottleneck1_3/inner/dw1/fn/weights5731873576204549386" type="Const" version="opset1">
			<data offset="1500" size="2" shape="1" element_type="f16"/>
			<output>
				<port id="0" precision="FP16">
					<dim>1</dim>
				</port>
			</output>
		</layer>
		<layer id="196" name="bottleneck1_3/inner/dw1/fn/weights5731873576204525749/restored_convert" type="Convert" version="opset1">
			<data destination_type="f32"/>
			<rt_info>
				<attribute name="decompression" version="0"/>
			</rt_info>
			<input>
				<port id="0">
					<dim>1</dim>
				</port>
			</input>
			<output>
				<port id="1" precision="FP32">
					<dim>1</dim>
				</port>
			</output>
		</layer>
		<layer id="197" name="bottleneck1_3/inner/dw1/fn" type="PReLU" version="opset1">
			<input>
				<port id="0">
					<dim>1</dim>
					<dim>8</dim>
					<dim>200</dim>
					<dim>340</dim>
				</port>
				<port id="1">
					<dim>1</dim>
				</port>
			</input>
			<output>
				<port id="2" precision="FP32" names="bottleneck1_3/inner/dw1/conv">
					<dim>1</dim>
					<dim>8</dim>
					<dim>200</dim>
					<dim>340</dim>
				</port>
			</output>
		</layer>
		<layer id="198" name="bottleneck1_3/dim_inc/conv/fq_input_0" type="FakeQuantize" version="opset1">
			<data levels="256" auto_broadcast="numpy"/>
			<input>
				<port id="0">
					<dim>1</dim>
					<dim>8</dim>
					<dim>200</dim>
					<dim>340</dim>
				</port>
				<port id="1"/>
				<port id="2"/>
				<port id="3"/>
				<port id="4"/>
			</input>
			<output>
				<port id="5" precision="FP32">
					<dim>1</dim>
					<dim>8</dim>
					<dim>200</dim>
					<dim>340</dim>
				</port>
			</output>
		</layer>
		<layer id="199" name="bottleneck1_3/dim_inc/conv/fq_weights_1/scale3138149797" type="Const" version="opset1">
			<data offset="3574" size="128" shape="32,1,1,1" element_type="f32"/>
			<output>
				<port id="0" precision="FP32">
					<dim>32</dim>
					<dim>1</dim>
					<dim>1</dim>
					<dim>1</dim>
				</port>
			</output>
		</layer>
		<layer id="200" name="bottleneck1_3/dim_inc/bn/mean/Fused_Mul__copy204825750/restored_convert/quantized3137350136" type="Const" version="opset1">
			<data offset="3702" size="256" shape="32,8,1,1" element_type="i8"/>
			<output>
				<port id="0" precision="I8">
					<dim>32</dim>
					<dim>8</dim>
					<dim>1</dim>
					<dim>1</dim>
				</port>
			</output>
		</layer>
		<layer id="201" name="bottleneck1_3/dim_inc/bn/mean/Fused_Mul__copy204825750/restored_convert/quantized/to_f32" type="Convert" version="opset1">
			<data destination_type="f32"/>
			<input>
				<port id="0">
					<dim>32</dim>
					<dim>8</dim>
					<dim>1</dim>
					<dim>1</dim>
				</port>
			</input>
			<output>
				<port id="1" precision="FP32">
					<dim>32</dim>
					<dim>8</dim>
					<dim>1</dim>
					<dim>1</dim>
				</port>
			</output>
		</layer>
		<layer id="202" name="bottleneck1_3/dim_inc/conv/fq_weights_1/mulpiply_by_scale" type="Multiply" version="opset1">
			<data auto_broadcast="numpy"/>
			<input>
				<port id="0">
					<dim>32</dim>
					<dim>8</dim>
					<dim>1</dim>
					<dim>1</dim>
				</port>
				<port id="1">
					<dim>32</dim>
					<dim>1</dim>
					<dim>1</dim>
					<dim>1</dim>
				</port>
			</input>
			<output>
				<port id="2" precision="FP32">
					<dim>32</dim>
					<dim>8</dim>
					<dim>1</dim>
					<dim>1</dim>
				</port>
			</output>
		</layer>
		<layer id="203" name="bottleneck1_3/dim_inc/conv" type="Convolution" version="opset1">
			<data auto_pad="explicit" strides="1,1" dilations="1,1" pads_begin="0,0" pads_end="0,0"/>
			<input>
				<port id="0">
					<dim>1</dim>
					<dim>8</dim>
					<dim>200</dim>
					<dim>340</dim>
				</port>
				<port id="1">
					<dim>32</dim>
					<dim>8</dim>
					<dim>1</dim>
					<dim>1</dim>
				</port>
			</input>
			<output>
				<port id="2" precision="FP32">
					<dim>1</dim>
					<dim>32</dim>
					<dim>200</dim>
					<dim>340</dim>
				</port>
			</output>
		</layer>
		<layer id="204" name="data_add_4507245077205147832" type="Const" version="opset1">
			<data offset="3958" size="64" shape="1,32,1,1" element_type="f16"/>
			<output>
				<port id="0" precision="FP16">
					<dim>1</dim>
					<dim>32</dim>
					<dim>1</dim>
					<dim>1</dim>
				</port>
			</output>
		</layer>
		<layer id="205" name="data_add_4507245077205125751/restored_convert" type="Convert" version="opset1">
			<data destination_type="f32"/>
			<rt_info>
				<attribute name="decompression" version="0"/>
			</rt_info>
			<input>
				<port id="0">
					<dim>1</dim>
					<dim>32</dim>
					<dim>1</dim>
					<dim>1</dim>
				</port>
			</input>
			<output>
				<port id="1" precision="FP32">
					<dim>1</dim>
					<dim>32</dim>
					<dim>1</dim>
					<dim>1</dim>
				</port>
			</output>
		</layer>
		<layer id="206" name="bottleneck1_3/dim_inc/bn/variance/Fused_Add_" type="Add" version="opset1">
			<data auto_broadcast="numpy"/>
			<input>
				<port id="0">
					<dim>1</dim>
					<dim>32</dim>
					<dim>200</dim>
					<dim>340</dim>
				</port>
				<port id="1">
					<dim>1</dim>
					<dim>32</dim>
					<dim>1</dim>
					<dim>1</dim>
				</port>
			</input>
			<output>
				<port id="2" precision="FP32" names="bottleneck1_3/dim_inc/conv,bottleneck1_3/dim_inc/dropout">
					<dim>1</dim>
					<dim>32</dim>
					<dim>200</dim>
					<dim>340</dim>
				</port>
			</output>
		</layer>
		<layer id="207" name="bottleneck1_3/add/fq_input_1" type="FakeQuantize" version="opset1">
			<data levels="256" auto_broadcast="numpy"/>
			<input>
				<port id="0">
					<dim>1</dim>
					<dim>32</dim>
					<dim>200</dim>
					<dim>340</dim>
				</port>
				<port id="1"/>
				<port id="2"/>
				<port id="3"/>
				<port id="4"/>
			</input>
			<output>
				<port id="5" precision="FP32">
					<dim>1</dim>
					<dim>32</dim>
					<dim>200</dim>
					<dim>340</dim>
				</port>
			</output>
		</layer>
		<layer id="208" name="bottleneck1_3/add" type="Add" version="opset1">
			<data auto_broadcast="numpy"/>
			<input>
				<port id="0">
					<dim>1</dim>
					<dim>32</dim>
					<dim>200</dim>
					<dim>340</dim>
				</port>
				<port id="1">
					<dim>1</dim>
					<dim>32</dim>
					<dim>200</dim>
					<dim>340</dim>
				</port>
			</input>
			<output>
				<port id="2" precision="FP32" names="bottleneck1_3/add">
					<dim>1</dim>
					<dim>32</dim>
					<dim>200</dim>
					<dim>340</dim>
				</port>
			</output>
		</layer>
		<layer id="209" name="bottleneck1_3/fn/weights5697075277205547646" type="Const" version="opset1">
			<data offset="1500" size="2" shape="1" element_type="f16"/>
			<output>
				<port id="0" precision="FP16">
					<dim>1</dim>
				</port>
			</output>
		</layer>
		<layer id="210" name="bottleneck1_3/fn/weights5697075277205525752/restored_convert" type="Convert" version="opset1">
			<data destination_type="f32"/>
			<rt_info>
				<attribute name="decompression" version="0"/>
			</rt_info>
			<input>
				<port id="0">
					<dim>1</dim>
				</port>
			</input>
			<output>
				<port id="1" precision="FP32">
					<dim>1</dim>
				</port>
			</output>
		</layer>
		<layer id="211" name="bottleneck1_3/fn" type="PReLU" version="opset1">
			<input>
				<port id="0">
					<dim>1</dim>
					<dim>32</dim>
					<dim>200</dim>
					<dim>340</dim>
				</port>
				<port id="1">
					<dim>1</dim>
				</port>
			</input>
			<output>
				<port id="2" precision="FP32" names="bottleneck1_3/add">
					<dim>1</dim>
					<dim>32</dim>
					<dim>200</dim>
					<dim>340</dim>
				</port>
			</output>
		</layer>
		<layer id="212" name="bottleneck1_4/add/fq_input_0" type="FakeQuantize" version="opset1">
			<data levels="256" auto_broadcast="numpy"/>
			<input>
				<port id="0">
					<dim>1</dim>
					<dim>32</dim>
					<dim>200</dim>
					<dim>340</dim>
				</port>
				<port id="1"/>
				<port id="2"/>
				<port id="3"/>
				<port id="4"/>
			</input>
			<output>
				<port id="5" precision="FP32">
					<dim>1</dim>
					<dim>32</dim>
					<dim>200</dim>
					<dim>340</dim>
				</port>
			</output>
		</layer>
		<layer id="213" name="106891069348690" type="Const" version="opset1">
			<data offset="4022" size="4" shape="" element_type="f32"/>
			<output>
				<port id="0" precision="FP32"/>
			</output>
		</layer>
		<layer id="214" name="106901069451198" type="Const" version="opset1">
			<data offset="4026" size="4" shape="" element_type="f32"/>
			<output>
				<port id="0" precision="FP32"/>
			</output>
		</layer>
		<layer id="215" name="106911069550607" type="Const" version="opset1">
			<data offset="4022" size="4" shape="" element_type="f32"/>
			<output>
				<port id="0" precision="FP32"/>
			</output>
		</layer>
		<layer id="216" name="106921069650670" type="Const" version="opset1">
			<data offset="4026" size="4" shape="" element_type="f32"/>
			<output>
				<port id="0" precision="FP32"/>
			</output>
		</layer>
		<layer id="217" name="9389939351576" type="Const" version="opset1">
			<data offset="4030" size="4" shape="" element_type="f32"/>
			<output>
				<port id="0" precision="FP32"/>
			</output>
		</layer>
		<layer id="218" name="9390939452272" type="Const" version="opset1">
			<data offset="4034" size="4" shape="" element_type="f32"/>
			<output>
				<port id="0" precision="FP32"/>
			</output>
		</layer>
		<layer id="219" name="9391939548462" type="Const" version="opset1">
			<data offset="4030" size="4" shape="" element_type="f32"/>
			<output>
				<port id="0" precision="FP32"/>
			</output>
		</layer>
		<layer id="220" name="9392939648720" type="Const" version="opset1">
			<data offset="4034" size="4" shape="" element_type="f32"/>
			<output>
				<port id="0" precision="FP32"/>
			</output>
		</layer>
		<layer id="221" name="8669867353886" type="Const" version="opset1">
			<data offset="4038" size="32" shape="1,8,1,1" element_type="f32"/>
			<output>
				<port id="0" precision="FP32">
					<dim>1</dim>
					<dim>8</dim>
					<dim>1</dim>
					<dim>1</dim>
				</port>
			</output>
		</layer>
		<layer id="222" name="8670867452803" type="Const" version="opset1">
			<data offset="4070" size="32" shape="1,8,1,1" element_type="f32"/>
			<output>
				<port id="0" precision="FP32">
					<dim>1</dim>
					<dim>8</dim>
					<dim>1</dim>
					<dim>1</dim>
				</port>
			</output>
		</layer>
		<layer id="223" name="8671867549731" type="Const" version="opset1">
			<data offset="4038" size="32" shape="1,8,1,1" element_type="f32"/>
			<output>
				<port id="0" precision="FP32">
					<dim>1</dim>
					<dim>8</dim>
					<dim>1</dim>
					<dim>1</dim>
				</port>
			</output>
		</layer>
		<layer id="224" name="8672867650262" type="Const" version="opset1">
			<data offset="4070" size="32" shape="1,8,1,1" element_type="f32"/>
			<output>
				<port id="0" precision="FP32">
					<dim>1</dim>
					<dim>8</dim>
					<dim>1</dim>
					<dim>1</dim>
				</port>
			</output>
		</layer>
		<layer id="225" name="bottleneck1_4/dim_red/conv/fq_weights_1/scale3228149431" type="Const" version="opset1">
			<data offset="4102" size="32" shape="8,1,1,1" element_type="f32"/>
			<output>
				<port id="0" precision="FP32">
					<dim>8</dim>
					<dim>1</dim>
					<dim>1</dim>
					<dim>1</dim>
				</port>
			</output>
		</layer>
		<layer id="226" name="bottleneck1_4/dim_red/bn/mean/Fused_Mul__copy205825753/restored_convert/quantized3227353775" type="Const" version="opset1">
			<data offset="4134" size="256" shape="8,32,1,1" element_type="i8"/>
			<output>
				<port id="0" precision="I8">
					<dim>8</dim>
					<dim>32</dim>
					<dim>1</dim>
					<dim>1</dim>
				</port>
			</output>
		</layer>
		<layer id="227" name="bottleneck1_4/dim_red/bn/mean/Fused_Mul__copy205825753/restored_convert/quantized/to_f32" type="Convert" version="opset1">
			<data destination_type="f32"/>
			<input>
				<port id="0">
					<dim>8</dim>
					<dim>32</dim>
					<dim>1</dim>
					<dim>1</dim>
				</port>
			</input>
			<output>
				<port id="1" precision="FP32">
					<dim>8</dim>
					<dim>32</dim>
					<dim>1</dim>
					<dim>1</dim>
				</port>
			</output>
		</layer>
		<layer id="228" name="bottleneck1_4/dim_red/conv/fq_weights_1/mulpiply_by_scale" type="Multiply" version="opset1">
			<data auto_broadcast="numpy"/>
			<input>
				<port id="0">
					<dim>8</dim>
					<dim>32</dim>
					<dim>1</dim>
					<dim>1</dim>
				</port>
				<port id="1">
					<dim>8</dim>
					<dim>1</dim>
					<dim>1</dim>
					<dim>1</dim>
				</port>
			</input>
			<output>
				<port id="2" precision="FP32">
					<dim>8</dim>
					<dim>32</dim>
					<dim>1</dim>
					<dim>1</dim>
				</port>
			</output>
		</layer>
		<layer id="229" name="bottleneck1_4/dim_red/conv" type="Convolution" version="opset1">
			<data auto_pad="explicit" strides="1,1" dilations="1,1" pads_begin="0,0" pads_end="0,0"/>
			<input>
				<port id="0">
					<dim>1</dim>
					<dim>32</dim>
					<dim>200</dim>
					<dim>340</dim>
				</port>
				<port id="1">
					<dim>8</dim>
					<dim>32</dim>
					<dim>1</dim>
					<dim>1</dim>
				</port>
			</input>
			<output>
				<port id="2" precision="FP32">
					<dim>1</dim>
					<dim>8</dim>
					<dim>200</dim>
					<dim>340</dim>
				</port>
			</output>
		</layer>
		<layer id="230" name="data_add_4508045085206153100" type="Const" version="opset1">
			<data offset="4390" size="16" shape="1,8,1,1" element_type="f16"/>
			<output>
				<port id="0" precision="FP16">
					<dim>1</dim>
					<dim>8</dim>
					<dim>1</dim>
					<dim>1</dim>
				</port>
			</output>
		</layer>
		<layer id="231" name="data_add_4508045085206125754/restored_convert" type="Convert" version="opset1">
			<data destination_type="f32"/>
			<rt_info>
				<attribute name="decompression" version="0"/>
			</rt_info>
			<input>
				<port id="0">
					<dim>1</dim>
					<dim>8</dim>
					<dim>1</dim>
					<dim>1</dim>
				</port>
			</input>
			<output>
				<port id="1" precision="FP32">
					<dim>1</dim>
					<dim>8</dim>
					<dim>1</dim>
					<dim>1</dim>
				</port>
			</output>
		</layer>
		<layer id="232" name="bottleneck1_4/dim_red/bn/variance/Fused_Add_" type="Add" version="opset1">
			<data auto_broadcast="numpy"/>
			<input>
				<port id="0">
					<dim>1</dim>
					<dim>8</dim>
					<dim>200</dim>
					<dim>340</dim>
				</port>
				<port id="1">
					<dim>1</dim>
					<dim>8</dim>
					<dim>1</dim>
					<dim>1</dim>
				</port>
			</input>
			<output>
				<port id="2" precision="FP32" names="bottleneck1_4/dim_red/conv">
					<dim>1</dim>
					<dim>8</dim>
					<dim>200</dim>
					<dim>340</dim>
				</port>
			</output>
		</layer>
		<layer id="233" name="bottleneck1_4/dim_red/fn/weights5746274029206449536" type="Const" version="opset1">
			<data offset="1500" size="2" shape="1" element_type="f16"/>
			<output>
				<port id="0" precision="FP16">
					<dim>1</dim>
				</port>
			</output>
		</layer>
		<layer id="234" name="bottleneck1_4/dim_red/fn/weights5746274029206425755/restored_convert" type="Convert" version="opset1">
			<data destination_type="f32"/>
			<rt_info>
				<attribute name="decompression" version="0"/>
			</rt_info>
			<input>
				<port id="0">
					<dim>1</dim>
				</port>
			</input>
			<output>
				<port id="1" precision="FP32">
					<dim>1</dim>
				</port>
			</output>
		</layer>
		<layer id="235" name="bottleneck1_4/dim_red/fn" type="PReLU" version="opset1">
			<input>
				<port id="0">
					<dim>1</dim>
					<dim>8</dim>
					<dim>200</dim>
					<dim>340</dim>
				</port>
				<port id="1">
					<dim>1</dim>
				</port>
			</input>
			<output>
				<port id="2" precision="FP32" names="bottleneck1_4/dim_red/conv">
					<dim>1</dim>
					<dim>8</dim>
					<dim>200</dim>
					<dim>340</dim>
				</port>
			</output>
		</layer>
		<layer id="236" name="bottleneck1_4/inner/dw1/conv/fq_input_0" type="FakeQuantize" version="opset1">
			<data levels="256" auto_broadcast="numpy"/>
			<input>
				<port id="0">
					<dim>1</dim>
					<dim>8</dim>
					<dim>200</dim>
					<dim>340</dim>
				</port>
				<port id="1">
					<dim>1</dim>
					<dim>8</dim>
					<dim>1</dim>
					<dim>1</dim>
				</port>
				<port id="2">
					<dim>1</dim>
					<dim>8</dim>
					<dim>1</dim>
					<dim>1</dim>
				</port>
				<port id="3">
					<dim>1</dim>
					<dim>8</dim>
					<dim>1</dim>
					<dim>1</dim>
				</port>
				<port id="4">
					<dim>1</dim>
					<dim>8</dim>
					<dim>1</dim>
					<dim>1</dim>
				</port>
			</input>
			<output>
				<port id="5" precision="FP32">
					<dim>1</dim>
					<dim>8</dim>
					<dim>200</dim>
					<dim>340</dim>
				</port>
			</output>
		</layer>
		<layer id="237" name="bottleneck1_4/inner/dw1/conv/fq_weights_1/scale3213151249" type="Const" version="opset1">
			<data offset="4406" size="32" shape="8,1,1,1" element_type="f32"/>
			<output>
				<port id="0" precision="FP32">
					<dim>8</dim>
					<dim>1</dim>
					<dim>1</dim>
					<dim>1</dim>
				</port>
			</output>
		</layer>
		<layer id="238" name="bottleneck1_4/inner/dw1/bn/mean/Fused_Mul__copy206725756/restored_convert/quantized3212347889" type="Const" version="opset1">
			<data offset="4438" size="72" shape="8,1,3,3" element_type="i8"/>
			<output>
				<port id="0" precision="I8">
					<dim>8</dim>
					<dim>1</dim>
					<dim>3</dim>
					<dim>3</dim>
				</port>
			</output>
		</layer>
		<layer id="239" name="bottleneck1_4/inner/dw1/bn/mean/Fused_Mul__copy206725756/restored_convert/quantized/to_f32" type="Convert" version="opset1">
			<data destination_type="f32"/>
			<input>
				<port id="0">
					<dim>8</dim>
					<dim>1</dim>
					<dim>3</dim>
					<dim>3</dim>
				</port>
			</input>
			<output>
				<port id="1" precision="FP32">
					<dim>8</dim>
					<dim>1</dim>
					<dim>3</dim>
					<dim>3</dim>
				</port>
			</output>
		</layer>
		<layer id="240" name="bottleneck1_4/inner/dw1/conv/fq_weights_1/mulpiply_by_scale" type="Multiply" version="opset1">
			<data auto_broadcast="numpy"/>
			<input>
				<port id="0">
					<dim>8</dim>
					<dim>1</dim>
					<dim>3</dim>
					<dim>3</dim>
				</port>
				<port id="1">
					<dim>8</dim>
					<dim>1</dim>
					<dim>1</dim>
					<dim>1</dim>
				</port>
			</input>
			<output>
				<port id="2" precision="FP32">
					<dim>8</dim>
					<dim>1</dim>
					<dim>3</dim>
					<dim>3</dim>
				</port>
			</output>
		</layer>
		<layer id="241" name="bottleneck1_4/inner/dw1/conv/GOI_weights_part4242753586" type="Const" version="opset1">
			<data offset="1606" size="24" shape="3" element_type="i64"/>
			<output>
				<port id="0" precision="I64">
					<dim>3</dim>
				</port>
			</output>
		</layer>
		<layer id="242" name="bottleneck1_4/inner/dw1/conv/WeightsShape" type="ShapeOf" version="opset3">
			<data output_type="i64"/>
			<input>
				<port id="0">
					<dim>8</dim>
					<dim>1</dim>
					<dim>3</dim>
					<dim>3</dim>
				</port>
			</input>
			<output>
				<port id="1" precision="I64">
					<dim>4</dim>
				</port>
			</output>
		</layer>
		<layer id="243" name="bottleneck1_4/inner/dw1/conv/XY_weights_part_input_port_1/value4242348762" type="Const" version="opset1">
			<data offset="1630" size="16" shape="2" element_type="i64"/>
			<output>
				<port id="0" precision="I64">
					<dim>2</dim>
				</port>
			</output>
		</layer>
		<layer id="244" name="bottleneck1_4/inner/dw1/conv/XY_weights_part_input_port_2/value4242547658" type="Const" version="opset1">
			<data offset="1646" size="8" shape="" element_type="i64"/>
			<output>
				<port id="0" precision="I64"/>
			</output>
		</layer>
		<layer id="245" name="bottleneck1_4/inner/dw1/conv/XY_weights_part" type="Gather" version="opset8">
			<data batch_dims="0"/>
			<input>
				<port id="0">
					<dim>4</dim>
				</port>
				<port id="1">
					<dim>2</dim>
				</port>
				<port id="2"/>
			</input>
			<output>
				<port id="3" precision="I64">
					<dim>2</dim>
				</port>
			</output>
		</layer>
		<layer id="246" name="bottleneck1_4/inner/dw1/conv/weights_shape" type="Concat" version="opset1">
			<data axis="0"/>
			<input>
				<port id="0">
					<dim>3</dim>
				</port>
				<port id="1">
					<dim>2</dim>
				</port>
			</input>
			<output>
				<port id="2" precision="I64">
					<dim>5</dim>
				</port>
			</output>
		</layer>
		<layer id="247" name="42429" type="Reshape" version="opset1">
			<data special_zero="true"/>
			<input>
				<port id="0">
					<dim>8</dim>
					<dim>1</dim>
					<dim>3</dim>
					<dim>3</dim>
				</port>
				<port id="1">
					<dim>5</dim>
				</port>
			</input>
			<output>
				<port id="2" precision="FP32">
					<dim>8</dim>
					<dim>1</dim>
					<dim>1</dim>
					<dim>3</dim>
					<dim>3</dim>
				</port>
			</output>
		</layer>
		<layer id="248" name="bottleneck1_4/inner/dw1/conv" type="GroupConvolution" version="opset1">
			<data auto_pad="explicit" strides="1,1" dilations="1,1" pads_begin="1,1" pads_end="1,1"/>
			<input>
				<port id="0">
					<dim>1</dim>
					<dim>8</dim>
					<dim>200</dim>
					<dim>340</dim>
				</port>
				<port id="1">
					<dim>8</dim>
					<dim>1</dim>
					<dim>1</dim>
					<dim>3</dim>
					<dim>3</dim>
				</port>
			</input>
			<output>
				<port id="2" precision="FP32">
					<dim>1</dim>
					<dim>8</dim>
					<dim>200</dim>
					<dim>340</dim>
				</port>
			</output>
		</layer>
		<layer id="249" name="data_add_4508845093207053214" type="Const" version="opset1">
			<data offset="4510" size="16" shape="1,8,1,1" element_type="f16"/>
			<output>
				<port id="0" precision="FP16">
					<dim>1</dim>
					<dim>8</dim>
					<dim>1</dim>
					<dim>1</dim>
				</port>
			</output>
		</layer>
		<layer id="250" name="data_add_4508845093207025757/restored_convert" type="Convert" version="opset1">
			<data destination_type="f32"/>
			<rt_info>
				<attribute name="decompression" version="0"/>
			</rt_info>
			<input>
				<port id="0">
					<dim>1</dim>
					<dim>8</dim>
					<dim>1</dim>
					<dim>1</dim>
				</port>
			</input>
			<output>
				<port id="1" precision="FP32">
					<dim>1</dim>
					<dim>8</dim>
					<dim>1</dim>
					<dim>1</dim>
				</port>
			</output>
		</layer>
		<layer id="251" name="bottleneck1_4/inner/dw1/bn/variance/Fused_Add_" type="Add" version="opset1">
			<data auto_broadcast="numpy"/>
			<input>
				<port id="0">
					<dim>1</dim>
					<dim>8</dim>
					<dim>200</dim>
					<dim>340</dim>
				</port>
				<port id="1">
					<dim>1</dim>
					<dim>8</dim>
					<dim>1</dim>
					<dim>1</dim>
				</port>
			</input>
			<output>
				<port id="2" precision="FP32" names="bottleneck1_4/inner/dw1/conv">
					<dim>1</dim>
					<dim>8</dim>
					<dim>200</dim>
					<dim>340</dim>
				</port>
			</output>
		</layer>
		<layer id="252" name="bottleneck1_4/inner/dw1/fn/weights5721075211207351015" type="Const" version="opset1">
			<data offset="1500" size="2" shape="1" element_type="f16"/>
			<output>
				<port id="0" precision="FP16">
					<dim>1</dim>
				</port>
			</output>
		</layer>
		<layer id="253" name="bottleneck1_4/inner/dw1/fn/weights5721075211207325758/restored_convert" type="Convert" version="opset1">
			<data destination_type="f32"/>
			<rt_info>
				<attribute name="decompression" version="0"/>
			</rt_info>
			<input>
				<port id="0">
					<dim>1</dim>
				</port>
			</input>
			<output>
				<port id="1" precision="FP32">
					<dim>1</dim>
				</port>
			</output>
		</layer>
		<layer id="254" name="bottleneck1_4/inner/dw1/fn" type="PReLU" version="opset1">
			<input>
				<port id="0">
					<dim>1</dim>
					<dim>8</dim>
					<dim>200</dim>
					<dim>340</dim>
				</port>
				<port id="1">
					<dim>1</dim>
				</port>
			</input>
			<output>
				<port id="2" precision="FP32" names="bottleneck1_4/inner/dw1/conv">
					<dim>1</dim>
					<dim>8</dim>
					<dim>200</dim>
					<dim>340</dim>
				</port>
			</output>
		</layer>
		<layer id="255" name="bottleneck1_4/dim_inc/conv/fq_input_0" type="FakeQuantize" version="opset1">
			<data levels="256" auto_broadcast="numpy"/>
			<input>
				<port id="0">
					<dim>1</dim>
					<dim>8</dim>
					<dim>200</dim>
					<dim>340</dim>
				</port>
				<port id="1"/>
				<port id="2"/>
				<port id="3"/>
				<port id="4"/>
			</input>
			<output>
				<port id="5" precision="FP32">
					<dim>1</dim>
					<dim>8</dim>
					<dim>200</dim>
					<dim>340</dim>
				</port>
			</output>
		</layer>
		<layer id="256" name="bottleneck1_4/dim_inc/conv/fq_weights_1/scale3564150292" type="Const" version="opset1">
			<data offset="4526" size="128" shape="32,1,1,1" element_type="f32"/>
			<output>
				<port id="0" precision="FP32">
					<dim>32</dim>
					<dim>1</dim>
					<dim>1</dim>
					<dim>1</dim>
				</port>
			</output>
		</layer>
		<layer id="257" name="bottleneck1_4/dim_inc/bn/mean/Fused_Mul__copy207625759/restored_convert/quantized3563353724" type="Const" version="opset1">
			<data offset="4654" size="256" shape="32,8,1,1" element_type="i8"/>
			<output>
				<port id="0" precision="I8">
					<dim>32</dim>
					<dim>8</dim>
					<dim>1</dim>
					<dim>1</dim>
				</port>
			</output>
		</layer>
		<layer id="258" name="bottleneck1_4/dim_inc/bn/mean/Fused_Mul__copy207625759/restored_convert/quantized/to_f32" type="Convert" version="opset1">
			<data destination_type="f32"/>
			<input>
				<port id="0">
					<dim>32</dim>
					<dim>8</dim>
					<dim>1</dim>
					<dim>1</dim>
				</port>
			</input>
			<output>
				<port id="1" precision="FP32">
					<dim>32</dim>
					<dim>8</dim>
					<dim>1</dim>
					<dim>1</dim>
				</port>
			</output>
		</layer>
		<layer id="259" name="bottleneck1_4/dim_inc/conv/fq_weights_1/mulpiply_by_scale" type="Multiply" version="opset1">
			<data auto_broadcast="numpy"/>
			<input>
				<port id="0">
					<dim>32</dim>
					<dim>8</dim>
					<dim>1</dim>
					<dim>1</dim>
				</port>
				<port id="1">
					<dim>32</dim>
					<dim>1</dim>
					<dim>1</dim>
					<dim>1</dim>
				</port>
			</input>
			<output>
				<port id="2" precision="FP32">
					<dim>32</dim>
					<dim>8</dim>
					<dim>1</dim>
					<dim>1</dim>
				</port>
			</output>
		</layer>
		<layer id="260" name="bottleneck1_4/dim_inc/conv" type="Convolution" version="opset1">
			<data auto_pad="explicit" strides="1,1" dilations="1,1" pads_begin="0,0" pads_end="0,0"/>
			<input>
				<port id="0">
					<dim>1</dim>
					<dim>8</dim>
					<dim>200</dim>
					<dim>340</dim>
				</port>
				<port id="1">
					<dim>32</dim>
					<dim>8</dim>
					<dim>1</dim>
					<dim>1</dim>
				</port>
			</input>
			<output>
				<port id="2" precision="FP32">
					<dim>1</dim>
					<dim>32</dim>
					<dim>200</dim>
					<dim>340</dim>
				</port>
			</output>
		</layer>
		<layer id="261" name="data_add_4509645101207953448" type="Const" version="opset1">
			<data offset="4910" size="64" shape="1,32,1,1" element_type="f16"/>
			<output>
				<port id="0" precision="FP16">
					<dim>1</dim>
					<dim>32</dim>
					<dim>1</dim>
					<dim>1</dim>
				</port>
			</output>
		</layer>
		<layer id="262" name="data_add_4509645101207925760/restored_convert" type="Convert" version="opset1">
			<data destination_type="f32"/>
			<rt_info>
				<attribute name="decompression" version="0"/>
			</rt_info>
			<input>
				<port id="0">
					<dim>1</dim>
					<dim>32</dim>
					<dim>1</dim>
					<dim>1</dim>
				</port>
			</input>
			<output>
				<port id="1" precision="FP32">
					<dim>1</dim>
					<dim>32</dim>
					<dim>1</dim>
					<dim>1</dim>
				</port>
			</output>
		</layer>
		<layer id="263" name="bottleneck1_4/dim_inc/bn/variance/Fused_Add_" type="Add" version="opset1">
			<data auto_broadcast="numpy"/>
			<input>
				<port id="0">
					<dim>1</dim>
					<dim>32</dim>
					<dim>200</dim>
					<dim>340</dim>
				</port>
				<port id="1">
					<dim>1</dim>
					<dim>32</dim>
					<dim>1</dim>
					<dim>1</dim>
				</port>
			</input>
			<output>
				<port id="2" precision="FP32" names="bottleneck1_4/dim_inc/conv,bottleneck1_4/dim_inc/dropout">
					<dim>1</dim>
					<dim>32</dim>
					<dim>200</dim>
					<dim>340</dim>
				</port>
			</output>
		</layer>
		<layer id="264" name="bottleneck1_4/add/fq_input_1" type="FakeQuantize" version="opset1">
			<data levels="256" auto_broadcast="numpy"/>
			<input>
				<port id="0">
					<dim>1</dim>
					<dim>32</dim>
					<dim>200</dim>
					<dim>340</dim>
				</port>
				<port id="1"/>
				<port id="2"/>
				<port id="3"/>
				<port id="4"/>
			</input>
			<output>
				<port id="5" precision="FP32">
					<dim>1</dim>
					<dim>32</dim>
					<dim>200</dim>
					<dim>340</dim>
				</port>
			</output>
		</layer>
		<layer id="265" name="bottleneck1_4/add" type="Add" version="opset1">
			<data auto_broadcast="numpy"/>
			<input>
				<port id="0">
					<dim>1</dim>
					<dim>32</dim>
					<dim>200</dim>
					<dim>340</dim>
				</port>
				<port id="1">
					<dim>1</dim>
					<dim>32</dim>
					<dim>200</dim>
					<dim>340</dim>
				</port>
			</input>
			<output>
				<port id="2" precision="FP32" names="bottleneck1_4/add">
					<dim>1</dim>
					<dim>32</dim>
					<dim>200</dim>
					<dim>340</dim>
				</port>
			</output>
		</layer>
		<layer id="266" name="bottleneck1_4/fn/weights5701474476208349359" type="Const" version="opset1">
			<data offset="1500" size="2" shape="1" element_type="f16"/>
			<output>
				<port id="0" precision="FP16">
					<dim>1</dim>
				</port>
			</output>
		</layer>
		<layer id="267" name="bottleneck1_4/fn/weights5701474476208325761/restored_convert" type="Convert" version="opset1">
			<data destination_type="f32"/>
			<rt_info>
				<attribute name="decompression" version="0"/>
			</rt_info>
			<input>
				<port id="0">
					<dim>1</dim>
				</port>
			</input>
			<output>
				<port id="1" precision="FP32">
					<dim>1</dim>
				</port>
			</output>
		</layer>
		<layer id="268" name="bottleneck1_4/fn" type="PReLU" version="opset1">
			<input>
				<port id="0">
					<dim>1</dim>
					<dim>32</dim>
					<dim>200</dim>
					<dim>340</dim>
				</port>
				<port id="1">
					<dim>1</dim>
				</port>
			</input>
			<output>
				<port id="2" precision="FP32" names="bottleneck1_4/add">
					<dim>1</dim>
					<dim>32</dim>
					<dim>200</dim>
					<dim>340</dim>
				</port>
			</output>
		</layer>
		<layer id="269" name="bottleneck2_0/dim_red/conv/fq_input_0" type="FakeQuantize" version="opset1">
			<data levels="256" auto_broadcast="numpy"/>
			<input>
				<port id="0">
					<dim>1</dim>
					<dim>32</dim>
					<dim>200</dim>
					<dim>340</dim>
				</port>
				<port id="1"/>
				<port id="2"/>
				<port id="3"/>
				<port id="4"/>
			</input>
			<output>
				<port id="5" precision="FP32">
					<dim>1</dim>
					<dim>32</dim>
					<dim>200</dim>
					<dim>340</dim>
				</port>
			</output>
		</layer>
		<layer id="270" name="bottleneck2_0/skip/pooling" type="MaxPool" version="opset8">
			<data strides="2,2" kernel="2,2" pads_begin="0,0" pads_end="0,0" rounding_type="ceil" auto_pad="explicit" dilations="1,1" axis="0" index_element_type="i64"/>
			<input>
				<port id="0">
					<dim>1</dim>
					<dim>32</dim>
					<dim>200</dim>
					<dim>340</dim>
				</port>
			</input>
			<output>
				<port id="1" precision="FP32" names="bottleneck2_0/skip/pooling">
					<dim>1</dim>
					<dim>32</dim>
					<dim>100</dim>
					<dim>170</dim>
				</port>
				<port id="2" precision="FP32">
					<dim>1</dim>
					<dim>32</dim>
					<dim>100</dim>
					<dim>170</dim>
					<rt_info/>
				</port>
			</output>
		</layer>
		<layer id="272" name="115191152349539" type="Const" version="opset1">
			<data offset="4974" size="4" shape="" element_type="f32"/>
			<output>
				<port id="0" precision="FP32"/>
			</output>
		</layer>
		<layer id="273" name="115201152451519" type="Const" version="opset1">
			<data offset="4978" size="4" shape="" element_type="f32"/>
			<output>
				<port id="0" precision="FP32"/>
			</output>
		</layer>
		<layer id="274" name="115211152551528" type="Const" version="opset1">
			<data offset="4974" size="4" shape="" element_type="f32"/>
			<output>
				<port id="0" precision="FP32"/>
			</output>
		</layer>
		<layer id="275" name="115221152650175" type="Const" version="opset1">
			<data offset="4978" size="4" shape="" element_type="f32"/>
			<output>
				<port id="0" precision="FP32"/>
			</output>
		</layer>
		<layer id="276" name="111891119352332" type="Const" version="opset1">
			<data offset="4982" size="4" shape="" element_type="f32"/>
			<output>
				<port id="0" precision="FP32"/>
			</output>
		</layer>
		<layer id="277" name="111901119450682" type="Const" version="opset1">
			<data offset="4986" size="4" shape="" element_type="f32"/>
			<output>
				<port id="0" precision="FP32"/>
			</output>
		</layer>
		<layer id="278" name="111911119551708" type="Const" version="opset1">
			<data offset="4982" size="4" shape="" element_type="f32"/>
			<output>
				<port id="0" precision="FP32"/>
			</output>
		</layer>
		<layer id="279" name="111921119648390" type="Const" version="opset1">
			<data offset="4986" size="4" shape="" element_type="f32"/>
			<output>
				<port id="0" precision="FP32"/>
			</output>
		</layer>
		<layer id="280" name="7469747353913" type="Const" version="opset1">
			<data offset="4990" size="4" shape="" element_type="f32"/>
			<output>
				<port id="0" precision="FP32"/>
			</output>
		</layer>
		<layer id="281" name="7470747453088" type="Const" version="opset1">
			<data offset="4994" size="4" shape="" element_type="f32"/>
			<output>
				<port id="0" precision="FP32"/>
			</output>
		</layer>
		<layer id="282" name="7471747548234" type="Const" version="opset1">
			<data offset="4990" size="4" shape="" element_type="f32"/>
			<output>
				<port id="0" precision="FP32"/>
			</output>
		</layer>
		<layer id="283" name="7472747652395" type="Const" version="opset1">
			<data offset="4994" size="4" shape="" element_type="f32"/>
			<output>
				<port id="0" precision="FP32"/>
			</output>
		</layer>
		<layer id="284" name="114391144349173" type="Const" version="opset1">
			<data offset="4998" size="4" shape="" element_type="f32"/>
			<output>
				<port id="0" precision="FP32"/>
			</output>
		</layer>
		<layer id="285" name="114401144452287" type="Const" version="opset1">
			<data offset="5002" size="4" shape="" element_type="f32"/>
			<output>
				<port id="0" precision="FP32"/>
			</output>
		</layer>
		<layer id="286" name="114411144549734" type="Const" version="opset1">
			<data offset="4998" size="4" shape="" element_type="f32"/>
			<output>
				<port id="0" precision="FP32"/>
			</output>
		</layer>
		<layer id="287" name="114421144651981" type="Const" version="opset1">
			<data offset="5002" size="4" shape="" element_type="f32"/>
			<output>
				<port id="0" precision="FP32"/>
			</output>
		</layer>
		<layer id="288" name="112291123351366" type="Const" version="opset1">
			<data offset="5006" size="4" shape="" element_type="f32"/>
			<output>
				<port id="0" precision="FP32"/>
			</output>
		</layer>
		<layer id="289" name="112301123453127" type="Const" version="opset1">
			<data offset="5010" size="4" shape="" element_type="f32"/>
			<output>
				<port id="0" precision="FP32"/>
			</output>
		</layer>
		<layer id="290" name="112311123549050" type="Const" version="opset1">
			<data offset="5006" size="4" shape="" element_type="f32"/>
			<output>
				<port id="0" precision="FP32"/>
			</output>
		</layer>
		<layer id="291" name="112321123649986" type="Const" version="opset1">
			<data offset="5010" size="4" shape="" element_type="f32"/>
			<output>
				<port id="0" precision="FP32"/>
			</output>
		</layer>
		<layer id="292" name="7549755352728" type="Const" version="opset1">
			<data offset="5014" size="4" shape="" element_type="f32"/>
			<output>
				<port id="0" precision="FP32"/>
			</output>
		</layer>
		<layer id="293" name="7550755450598" type="Const" version="opset1">
			<data offset="5018" size="4" shape="" element_type="f32"/>
			<output>
				<port id="0" precision="FP32"/>
			</output>
		</layer>
		<layer id="294" name="7551755552278" type="Const" version="opset1">
			<data offset="5014" size="4" shape="" element_type="f32"/>
			<output>
				<port id="0" precision="FP32"/>
			</output>
		</layer>
		<layer id="295" name="7552755651795" type="Const" version="opset1">
			<data offset="5018" size="4" shape="" element_type="f32"/>
			<output>
				<port id="0" precision="FP32"/>
			</output>
		</layer>
		<layer id="296" name="9429943348570" type="Const" version="opset1">
			<data offset="5022" size="4" shape="" element_type="f32"/>
			<output>
				<port id="0" precision="FP32"/>
			</output>
		</layer>
		<layer id="297" name="9430943450271" type="Const" version="opset1">
			<data offset="5026" size="4" shape="" element_type="f32"/>
			<output>
				<port id="0" precision="FP32"/>
			</output>
		</layer>
		<layer id="298" name="9431943549368" type="Const" version="opset1">
			<data offset="5022" size="4" shape="" element_type="f32"/>
			<output>
				<port id="0" precision="FP32"/>
			</output>
		</layer>
		<layer id="299" name="9432943651987" type="Const" version="opset1">
			<data offset="5026" size="4" shape="" element_type="f32"/>
			<output>
				<port id="0" precision="FP32"/>
			</output>
		</layer>
		<layer id="300" name="100591006353457" type="Const" version="opset1">
			<data offset="5030" size="4" shape="" element_type="f32"/>
			<output>
				<port id="0" precision="FP32"/>
			</output>
		</layer>
		<layer id="301" name="100601006452839" type="Const" version="opset1">
			<data offset="5034" size="4" shape="" element_type="f32"/>
			<output>
				<port id="0" precision="FP32"/>
			</output>
		</layer>
		<layer id="302" name="100611006549854" type="Const" version="opset1">
			<data offset="5030" size="4" shape="" element_type="f32"/>
			<output>
				<port id="0" precision="FP32"/>
			</output>
		</layer>
		<layer id="303" name="100621006650100" type="Const" version="opset1">
			<data offset="5034" size="4" shape="" element_type="f32"/>
			<output>
				<port id="0" precision="FP32"/>
			</output>
		</layer>
		<layer id="304" name="7879788347556" type="Const" version="opset1">
			<data offset="5038" size="4" shape="" element_type="f32"/>
			<output>
				<port id="0" precision="FP32"/>
			</output>
		</layer>
		<layer id="305" name="7880788450430" type="Const" version="opset1">
			<data offset="5042" size="4" shape="" element_type="f32"/>
			<output>
				<port id="0" precision="FP32"/>
			</output>
		</layer>
		<layer id="306" name="7881788549407" type="Const" version="opset1">
			<data offset="5038" size="4" shape="" element_type="f32"/>
			<output>
				<port id="0" precision="FP32"/>
			</output>
		</layer>
		<layer id="307" name="7882788648633" type="Const" version="opset1">
			<data offset="5042" size="4" shape="" element_type="f32"/>
			<output>
				<port id="0" precision="FP32"/>
			</output>
		</layer>
		<layer id="308" name="113591136353442" type="Const" version="opset1">
			<data offset="5046" size="4" shape="" element_type="f32"/>
			<output>
				<port id="0" precision="FP32"/>
			</output>
		</layer>
		<layer id="309" name="113601136448876" type="Const" version="opset1">
			<data offset="5050" size="4" shape="" element_type="f32"/>
			<output>
				<port id="0" precision="FP32"/>
			</output>
		</layer>
		<layer id="310" name="113611136552908" type="Const" version="opset1">
			<data offset="5046" size="4" shape="" element_type="f32"/>
			<output>
				<port id="0" precision="FP32"/>
			</output>
		</layer>
		<layer id="311" name="113621136650643" type="Const" version="opset1">
			<data offset="5050" size="4" shape="" element_type="f32"/>
			<output>
				<port id="0" precision="FP32"/>
			</output>
		</layer>
		<layer id="312" name="bottleneck2_0/skip/conv/fq_weights_1/scale3546150202" type="Const" version="opset1">
			<data offset="5054" size="256" shape="64,1,1,1" element_type="f32"/>
			<output>
				<port id="0" precision="FP32">
					<dim>64</dim>
					<dim>1</dim>
					<dim>1</dim>
					<dim>1</dim>
				</port>
			</output>
		</layer>
		<layer id="313" name="bottleneck2_0/skip/bn/mean/Fused_Mul__copy208725762/restored_convert/quantized3545352791" type="Const" version="opset1">
			<data offset="5310" size="2048" shape="64,32,1,1" element_type="i8"/>
			<output>
				<port id="0" precision="I8">
					<dim>64</dim>
					<dim>32</dim>
					<dim>1</dim>
					<dim>1</dim>
				</port>
			</output>
		</layer>
		<layer id="314" name="bottleneck2_0/skip/bn/mean/Fused_Mul__copy208725762/restored_convert/quantized/to_f32" type="Convert" version="opset1">
			<data destination_type="f32"/>
			<input>
				<port id="0">
					<dim>64</dim>
					<dim>32</dim>
					<dim>1</dim>
					<dim>1</dim>
				</port>
			</input>
			<output>
				<port id="1" precision="FP32">
					<dim>64</dim>
					<dim>32</dim>
					<dim>1</dim>
					<dim>1</dim>
				</port>
			</output>
		</layer>
		<layer id="315" name="bottleneck2_0/skip/conv/fq_weights_1/mulpiply_by_scale" type="Multiply" version="opset1">
			<data auto_broadcast="numpy"/>
			<input>
				<port id="0">
					<dim>64</dim>
					<dim>32</dim>
					<dim>1</dim>
					<dim>1</dim>
				</port>
				<port id="1">
					<dim>64</dim>
					<dim>1</dim>
					<dim>1</dim>
					<dim>1</dim>
				</port>
			</input>
			<output>
				<port id="2" precision="FP32">
					<dim>64</dim>
					<dim>32</dim>
					<dim>1</dim>
					<dim>1</dim>
				</port>
			</output>
		</layer>
		<layer id="316" name="bottleneck2_0/skip/conv" type="Convolution" version="opset1">
			<data auto_pad="explicit" strides="1,1" dilations="1,1" pads_begin="0,0" pads_end="0,0"/>
			<input>
				<port id="0">
					<dim>1</dim>
					<dim>32</dim>
					<dim>100</dim>
					<dim>170</dim>
				</port>
				<port id="1">
					<dim>64</dim>
					<dim>32</dim>
					<dim>1</dim>
					<dim>1</dim>
				</port>
			</input>
			<output>
				<port id="2" precision="FP32">
					<dim>1</dim>
					<dim>64</dim>
					<dim>100</dim>
					<dim>170</dim>
				</port>
			</output>
		</layer>
		<layer id="317" name="data_add_4510445109209052341" type="Const" version="opset1">
			<data offset="7358" size="128" shape="1,64,1,1" element_type="f16"/>
			<output>
				<port id="0" precision="FP16">
					<dim>1</dim>
					<dim>64</dim>
					<dim>1</dim>
					<dim>1</dim>
				</port>
			</output>
		</layer>
		<layer id="318" name="data_add_4510445109209025763/restored_convert" type="Convert" version="opset1">
			<data destination_type="f32"/>
			<rt_info>
				<attribute name="decompression" version="0"/>
			</rt_info>
			<input>
				<port id="0">
					<dim>1</dim>
					<dim>64</dim>
					<dim>1</dim>
					<dim>1</dim>
				</port>
			</input>
			<output>
				<port id="1" precision="FP32">
					<dim>1</dim>
					<dim>64</dim>
					<dim>1</dim>
					<dim>1</dim>
				</port>
			</output>
		</layer>
		<layer id="319" name="bottleneck2_0/skip/bn/variance/Fused_Add_" type="Add" version="opset1">
			<data auto_broadcast="numpy"/>
			<input>
				<port id="0">
					<dim>1</dim>
					<dim>64</dim>
					<dim>100</dim>
					<dim>170</dim>
				</port>
				<port id="1">
					<dim>1</dim>
					<dim>64</dim>
					<dim>1</dim>
					<dim>1</dim>
				</port>
			</input>
			<output>
				<port id="2" precision="FP32" names="bottleneck2_0/skip/conv">
					<dim>1</dim>
					<dim>64</dim>
					<dim>100</dim>
					<dim>170</dim>
				</port>
			</output>
		</layer>
		<layer id="320" name="bottleneck2_0/add/fq_input_0" type="FakeQuantize" version="opset1">
			<data levels="256" auto_broadcast="numpy"/>
			<input>
				<port id="0">
					<dim>1</dim>
					<dim>64</dim>
					<dim>100</dim>
					<dim>170</dim>
				</port>
				<port id="1"/>
				<port id="2"/>
				<port id="3"/>
				<port id="4"/>
			</input>
			<output>
				<port id="5" precision="FP32">
					<dim>1</dim>
					<dim>64</dim>
					<dim>100</dim>
					<dim>170</dim>
				</port>
			</output>
		</layer>
		<layer id="321" name="113691137349062" type="Const" version="opset1">
			<data offset="7486" size="4" shape="" element_type="f32"/>
			<output>
				<port id="0" precision="FP32"/>
			</output>
		</layer>
		<layer id="322" name="113701137453622" type="Const" version="opset1">
			<data offset="7490" size="4" shape="" element_type="f32"/>
			<output>
				<port id="0" precision="FP32"/>
			</output>
		</layer>
		<layer id="323" name="113711137549281" type="Const" version="opset1">
			<data offset="7486" size="4" shape="" element_type="f32"/>
			<output>
				<port id="0" precision="FP32"/>
			</output>
		</layer>
		<layer id="324" name="113721137647751" type="Const" version="opset1">
			<data offset="7490" size="4" shape="" element_type="f32"/>
			<output>
				<port id="0" precision="FP32"/>
			</output>
		</layer>
		<layer id="325" name="109891099350400" type="Const" version="opset1">
			<data offset="7494" size="4" shape="" element_type="f32"/>
			<output>
				<port id="0" precision="FP32"/>
			</output>
		</layer>
		<layer id="326" name="109901099453796" type="Const" version="opset1">
			<data offset="7498" size="4" shape="" element_type="f32"/>
			<output>
				<port id="0" precision="FP32"/>
			</output>
		</layer>
		<layer id="327" name="109911099550028" type="Const" version="opset1">
			<data offset="7494" size="4" shape="" element_type="f32"/>
			<output>
				<port id="0" precision="FP32"/>
			</output>
		</layer>
		<layer id="328" name="109921099653472" type="Const" version="opset1">
			<data offset="7498" size="4" shape="" element_type="f32"/>
			<output>
				<port id="0" precision="FP32"/>
			</output>
		</layer>
		<layer id="329" name="9629963353040" type="Const" version="opset1">
			<data offset="7502" size="64" shape="1,16,1,1" element_type="f32"/>
			<output>
				<port id="0" precision="FP32">
					<dim>1</dim>
					<dim>16</dim>
					<dim>1</dim>
					<dim>1</dim>
				</port>
			</output>
		</layer>
		<layer id="330" name="9630963451195" type="Const" version="opset1">
			<data offset="7566" size="64" shape="1,16,1,1" element_type="f32"/>
			<output>
				<port id="0" precision="FP32">
					<dim>1</dim>
					<dim>16</dim>
					<dim>1</dim>
					<dim>1</dim>
				</port>
			</output>
		</layer>
		<layer id="331" name="9631963548783" type="Const" version="opset1">
			<data offset="7502" size="64" shape="1,16,1,1" element_type="f32"/>
			<output>
				<port id="0" precision="FP32">
					<dim>1</dim>
					<dim>16</dim>
					<dim>1</dim>
					<dim>1</dim>
				</port>
			</output>
		</layer>
		<layer id="332" name="9632963647835" type="Const" version="opset1">
			<data offset="7566" size="64" shape="1,16,1,1" element_type="f32"/>
			<output>
				<port id="0" precision="FP32">
					<dim>1</dim>
					<dim>16</dim>
					<dim>1</dim>
					<dim>1</dim>
				</port>
			</output>
		</layer>
		<layer id="333" name="bottleneck2_0/dim_red/conv/fq_weights_1/scale2994152704" type="Const" version="opset1">
			<data offset="7630" size="64" shape="16,1,1,1" element_type="f32"/>
			<output>
				<port id="0" precision="FP32">
					<dim>16</dim>
					<dim>1</dim>
					<dim>1</dim>
					<dim>1</dim>
				</port>
			</output>
		</layer>
		<layer id="334" name="bottleneck2_0/dim_red/bn/mean/Fused_Mul__copy209325764/restored_convert/quantized2993353547" type="Const" version="opset1">
			<data offset="7694" size="512" shape="16,32,1,1" element_type="i8"/>
			<output>
				<port id="0" precision="I8">
					<dim>16</dim>
					<dim>32</dim>
					<dim>1</dim>
					<dim>1</dim>
				</port>
			</output>
		</layer>
		<layer id="335" name="bottleneck2_0/dim_red/bn/mean/Fused_Mul__copy209325764/restored_convert/quantized/to_f32" type="Convert" version="opset1">
			<data destination_type="f32"/>
			<input>
				<port id="0">
					<dim>16</dim>
					<dim>32</dim>
					<dim>1</dim>
					<dim>1</dim>
				</port>
			</input>
			<output>
				<port id="1" precision="FP32">
					<dim>16</dim>
					<dim>32</dim>
					<dim>1</dim>
					<dim>1</dim>
				</port>
			</output>
		</layer>
		<layer id="336" name="bottleneck2_0/dim_red/conv/fq_weights_1/mulpiply_by_scale" type="Multiply" version="opset1">
			<data auto_broadcast="numpy"/>
			<input>
				<port id="0">
					<dim>16</dim>
					<dim>32</dim>
					<dim>1</dim>
					<dim>1</dim>
				</port>
				<port id="1">
					<dim>16</dim>
					<dim>1</dim>
					<dim>1</dim>
					<dim>1</dim>
				</port>
			</input>
			<output>
				<port id="2" precision="FP32">
					<dim>16</dim>
					<dim>32</dim>
					<dim>1</dim>
					<dim>1</dim>
				</port>
			</output>
		</layer>
		<layer id="337" name="bottleneck2_0/dim_red/conv" type="Convolution" version="opset1">
			<data auto_pad="explicit" strides="1,1" dilations="1,1" pads_begin="0,0" pads_end="0,0"/>
			<input>
				<port id="0">
					<dim>1</dim>
					<dim>32</dim>
					<dim>200</dim>
					<dim>340</dim>
				</port>
				<port id="1">
					<dim>16</dim>
					<dim>32</dim>
					<dim>1</dim>
					<dim>1</dim>
				</port>
			</input>
			<output>
				<port id="2" precision="FP32">
					<dim>1</dim>
					<dim>16</dim>
					<dim>200</dim>
					<dim>340</dim>
				</port>
			</output>
		</layer>
		<layer id="338" name="data_add_4511245117209650571" type="Const" version="opset1">
			<data offset="8206" size="32" shape="1,16,1,1" element_type="f16"/>
			<output>
				<port id="0" precision="FP16">
					<dim>1</dim>
					<dim>16</dim>
					<dim>1</dim>
					<dim>1</dim>
				</port>
			</output>
		</layer>
		<layer id="339" name="data_add_4511245117209625765/restored_convert" type="Convert" version="opset1">
			<data destination_type="f32"/>
			<rt_info>
				<attribute name="decompression" version="0"/>
			</rt_info>
			<input>
				<port id="0">
					<dim>1</dim>
					<dim>16</dim>
					<dim>1</dim>
					<dim>1</dim>
				</port>
			</input>
			<output>
				<port id="1" precision="FP32">
					<dim>1</dim>
					<dim>16</dim>
					<dim>1</dim>
					<dim>1</dim>
				</port>
			</output>
		</layer>
		<layer id="340" name="bottleneck2_0/dim_red/bn/variance/Fused_Add_" type="Add" version="opset1">
			<data auto_broadcast="numpy"/>
			<input>
				<port id="0">
					<dim>1</dim>
					<dim>16</dim>
					<dim>200</dim>
					<dim>340</dim>
				</port>
				<port id="1">
					<dim>1</dim>
					<dim>16</dim>
					<dim>1</dim>
					<dim>1</dim>
				</port>
			</input>
			<output>
				<port id="2" precision="FP32" names="bottleneck2_0/dim_red/conv">
					<dim>1</dim>
					<dim>16</dim>
					<dim>200</dim>
					<dim>340</dim>
				</port>
			</output>
		</layer>
		<layer id="341" name="bottleneck2_0/dim_red/fn/weights5749473720209948018" type="Const" version="opset1">
			<data offset="1500" size="2" shape="1" element_type="f16"/>
			<output>
				<port id="0" precision="FP16">
					<dim>1</dim>
				</port>
			</output>
		</layer>
		<layer id="342" name="bottleneck2_0/dim_red/fn/weights5749473720209925766/restored_convert" type="Convert" version="opset1">
			<data destination_type="f32"/>
			<rt_info>
				<attribute name="decompression" version="0"/>
			</rt_info>
			<input>
				<port id="0">
					<dim>1</dim>
				</port>
			</input>
			<output>
				<port id="1" precision="FP32">
					<dim>1</dim>
				</port>
			</output>
		</layer>
		<layer id="343" name="bottleneck2_0/dim_red/fn" type="PReLU" version="opset1">
			<input>
				<port id="0">
					<dim>1</dim>
					<dim>16</dim>
					<dim>200</dim>
					<dim>340</dim>
				</port>
				<port id="1">
					<dim>1</dim>
				</port>
			</input>
			<output>
				<port id="2" precision="FP32" names="bottleneck2_0/dim_red/conv">
					<dim>1</dim>
					<dim>16</dim>
					<dim>200</dim>
					<dim>340</dim>
				</port>
			</output>
		</layer>
		<layer id="344" name="bottleneck2_0/inner/dw1/conv/fq_input_0" type="FakeQuantize" version="opset1">
			<data levels="256" auto_broadcast="numpy"/>
			<input>
				<port id="0">
					<dim>1</dim>
					<dim>16</dim>
					<dim>200</dim>
					<dim>340</dim>
				</port>
				<port id="1">
					<dim>1</dim>
					<dim>16</dim>
					<dim>1</dim>
					<dim>1</dim>
				</port>
				<port id="2">
					<dim>1</dim>
					<dim>16</dim>
					<dim>1</dim>
					<dim>1</dim>
				</port>
				<port id="3">
					<dim>1</dim>
					<dim>16</dim>
					<dim>1</dim>
					<dim>1</dim>
				</port>
				<port id="4">
					<dim>1</dim>
					<dim>16</dim>
					<dim>1</dim>
					<dim>1</dim>
				</port>
			</input>
			<output>
				<port id="5" precision="FP32">
					<dim>1</dim>
					<dim>16</dim>
					<dim>200</dim>
					<dim>340</dim>
				</port>
			</output>
		</layer>
		<layer id="345" name="bottleneck2_0/inner/dw1/conv/fq_weights_1/scale3147151669" type="Const" version="opset1">
			<data offset="8238" size="64" shape="16,1,1,1" element_type="f32"/>
			<output>
				<port id="0" precision="FP32">
					<dim>16</dim>
					<dim>1</dim>
					<dim>1</dim>
					<dim>1</dim>
				</port>
			</output>
		</layer>
		<layer id="346" name="bottleneck2_0/inner/dw1/bn/mean/Fused_Mul__copy210225767/restored_convert/quantized3146349200" type="Const" version="opset1">
			<data offset="8302" size="144" shape="16,1,3,3" element_type="i8"/>
			<output>
				<port id="0" precision="I8">
					<dim>16</dim>
					<dim>1</dim>
					<dim>3</dim>
					<dim>3</dim>
				</port>
			</output>
		</layer>
		<layer id="347" name="bottleneck2_0/inner/dw1/bn/mean/Fused_Mul__copy210225767/restored_convert/quantized/to_f32" type="Convert" version="opset1">
			<data destination_type="f32"/>
			<input>
				<port id="0">
					<dim>16</dim>
					<dim>1</dim>
					<dim>3</dim>
					<dim>3</dim>
				</port>
			</input>
			<output>
				<port id="1" precision="FP32">
					<dim>16</dim>
					<dim>1</dim>
					<dim>3</dim>
					<dim>3</dim>
				</port>
			</output>
		</layer>
		<layer id="348" name="bottleneck2_0/inner/dw1/conv/fq_weights_1/mulpiply_by_scale" type="Multiply" version="opset1">
			<data auto_broadcast="numpy"/>
			<input>
				<port id="0">
					<dim>16</dim>
					<dim>1</dim>
					<dim>3</dim>
					<dim>3</dim>
				</port>
				<port id="1">
					<dim>16</dim>
					<dim>1</dim>
					<dim>1</dim>
					<dim>1</dim>
				</port>
			</input>
			<output>
				<port id="2" precision="FP32">
					<dim>16</dim>
					<dim>1</dim>
					<dim>3</dim>
					<dim>3</dim>
				</port>
			</output>
		</layer>
		<layer id="349" name="bottleneck2_0/inner/dw1/conv/GOI_weights_part4244148255" type="Const" version="opset1">
			<data offset="8446" size="24" shape="3" element_type="i64"/>
			<output>
				<port id="0" precision="I64">
					<dim>3</dim>
				</port>
			</output>
		</layer>
		<layer id="350" name="bottleneck2_0/inner/dw1/conv/WeightsShape" type="ShapeOf" version="opset3">
			<data output_type="i64"/>
			<input>
				<port id="0">
					<dim>16</dim>
					<dim>1</dim>
					<dim>3</dim>
					<dim>3</dim>
				</port>
			</input>
			<output>
				<port id="1" precision="I64">
					<dim>4</dim>
				</port>
			</output>
		</layer>
		<layer id="351" name="bottleneck2_0/inner/dw1/conv/XY_weights_part_input_port_1/value4243752077" type="Const" version="opset1">
			<data offset="1630" size="16" shape="2" element_type="i64"/>
			<output>
				<port id="0" precision="I64">
					<dim>2</dim>
				</port>
			</output>
		</layer>
		<layer id="352" name="bottleneck2_0/inner/dw1/conv/XY_weights_part_input_port_2/value4243953280" type="Const" version="opset1">
			<data offset="1646" size="8" shape="" element_type="i64"/>
			<output>
				<port id="0" precision="I64"/>
			</output>
		</layer>
		<layer id="353" name="bottleneck2_0/inner/dw1/conv/XY_weights_part" type="Gather" version="opset8">
			<data batch_dims="0"/>
			<input>
				<port id="0">
					<dim>4</dim>
				</port>
				<port id="1">
					<dim>2</dim>
				</port>
				<port id="2"/>
			</input>
			<output>
				<port id="3" precision="I64">
					<dim>2</dim>
				</port>
			</output>
		</layer>
		<layer id="354" name="bottleneck2_0/inner/dw1/conv/weights_shape" type="Concat" version="opset1">
			<data axis="0"/>
			<input>
				<port id="0">
					<dim>3</dim>
				</port>
				<port id="1">
					<dim>2</dim>
				</port>
			</input>
			<output>
				<port id="2" precision="I64">
					<dim>5</dim>
				</port>
			</output>
		</layer>
		<layer id="355" name="42443" type="Reshape" version="opset1">
			<data special_zero="true"/>
			<input>
				<port id="0">
					<dim>16</dim>
					<dim>1</dim>
					<dim>3</dim>
					<dim>3</dim>
				</port>
				<port id="1">
					<dim>5</dim>
				</port>
			</input>
			<output>
				<port id="2" precision="FP32">
					<dim>16</dim>
					<dim>1</dim>
					<dim>1</dim>
					<dim>3</dim>
					<dim>3</dim>
				</port>
			</output>
		</layer>
		<layer id="356" name="bottleneck2_0/inner/dw1/conv" type="GroupConvolution" version="opset1">
			<data auto_pad="explicit" strides="2,2" dilations="1,1" pads_begin="1,1" pads_end="1,1"/>
			<input>
				<port id="0">
					<dim>1</dim>
					<dim>16</dim>
					<dim>200</dim>
					<dim>340</dim>
				</port>
				<port id="1">
					<dim>16</dim>
					<dim>1</dim>
					<dim>1</dim>
					<dim>3</dim>
					<dim>3</dim>
				</port>
			</input>
			<output>
				<port id="2" precision="FP32">
					<dim>1</dim>
					<dim>16</dim>
					<dim>100</dim>
					<dim>170</dim>
				</port>
			</output>
		</layer>
		<layer id="357" name="data_add_4512045125210551723" type="Const" version="opset1">
			<data offset="8470" size="32" shape="1,16,1,1" element_type="f16"/>
			<output>
				<port id="0" precision="FP16">
					<dim>1</dim>
					<dim>16</dim>
					<dim>1</dim>
					<dim>1</dim>
				</port>
			</output>
		</layer>
		<layer id="358" name="data_add_4512045125210525768/restored_convert" type="Convert" version="opset1">
			<data destination_type="f32"/>
			<rt_info>
				<attribute name="decompression" version="0"/>
			</rt_info>
			<input>
				<port id="0">
					<dim>1</dim>
					<dim>16</dim>
					<dim>1</dim>
					<dim>1</dim>
				</port>
			</input>
			<output>
				<port id="1" precision="FP32">
					<dim>1</dim>
					<dim>16</dim>
					<dim>1</dim>
					<dim>1</dim>
				</port>
			</output>
		</layer>
		<layer id="359" name="bottleneck2_0/inner/dw1/bn/variance/Fused_Add_" type="Add" version="opset1">
			<data auto_broadcast="numpy"/>
			<input>
				<port id="0">
					<dim>1</dim>
					<dim>16</dim>
					<dim>100</dim>
					<dim>170</dim>
				</port>
				<port id="1">
					<dim>1</dim>
					<dim>16</dim>
					<dim>1</dim>
					<dim>1</dim>
				</port>
			</input>
			<output>
				<port id="2" precision="FP32" names="bottleneck2_0/inner/dw1/conv">
					<dim>1</dim>
					<dim>16</dim>
					<dim>100</dim>
					<dim>170</dim>
				</port>
			</output>
		</layer>
		<layer id="360" name="bottleneck2_0/inner/dw1/fn/weights5745474761210852143" type="Const" version="opset1">
			<data offset="1500" size="2" shape="1" element_type="f16"/>
			<output>
				<port id="0" precision="FP16">
					<dim>1</dim>
				</port>
			</output>
		</layer>
		<layer id="361" name="bottleneck2_0/inner/dw1/fn/weights5745474761210825769/restored_convert" type="Convert" version="opset1">
			<data destination_type="f32"/>
			<rt_info>
				<attribute name="decompression" version="0"/>
			</rt_info>
			<input>
				<port id="0">
					<dim>1</dim>
				</port>
			</input>
			<output>
				<port id="1" precision="FP32">
					<dim>1</dim>
				</port>
			</output>
		</layer>
		<layer id="362" name="bottleneck2_0/inner/dw1/fn" type="PReLU" version="opset1">
			<input>
				<port id="0">
					<dim>1</dim>
					<dim>16</dim>
					<dim>100</dim>
					<dim>170</dim>
				</port>
				<port id="1">
					<dim>1</dim>
				</port>
			</input>
			<output>
				<port id="2" precision="FP32" names="bottleneck2_0/inner/dw1/conv">
					<dim>1</dim>
					<dim>16</dim>
					<dim>100</dim>
					<dim>170</dim>
				</port>
			</output>
		</layer>
		<layer id="363" name="bottleneck2_0/dim_inc/conv/fq_input_0" type="FakeQuantize" version="opset1">
			<data levels="256" auto_broadcast="numpy"/>
			<input>
				<port id="0">
					<dim>1</dim>
					<dim>16</dim>
					<dim>100</dim>
					<dim>170</dim>
				</port>
				<port id="1"/>
				<port id="2"/>
				<port id="3"/>
				<port id="4"/>
			</input>
			<output>
				<port id="5" precision="FP32">
					<dim>1</dim>
					<dim>16</dim>
					<dim>100</dim>
					<dim>170</dim>
				</port>
			</output>
		</layer>
		<layer id="364" name="bottleneck2_0/dim_inc/conv/fq_weights_1/scale3582148630" type="Const" version="opset1">
			<data offset="8502" size="256" shape="64,1,1,1" element_type="f32"/>
			<output>
				<port id="0" precision="FP32">
					<dim>64</dim>
					<dim>1</dim>
					<dim>1</dim>
					<dim>1</dim>
				</port>
			</output>
		</layer>
		<layer id="365" name="bottleneck2_0/dim_inc/bn/mean/Fused_Mul__copy211125770/restored_convert/quantized3581353274" type="Const" version="opset1">
			<data offset="8758" size="1024" shape="64,16,1,1" element_type="i8"/>
			<output>
				<port id="0" precision="I8">
					<dim>64</dim>
					<dim>16</dim>
					<dim>1</dim>
					<dim>1</dim>
				</port>
			</output>
		</layer>
		<layer id="366" name="bottleneck2_0/dim_inc/bn/mean/Fused_Mul__copy211125770/restored_convert/quantized/to_f32" type="Convert" version="opset1">
			<data destination_type="f32"/>
			<input>
				<port id="0">
					<dim>64</dim>
					<dim>16</dim>
					<dim>1</dim>
					<dim>1</dim>
				</port>
			</input>
			<output>
				<port id="1" precision="FP32">
					<dim>64</dim>
					<dim>16</dim>
					<dim>1</dim>
					<dim>1</dim>
				</port>
			</output>
		</layer>
		<layer id="367" name="bottleneck2_0/dim_inc/conv/fq_weights_1/mulpiply_by_scale" type="Multiply" version="opset1">
			<data auto_broadcast="numpy"/>
			<input>
				<port id="0">
					<dim>64</dim>
					<dim>16</dim>
					<dim>1</dim>
					<dim>1</dim>
				</port>
				<port id="1">
					<dim>64</dim>
					<dim>1</dim>
					<dim>1</dim>
					<dim>1</dim>
				</port>
			</input>
			<output>
				<port id="2" precision="FP32">
					<dim>64</dim>
					<dim>16</dim>
					<dim>1</dim>
					<dim>1</dim>
				</port>
			</output>
		</layer>
		<layer id="368" name="bottleneck2_0/dim_inc/conv" type="Convolution" version="opset1">
			<data auto_pad="explicit" strides="1,1" dilations="1,1" pads_begin="0,0" pads_end="0,0"/>
			<input>
				<port id="0">
					<dim>1</dim>
					<dim>16</dim>
					<dim>100</dim>
					<dim>170</dim>
				</port>
				<port id="1">
					<dim>64</dim>
					<dim>16</dim>
					<dim>1</dim>
					<dim>1</dim>
				</port>
			</input>
			<output>
				<port id="2" precision="FP32">
					<dim>1</dim>
					<dim>64</dim>
					<dim>100</dim>
					<dim>170</dim>
				</port>
			</output>
		</layer>
		<layer id="369" name="data_add_4512845133211450940" type="Const" version="opset1">
			<data offset="9782" size="128" shape="1,64,1,1" element_type="f16"/>
			<output>
				<port id="0" precision="FP16">
					<dim>1</dim>
					<dim>64</dim>
					<dim>1</dim>
					<dim>1</dim>
				</port>
			</output>
		</layer>
		<layer id="370" name="data_add_4512845133211425771/restored_convert" type="Convert" version="opset1">
			<data destination_type="f32"/>
			<rt_info>
				<attribute name="decompression" version="0"/>
			</rt_info>
			<input>
				<port id="0">
					<dim>1</dim>
					<dim>64</dim>
					<dim>1</dim>
					<dim>1</dim>
				</port>
			</input>
			<output>
				<port id="1" precision="FP32">
					<dim>1</dim>
					<dim>64</dim>
					<dim>1</dim>
					<dim>1</dim>
				</port>
			</output>
		</layer>
		<layer id="371" name="bottleneck2_0/dim_inc/bn/variance/Fused_Add_" type="Add" version="opset1">
			<data auto_broadcast="numpy"/>
			<input>
				<port id="0">
					<dim>1</dim>
					<dim>64</dim>
					<dim>100</dim>
					<dim>170</dim>
				</port>
				<port id="1">
					<dim>1</dim>
					<dim>64</dim>
					<dim>1</dim>
					<dim>1</dim>
				</port>
			</input>
			<output>
				<port id="2" precision="FP32" names="bottleneck2_0/dim_inc/conv,bottleneck2_0/dim_inc/dropout">
					<dim>1</dim>
					<dim>64</dim>
					<dim>100</dim>
					<dim>170</dim>
				</port>
			</output>
		</layer>
		<layer id="372" name="bottleneck2_0/add/fq_input_1" type="FakeQuantize" version="opset1">
			<data levels="256" auto_broadcast="numpy"/>
			<input>
				<port id="0">
					<dim>1</dim>
					<dim>64</dim>
					<dim>100</dim>
					<dim>170</dim>
				</port>
				<port id="1"/>
				<port id="2"/>
				<port id="3"/>
				<port id="4"/>
			</input>
			<output>
				<port id="5" precision="FP32">
					<dim>1</dim>
					<dim>64</dim>
					<dim>100</dim>
					<dim>170</dim>
				</port>
			</output>
		</layer>
		<layer id="373" name="bottleneck2_0/add" type="Add" version="opset1">
			<data auto_broadcast="numpy"/>
			<input>
				<port id="0">
					<dim>1</dim>
					<dim>64</dim>
					<dim>100</dim>
					<dim>170</dim>
				</port>
				<port id="1">
					<dim>1</dim>
					<dim>64</dim>
					<dim>100</dim>
					<dim>170</dim>
				</port>
			</input>
			<output>
				<port id="2" precision="FP32" names="bottleneck2_0/add">
					<dim>1</dim>
					<dim>64</dim>
					<dim>100</dim>
					<dim>170</dim>
				</port>
			</output>
		</layer>
		<layer id="374" name="bottleneck2_0/fn/weights5712674665211848963" type="Const" version="opset1">
			<data offset="1500" size="2" shape="1" element_type="f16"/>
			<output>
				<port id="0" precision="FP16">
					<dim>1</dim>
				</port>
			</output>
		</layer>
		<layer id="375" name="bottleneck2_0/fn/weights5712674665211825772/restored_convert" type="Convert" version="opset1">
			<data destination_type="f32"/>
			<rt_info>
				<attribute name="decompression" version="0"/>
			</rt_info>
			<input>
				<port id="0">
					<dim>1</dim>
				</port>
			</input>
			<output>
				<port id="1" precision="FP32">
					<dim>1</dim>
				</port>
			</output>
		</layer>
		<layer id="376" name="bottleneck2_0/fn" type="PReLU" version="opset1">
			<input>
				<port id="0">
					<dim>1</dim>
					<dim>64</dim>
					<dim>100</dim>
					<dim>170</dim>
				</port>
				<port id="1">
					<dim>1</dim>
				</port>
			</input>
			<output>
				<port id="2" precision="FP32" names="bottleneck2_0/add">
					<dim>1</dim>
					<dim>64</dim>
					<dim>100</dim>
					<dim>170</dim>
				</port>
			</output>
		</layer>
		<layer id="377" name="bottleneck2_1/add/fq_input_0" type="FakeQuantize" version="opset1">
			<data levels="256" auto_broadcast="numpy"/>
			<input>
				<port id="0">
					<dim>1</dim>
					<dim>64</dim>
					<dim>100</dim>
					<dim>170</dim>
				</port>
				<port id="1"/>
				<port id="2"/>
				<port id="3"/>
				<port id="4"/>
			</input>
			<output>
				<port id="5" precision="FP32">
					<dim>1</dim>
					<dim>64</dim>
					<dim>100</dim>
					<dim>170</dim>
				</port>
			</output>
		</layer>
		<layer id="378" name="7889789351321" type="Const" version="opset1">
			<data offset="9910" size="4" shape="" element_type="f32"/>
			<output>
				<port id="0" precision="FP32"/>
			</output>
		</layer>
		<layer id="379" name="7890789452647" type="Const" version="opset1">
			<data offset="9914" size="4" shape="" element_type="f32"/>
			<output>
				<port id="0" precision="FP32"/>
			</output>
		</layer>
		<layer id="380" name="7891789551717" type="Const" version="opset1">
			<data offset="9910" size="4" shape="" element_type="f32"/>
			<output>
				<port id="0" precision="FP32"/>
			</output>
		</layer>
		<layer id="381" name="7892789648177" type="Const" version="opset1">
			<data offset="9914" size="4" shape="" element_type="f32"/>
			<output>
				<port id="0" precision="FP32"/>
			</output>
		</layer>
		<layer id="382" name="101591016350538" type="Const" version="opset1">
			<data offset="9918" size="4" shape="" element_type="f32"/>
			<output>
				<port id="0" precision="FP32"/>
			</output>
		</layer>
		<layer id="383" name="101601016448675" type="Const" version="opset1">
			<data offset="9922" size="4" shape="" element_type="f32"/>
			<output>
				<port id="0" precision="FP32"/>
			</output>
		</layer>
		<layer id="384" name="101611016553799" type="Const" version="opset1">
			<data offset="9918" size="4" shape="" element_type="f32"/>
			<output>
				<port id="0" precision="FP32"/>
			</output>
		</layer>
		<layer id="385" name="101621016648906" type="Const" version="opset1">
			<data offset="9922" size="4" shape="" element_type="f32"/>
			<output>
				<port id="0" precision="FP32"/>
			</output>
		</layer>
		<layer id="386" name="9369937349230" type="Const" version="opset1">
			<data offset="9926" size="64" shape="1,16,1,1" element_type="f32"/>
			<output>
				<port id="0" precision="FP32">
					<dim>1</dim>
					<dim>16</dim>
					<dim>1</dim>
					<dim>1</dim>
				</port>
			</output>
		</layer>
		<layer id="387" name="9370937450712" type="Const" version="opset1">
			<data offset="9990" size="64" shape="1,16,1,1" element_type="f32"/>
			<output>
				<port id="0" precision="FP32">
					<dim>1</dim>
					<dim>16</dim>
					<dim>1</dim>
					<dim>1</dim>
				</port>
			</output>
		</layer>
		<layer id="388" name="9371937549644" type="Const" version="opset1">
			<data offset="9926" size="64" shape="1,16,1,1" element_type="f32"/>
			<output>
				<port id="0" precision="FP32">
					<dim>1</dim>
					<dim>16</dim>
					<dim>1</dim>
					<dim>1</dim>
				</port>
			</output>
		</layer>
		<layer id="389" name="9372937653337" type="Const" version="opset1">
			<data offset="9990" size="64" shape="1,16,1,1" element_type="f32"/>
			<output>
				<port id="0" precision="FP32">
					<dim>1</dim>
					<dim>16</dim>
					<dim>1</dim>
					<dim>1</dim>
				</port>
			</output>
		</layer>
		<layer id="390" name="bottleneck2_1/dim_red/conv/fq_weights_1/scale3501150040" type="Const" version="opset1">
			<data offset="10054" size="64" shape="16,1,1,1" element_type="f32"/>
			<output>
				<port id="0" precision="FP32">
					<dim>16</dim>
					<dim>1</dim>
					<dim>1</dim>
					<dim>1</dim>
				</port>
			</output>
		</layer>
		<layer id="391" name="bottleneck2_1/dim_red/bn/mean/Fused_Mul__copy212125773/restored_convert/quantized3500349266" type="Const" version="opset1">
			<data offset="10118" size="1024" shape="16,64,1,1" element_type="i8"/>
			<output>
				<port id="0" precision="I8">
					<dim>16</dim>
					<dim>64</dim>
					<dim>1</dim>
					<dim>1</dim>
				</port>
			</output>
		</layer>
		<layer id="392" name="bottleneck2_1/dim_red/bn/mean/Fused_Mul__copy212125773/restored_convert/quantized/to_f32" type="Convert" version="opset1">
			<data destination_type="f32"/>
			<input>
				<port id="0">
					<dim>16</dim>
					<dim>64</dim>
					<dim>1</dim>
					<dim>1</dim>
				</port>
			</input>
			<output>
				<port id="1" precision="FP32">
					<dim>16</dim>
					<dim>64</dim>
					<dim>1</dim>
					<dim>1</dim>
				</port>
			</output>
		</layer>
		<layer id="393" name="bottleneck2_1/dim_red/conv/fq_weights_1/mulpiply_by_scale" type="Multiply" version="opset1">
			<data auto_broadcast="numpy"/>
			<input>
				<port id="0">
					<dim>16</dim>
					<dim>64</dim>
					<dim>1</dim>
					<dim>1</dim>
				</port>
				<port id="1">
					<dim>16</dim>
					<dim>1</dim>
					<dim>1</dim>
					<dim>1</dim>
				</port>
			</input>
			<output>
				<port id="2" precision="FP32">
					<dim>16</dim>
					<dim>64</dim>
					<dim>1</dim>
					<dim>1</dim>
				</port>
			</output>
		</layer>
		<layer id="394" name="bottleneck2_1/dim_red/conv" type="Convolution" version="opset1">
			<data auto_pad="explicit" strides="1,1" dilations="1,1" pads_begin="0,0" pads_end="0,0"/>
			<input>
				<port id="0">
					<dim>1</dim>
					<dim>64</dim>
					<dim>100</dim>
					<dim>170</dim>
				</port>
				<port id="1">
					<dim>16</dim>
					<dim>64</dim>
					<dim>1</dim>
					<dim>1</dim>
				</port>
			</input>
			<output>
				<port id="2" precision="FP32">
					<dim>1</dim>
					<dim>16</dim>
					<dim>100</dim>
					<dim>170</dim>
				</port>
			</output>
		</layer>
		<layer id="395" name="data_add_4513645141212451738" type="Const" version="opset1">
			<data offset="11142" size="32" shape="1,16,1,1" element_type="f16"/>
			<output>
				<port id="0" precision="FP16">
					<dim>1</dim>
					<dim>16</dim>
					<dim>1</dim>
					<dim>1</dim>
				</port>
			</output>
		</layer>
		<layer id="396" name="data_add_4513645141212425774/restored_convert" type="Convert" version="opset1">
			<data destination_type="f32"/>
			<rt_info>
				<attribute name="decompression" version="0"/>
			</rt_info>
			<input>
				<port id="0">
					<dim>1</dim>
					<dim>16</dim>
					<dim>1</dim>
					<dim>1</dim>
				</port>
			</input>
			<output>
				<port id="1" precision="FP32">
					<dim>1</dim>
					<dim>16</dim>
					<dim>1</dim>
					<dim>1</dim>
				</port>
			</output>
		</layer>
		<layer id="397" name="bottleneck2_1/dim_red/bn/variance/Fused_Add_" type="Add" version="opset1">
			<data auto_broadcast="numpy"/>
			<input>
				<port id="0">
					<dim>1</dim>
					<dim>16</dim>
					<dim>100</dim>
					<dim>170</dim>
				</port>
				<port id="1">
					<dim>1</dim>
					<dim>16</dim>
					<dim>1</dim>
					<dim>1</dim>
				</port>
			</input>
			<output>
				<port id="2" precision="FP32" names="bottleneck2_1/dim_red/conv">
					<dim>1</dim>
					<dim>16</dim>
					<dim>100</dim>
					<dim>170</dim>
				</port>
			</output>
		</layer>
		<layer id="398" name="bottleneck2_1/dim_red/fn/weights5686273480212748330" type="Const" version="opset1">
			<data offset="1500" size="2" shape="1" element_type="f16"/>
			<output>
				<port id="0" precision="FP16">
					<dim>1</dim>
				</port>
			</output>
		</layer>
		<layer id="399" name="bottleneck2_1/dim_red/fn/weights5686273480212725775/restored_convert" type="Convert" version="opset1">
			<data destination_type="f32"/>
			<rt_info>
				<attribute name="decompression" version="0"/>
			</rt_info>
			<input>
				<port id="0">
					<dim>1</dim>
				</port>
			</input>
			<output>
				<port id="1" precision="FP32">
					<dim>1</dim>
				</port>
			</output>
		</layer>
		<layer id="400" name="bottleneck2_1/dim_red/fn" type="PReLU" version="opset1">
			<input>
				<port id="0">
					<dim>1</dim>
					<dim>16</dim>
					<dim>100</dim>
					<dim>170</dim>
				</port>
				<port id="1">
					<dim>1</dim>
				</port>
			</input>
			<output>
				<port id="2" precision="FP32" names="bottleneck2_1/dim_red/conv">
					<dim>1</dim>
					<dim>16</dim>
					<dim>100</dim>
					<dim>170</dim>
				</port>
			</output>
		</layer>
		<layer id="401" name="bottleneck2_1/inner/dw1/conv/fq_input_0" type="FakeQuantize" version="opset1">
			<data levels="256" auto_broadcast="numpy"/>
			<input>
				<port id="0">
					<dim>1</dim>
					<dim>16</dim>
					<dim>100</dim>
					<dim>170</dim>
				</port>
				<port id="1">
					<dim>1</dim>
					<dim>16</dim>
					<dim>1</dim>
					<dim>1</dim>
				</port>
				<port id="2">
					<dim>1</dim>
					<dim>16</dim>
					<dim>1</dim>
					<dim>1</dim>
				</port>
				<port id="3">
					<dim>1</dim>
					<dim>16</dim>
					<dim>1</dim>
					<dim>1</dim>
				</port>
				<port id="4">
					<dim>1</dim>
					<dim>16</dim>
					<dim>1</dim>
					<dim>1</dim>
				</port>
			</input>
			<output>
				<port id="5" precision="FP32">
					<dim>1</dim>
					<dim>16</dim>
					<dim>100</dim>
					<dim>170</dim>
				</port>
			</output>
		</layer>
		<layer id="402" name="bottleneck2_1/inner/dw1/conv/fq_weights_1/scale3408151012" type="Const" version="opset1">
			<data offset="11174" size="64" shape="16,1,1,1" element_type="f32"/>
			<output>
				<port id="0" precision="FP32">
					<dim>16</dim>
					<dim>1</dim>
					<dim>1</dim>
					<dim>1</dim>
				</port>
			</output>
		</layer>
		<layer id="403" name="bottleneck2_1/inner/dw1/bn/mean/Fused_Mul__copy213025776/restored_convert/quantized3407350568" type="Const" version="opset1">
			<data offset="11238" size="144" shape="16,1,3,3" element_type="i8"/>
			<output>
				<port id="0" precision="I8">
					<dim>16</dim>
					<dim>1</dim>
					<dim>3</dim>
					<dim>3</dim>
				</port>
			</output>
		</layer>
		<layer id="404" name="bottleneck2_1/inner/dw1/bn/mean/Fused_Mul__copy213025776/restored_convert/quantized/to_f32" type="Convert" version="opset1">
			<data destination_type="f32"/>
			<input>
				<port id="0">
					<dim>16</dim>
					<dim>1</dim>
					<dim>3</dim>
					<dim>3</dim>
				</port>
			</input>
			<output>
				<port id="1" precision="FP32">
					<dim>16</dim>
					<dim>1</dim>
					<dim>3</dim>
					<dim>3</dim>
				</port>
			</output>
		</layer>
		<layer id="405" name="bottleneck2_1/inner/dw1/conv/fq_weights_1/mulpiply_by_scale" type="Multiply" version="opset1">
			<data auto_broadcast="numpy"/>
			<input>
				<port id="0">
					<dim>16</dim>
					<dim>1</dim>
					<dim>3</dim>
					<dim>3</dim>
				</port>
				<port id="1">
					<dim>16</dim>
					<dim>1</dim>
					<dim>1</dim>
					<dim>1</dim>
				</port>
			</input>
			<output>
				<port id="2" precision="FP32">
					<dim>16</dim>
					<dim>1</dim>
					<dim>3</dim>
					<dim>3</dim>
				</port>
			</output>
		</layer>
		<layer id="406" name="bottleneck2_1/inner/dw1/conv/GOI_weights_part4245547910" type="Const" version="opset1">
			<data offset="8446" size="24" shape="3" element_type="i64"/>
			<output>
				<port id="0" precision="I64">
					<dim>3</dim>
				</port>
			</output>
		</layer>
		<layer id="407" name="bottleneck2_1/inner/dw1/conv/WeightsShape" type="ShapeOf" version="opset3">
			<data output_type="i64"/>
			<input>
				<port id="0">
					<dim>16</dim>
					<dim>1</dim>
					<dim>3</dim>
					<dim>3</dim>
				</port>
			</input>
			<output>
				<port id="1" precision="I64">
					<dim>4</dim>
				</port>
			</output>
		</layer>
		<layer id="408" name="bottleneck2_1/inner/dw1/conv/XY_weights_part_input_port_1/value4245149299" type="Const" version="opset1">
			<data offset="1630" size="16" shape="2" element_type="i64"/>
			<output>
				<port id="0" precision="I64">
					<dim>2</dim>
				</port>
			</output>
		</layer>
		<layer id="409" name="bottleneck2_1/inner/dw1/conv/XY_weights_part_input_port_2/value4245353583" type="Const" version="opset1">
			<data offset="1646" size="8" shape="" element_type="i64"/>
			<output>
				<port id="0" precision="I64"/>
			</output>
		</layer>
		<layer id="410" name="bottleneck2_1/inner/dw1/conv/XY_weights_part" type="Gather" version="opset8">
			<data batch_dims="0"/>
			<input>
				<port id="0">
					<dim>4</dim>
				</port>
				<port id="1">
					<dim>2</dim>
				</port>
…
		<edge from-layer="3635" from-port="2" to-layer="3637" to-port="0"/>
		<edge from-layer="3637" from-port="1" to-layer="3640" to-port="0"/>
		<edge from-layer="3638" from-port="0" to-layer="3640" to-port="1"/>
		<edge from-layer="3639" from-port="0" to-layer="3640" to-port="2"/>
		<edge from-layer="3636" from-port="0" to-layer="3641" to-port="0"/>
		<edge from-layer="3640" from-port="3" to-layer="3641" to-port="1"/>
		<edge from-layer="3635" from-port="2" to-layer="3642" to-port="0"/>
		<edge from-layer="3641" from-port="2" to-layer="3642" to-port="1"/>
		<edge from-layer="3631" from-port="5" to-layer="3643" to-port="0"/>
		<edge from-layer="3642" from-port="2" to-layer="3643" to-port="1"/>
		<edge from-layer="3644" from-port="0" to-layer="3645" to-port="0"/>
		<edge from-layer="3643" from-port="2" to-layer="3646" to-port="0"/>
		<edge from-layer="3645" from-port="1" to-layer="3646" to-port="1"/>
		<edge from-layer="3647" from-port="0" to-layer="3648" to-port="0"/>
		<edge from-layer="3646" from-port="2" to-layer="3649" to-port="0"/>
		<edge from-layer="3648" from-port="1" to-layer="3649" to-port="1"/>
		<edge from-layer="3649" from-port="2" to-layer="3650" to-port="0"/>
		<edge from-layer="3612" from-port="0" to-layer="3650" to-port="1"/>
		<edge from-layer="3613" from-port="0" to-layer="3650" to-port="2"/>
		<edge from-layer="3614" from-port="0" to-layer="3650" to-port="3"/>
		<edge from-layer="3615" from-port="0" to-layer="3650" to-port="4"/>
		<edge from-layer="3652" from-port="0" to-layer="3653" to-port="0"/>
		<edge from-layer="3653" from-port="1" to-layer="3654" to-port="0"/>
		<edge from-layer="3651" from-port="0" to-layer="3654" to-port="1"/>
		<edge from-layer="3650" from-port="5" to-layer="3655" to-port="0"/>
		<edge from-layer="3654" from-port="2" to-layer="3655" to-port="1"/>
		<edge from-layer="3656" from-port="0" to-layer="3657" to-port="0"/>
		<edge from-layer="3655" from-port="2" to-layer="3658" to-port="0"/>
		<edge from-layer="3657" from-port="1" to-layer="3658" to-port="1"/>
		<edge from-layer="3658" from-port="2" to-layer="3659" to-port="0"/>
		<edge from-layer="3608" from-port="0" to-layer="3659" to-port="1"/>
		<edge from-layer="3609" from-port="0" to-layer="3659" to-port="2"/>
		<edge from-layer="3610" from-port="0" to-layer="3659" to-port="3"/>
		<edge from-layer="3611" from-port="0" to-layer="3659" to-port="4"/>
		<edge from-layer="3607" from-port="5" to-layer="3660" to-port="0"/>
		<edge from-layer="3659" from-port="5" to-layer="3660" to-port="1"/>
		<edge from-layer="3661" from-port="0" to-layer="3662" to-port="0"/>
		<edge from-layer="3660" from-port="2" to-layer="3663" to-port="0"/>
		<edge from-layer="3662" from-port="1" to-layer="3663" to-port="1"/>
		<edge from-layer="3663" from-port="2" to-layer="3664" to-port="0"/>
		<edge from-layer="3081" from-port="0" to-layer="3664" to-port="1"/>
		<edge from-layer="3082" from-port="0" to-layer="3664" to-port="2"/>
		<edge from-layer="3083" from-port="0" to-layer="3664" to-port="3"/>
		<edge from-layer="3084" from-port="0" to-layer="3664" to-port="4"/>
		<edge from-layer="3678" from-port="0" to-layer="3679" to-port="0"/>
		<edge from-layer="3679" from-port="1" to-layer="3680" to-port="0"/>
		<edge from-layer="3677" from-port="0" to-layer="3680" to-port="1"/>
		<edge from-layer="3664" from-port="5" to-layer="3681" to-port="0"/>
		<edge from-layer="3680" from-port="2" to-layer="3681" to-port="1"/>
		<edge from-layer="3682" from-port="0" to-layer="3683" to-port="0"/>
		<edge from-layer="3681" from-port="2" to-layer="3684" to-port="0"/>
		<edge from-layer="3683" from-port="1" to-layer="3684" to-port="1"/>
		<edge from-layer="3685" from-port="0" to-layer="3686" to-port="0"/>
		<edge from-layer="3684" from-port="2" to-layer="3687" to-port="0"/>
		<edge from-layer="3686" from-port="1" to-layer="3687" to-port="1"/>
		<edge from-layer="3687" from-port="2" to-layer="3688" to-port="0"/>
		<edge from-layer="3673" from-port="0" to-layer="3688" to-port="1"/>
		<edge from-layer="3674" from-port="0" to-layer="3688" to-port="2"/>
		<edge from-layer="3675" from-port="0" to-layer="3688" to-port="3"/>
		<edge from-layer="3676" from-port="0" to-layer="3688" to-port="4"/>
		<edge from-layer="3690" from-port="0" to-layer="3691" to-port="0"/>
		<edge from-layer="3691" from-port="1" to-layer="3692" to-port="0"/>
		<edge from-layer="3689" from-port="0" to-layer="3692" to-port="1"/>
		<edge from-layer="3692" from-port="2" to-layer="3694" to-port="0"/>
		<edge from-layer="3694" from-port="1" to-layer="3697" to-port="0"/>
		<edge from-layer="3695" from-port="0" to-layer="3697" to-port="1"/>
		<edge from-layer="3696" from-port="0" to-layer="3697" to-port="2"/>
		<edge from-layer="3693" from-port="0" to-layer="3698" to-port="0"/>
		<edge from-layer="3697" from-port="3" to-layer="3698" to-port="1"/>
		<edge from-layer="3692" from-port="2" to-layer="3699" to-port="0"/>
		<edge from-layer="3698" from-port="2" to-layer="3699" to-port="1"/>
		<edge from-layer="3688" from-port="5" to-layer="3700" to-port="0"/>
		<edge from-layer="3699" from-port="2" to-layer="3700" to-port="1"/>
		<edge from-layer="3701" from-port="0" to-layer="3702" to-port="0"/>
		<edge from-layer="3700" from-port="2" to-layer="3703" to-port="0"/>
		<edge from-layer="3702" from-port="1" to-layer="3703" to-port="1"/>
		<edge from-layer="3704" from-port="0" to-layer="3705" to-port="0"/>
		<edge from-layer="3703" from-port="2" to-layer="3706" to-port="0"/>
		<edge from-layer="3705" from-port="1" to-layer="3706" to-port="1"/>
		<edge from-layer="3706" from-port="2" to-layer="3707" to-port="0"/>
		<edge from-layer="3669" from-port="0" to-layer="3707" to-port="1"/>
		<edge from-layer="3670" from-port="0" to-layer="3707" to-port="2"/>
		<edge from-layer="3671" from-port="0" to-layer="3707" to-port="3"/>
		<edge from-layer="3672" from-port="0" to-layer="3707" to-port="4"/>
		<edge from-layer="3709" from-port="0" to-layer="3710" to-port="0"/>
		<edge from-layer="3710" from-port="1" to-layer="3711" to-port="0"/>
		<edge from-layer="3708" from-port="0" to-layer="3711" to-port="1"/>
		<edge from-layer="3707" from-port="5" to-layer="3712" to-port="0"/>
		<edge from-layer="3711" from-port="2" to-layer="3712" to-port="1"/>
		<edge from-layer="3713" from-port="0" to-layer="3714" to-port="0"/>
		<edge from-layer="3712" from-port="2" to-layer="3715" to-port="0"/>
		<edge from-layer="3714" from-port="1" to-layer="3715" to-port="1"/>
		<edge from-layer="3715" from-port="2" to-layer="3716" to-port="0"/>
		<edge from-layer="3665" from-port="0" to-layer="3716" to-port="1"/>
		<edge from-layer="3666" from-port="0" to-layer="3716" to-port="2"/>
		<edge from-layer="3667" from-port="0" to-layer="3716" to-port="3"/>
		<edge from-layer="3668" from-port="0" to-layer="3716" to-port="4"/>
		<edge from-layer="3664" from-port="5" to-layer="3717" to-port="0"/>
		<edge from-layer="3716" from-port="5" to-layer="3717" to-port="1"/>
		<edge from-layer="3718" from-port="0" to-layer="3719" to-port="0"/>
		<edge from-layer="3717" from-port="2" to-layer="3720" to-port="0"/>
		<edge from-layer="3719" from-port="1" to-layer="3720" to-port="1"/>
		<edge from-layer="3720" from-port="2" to-layer="3721" to-port="0"/>
		<edge from-layer="3077" from-port="0" to-layer="3721" to-port="1"/>
		<edge from-layer="3078" from-port="0" to-layer="3721" to-port="2"/>
		<edge from-layer="3079" from-port="0" to-layer="3721" to-port="3"/>
		<edge from-layer="3080" from-port="0" to-layer="3721" to-port="4"/>
		<edge from-layer="3735" from-port="0" to-layer="3736" to-port="0"/>
		<edge from-layer="3736" from-port="1" to-layer="3737" to-port="0"/>
		<edge from-layer="3734" from-port="0" to-layer="3737" to-port="1"/>
		<edge from-layer="3721" from-port="5" to-layer="3738" to-port="0"/>
		<edge from-layer="3737" from-port="2" to-layer="3738" to-port="1"/>
		<edge from-layer="3739" from-port="0" to-layer="3740" to-port="0"/>
		<edge from-layer="3738" from-port="2" to-layer="3741" to-port="0"/>
		<edge from-layer="3740" from-port="1" to-layer="3741" to-port="1"/>
		<edge from-layer="3742" from-port="0" to-layer="3743" to-port="0"/>
		<edge from-layer="3741" from-port="2" to-layer="3744" to-port="0"/>
		<edge from-layer="3743" from-port="1" to-layer="3744" to-port="1"/>
		<edge from-layer="3744" from-port="2" to-layer="3745" to-port="0"/>
		<edge from-layer="3730" from-port="0" to-layer="3745" to-port="1"/>
		<edge from-layer="3731" from-port="0" to-layer="3745" to-port="2"/>
		<edge from-layer="3732" from-port="0" to-layer="3745" to-port="3"/>
		<edge from-layer="3733" from-port="0" to-layer="3745" to-port="4"/>
		<edge from-layer="3747" from-port="0" to-layer="3748" to-port="0"/>
		<edge from-layer="3748" from-port="1" to-layer="3749" to-port="0"/>
		<edge from-layer="3746" from-port="0" to-layer="3749" to-port="1"/>
		<edge from-layer="3749" from-port="2" to-layer="3751" to-port="0"/>
		<edge from-layer="3751" from-port="1" to-layer="3754" to-port="0"/>
		<edge from-layer="3752" from-port="0" to-layer="3754" to-port="1"/>
		<edge from-layer="3753" from-port="0" to-layer="3754" to-port="2"/>
		<edge from-layer="3750" from-port="0" to-layer="3755" to-port="0"/>
		<edge from-layer="3754" from-port="3" to-layer="3755" to-port="1"/>
		<edge from-layer="3749" from-port="2" to-layer="3756" to-port="0"/>
		<edge from-layer="3755" from-port="2" to-layer="3756" to-port="1"/>
		<edge from-layer="3745" from-port="5" to-layer="3757" to-port="0"/>
		<edge from-layer="3756" from-port="2" to-layer="3757" to-port="1"/>
		<edge from-layer="3758" from-port="0" to-layer="3759" to-port="0"/>
		<edge from-layer="3757" from-port="2" to-layer="3760" to-port="0"/>
		<edge from-layer="3759" from-port="1" to-layer="3760" to-port="1"/>
		<edge from-layer="3761" from-port="0" to-layer="3762" to-port="0"/>
		<edge from-layer="3760" from-port="2" to-layer="3763" to-port="0"/>
		<edge from-layer="3762" from-port="1" to-layer="3763" to-port="1"/>
		<edge from-layer="3763" from-port="2" to-layer="3764" to-port="0"/>
		<edge from-layer="3726" from-port="0" to-layer="3764" to-port="1"/>
		<edge from-layer="3727" from-port="0" to-layer="3764" to-port="2"/>
		<edge from-layer="3728" from-port="0" to-layer="3764" to-port="3"/>
		<edge from-layer="3729" from-port="0" to-layer="3764" to-port="4"/>
		<edge from-layer="3766" from-port="0" to-layer="3767" to-port="0"/>
		<edge from-layer="3767" from-port="1" to-layer="3768" to-port="0"/>
		<edge from-layer="3765" from-port="0" to-layer="3768" to-port="1"/>
		<edge from-layer="3764" from-port="5" to-layer="3769" to-port="0"/>
		<edge from-layer="3768" from-port="2" to-layer="3769" to-port="1"/>
		<edge from-layer="3770" from-port="0" to-layer="3771" to-port="0"/>
		<edge from-layer="3769" from-port="2" to-layer="3772" to-port="0"/>
		<edge from-layer="3771" from-port="1" to-layer="3772" to-port="1"/>
		<edge from-layer="3772" from-port="2" to-layer="3773" to-port="0"/>
		<edge from-layer="3722" from-port="0" to-layer="3773" to-port="1"/>
		<edge from-layer="3723" from-port="0" to-layer="3773" to-port="2"/>
		<edge from-layer="3724" from-port="0" to-layer="3773" to-port="3"/>
		<edge from-layer="3725" from-port="0" to-layer="3773" to-port="4"/>
		<edge from-layer="3721" from-port="5" to-layer="3774" to-port="0"/>
		<edge from-layer="3773" from-port="5" to-layer="3774" to-port="1"/>
		<edge from-layer="3775" from-port="0" to-layer="3776" to-port="0"/>
		<edge from-layer="3774" from-port="2" to-layer="3777" to-port="0"/>
		<edge from-layer="3776" from-port="1" to-layer="3777" to-port="1"/>
		<edge from-layer="3777" from-port="2" to-layer="3778" to-port="0"/>
		<edge from-layer="3073" from-port="0" to-layer="3778" to-port="1"/>
		<edge from-layer="3074" from-port="0" to-layer="3778" to-port="2"/>
		<edge from-layer="3075" from-port="0" to-layer="3778" to-port="3"/>
		<edge from-layer="3076" from-port="0" to-layer="3778" to-port="4"/>
		<edge from-layer="3792" from-port="0" to-layer="3793" to-port="0"/>
		<edge from-layer="3793" from-port="1" to-layer="3794" to-port="0"/>
		<edge from-layer="3791" from-port="0" to-layer="3794" to-port="1"/>
		<edge from-layer="3778" from-port="5" to-layer="3795" to-port="0"/>
		<edge from-layer="3794" from-port="2" to-layer="3795" to-port="1"/>
		<edge from-layer="3796" from-port="0" to-layer="3797" to-port="0"/>
		<edge from-layer="3795" from-port="2" to-layer="3798" to-port="0"/>
		<edge from-layer="3797" from-port="1" to-layer="3798" to-port="1"/>
		<edge from-layer="3799" from-port="0" to-layer="3800" to-port="0"/>
		<edge from-layer="3798" from-port="2" to-layer="3801" to-port="0"/>
		<edge from-layer="3800" from-port="1" to-layer="3801" to-port="1"/>
		<edge from-layer="3801" from-port="2" to-layer="3802" to-port="0"/>
		<edge from-layer="3787" from-port="0" to-layer="3802" to-port="1"/>
		<edge from-layer="3788" from-port="0" to-layer="3802" to-port="2"/>
		<edge from-layer="3789" from-port="0" to-layer="3802" to-port="3"/>
		<edge from-layer="3790" from-port="0" to-layer="3802" to-port="4"/>
		<edge from-layer="3804" from-port="0" to-layer="3805" to-port="0"/>
		<edge from-layer="3805" from-port="1" to-layer="3806" to-port="0"/>
		<edge from-layer="3803" from-port="0" to-layer="3806" to-port="1"/>
		<edge from-layer="3806" from-port="2" to-layer="3808" to-port="0"/>
		<edge from-layer="3808" from-port="1" to-layer="3811" to-port="0"/>
		<edge from-layer="3809" from-port="0" to-layer="3811" to-port="1"/>
		<edge from-layer="3810" from-port="0" to-layer="3811" to-port="2"/>
		<edge from-layer="3807" from-port="0" to-layer="3812" to-port="0"/>
		<edge from-layer="3811" from-port="3" to-layer="3812" to-port="1"/>
		<edge from-layer="3806" from-port="2" to-layer="3813" to-port="0"/>
		<edge from-layer="3812" from-port="2" to-layer="3813" to-port="1"/>
		<edge from-layer="3802" from-port="5" to-layer="3814" to-port="0"/>
		<edge from-layer="3813" from-port="2" to-layer="3814" to-port="1"/>
		<edge from-layer="3815" from-port="0" to-layer="3816" to-port="0"/>
		<edge from-layer="3814" from-port="2" to-layer="3817" to-port="0"/>
		<edge from-layer="3816" from-port="1" to-layer="3817" to-port="1"/>
		<edge from-layer="3818" from-port="0" to-layer="3819" to-port="0"/>
		<edge from-layer="3817" from-port="2" to-layer="3820" to-port="0"/>
		<edge from-layer="3819" from-port="1" to-layer="3820" to-port="1"/>
		<edge from-layer="3820" from-port="2" to-layer="3821" to-port="0"/>
		<edge from-layer="3783" from-port="0" to-layer="3821" to-port="1"/>
		<edge from-layer="3784" from-port="0" to-layer="3821" to-port="2"/>
		<edge from-layer="3785" from-port="0" to-layer="3821" to-port="3"/>
		<edge from-layer="3786" from-port="0" to-layer="3821" to-port="4"/>
		<edge from-layer="3823" from-port="0" to-layer="3824" to-port="0"/>
		<edge from-layer="3824" from-port="1" to-layer="3825" to-port="0"/>
		<edge from-layer="3822" from-port="0" to-layer="3825" to-port="1"/>
		<edge from-layer="3821" from-port="5" to-layer="3826" to-port="0"/>
		<edge from-layer="3825" from-port="2" to-layer="3826" to-port="1"/>
		<edge from-layer="3827" from-port="0" to-layer="3828" to-port="0"/>
		<edge from-layer="3826" from-port="2" to-layer="3829" to-port="0"/>
		<edge from-layer="3828" from-port="1" to-layer="3829" to-port="1"/>
		<edge from-layer="3829" from-port="2" to-layer="3830" to-port="0"/>
		<edge from-layer="3779" from-port="0" to-layer="3830" to-port="1"/>
		<edge from-layer="3780" from-port="0" to-layer="3830" to-port="2"/>
		<edge from-layer="3781" from-port="0" to-layer="3830" to-port="3"/>
		<edge from-layer="3782" from-port="0" to-layer="3830" to-port="4"/>
		<edge from-layer="3778" from-port="5" to-layer="3831" to-port="0"/>
		<edge from-layer="3830" from-port="5" to-layer="3831" to-port="1"/>
		<edge from-layer="3832" from-port="0" to-layer="3833" to-port="0"/>
		<edge from-layer="3831" from-port="2" to-layer="3834" to-port="0"/>
		<edge from-layer="3833" from-port="1" to-layer="3834" to-port="1"/>
		<edge from-layer="3834" from-port="2" to-layer="3835" to-port="0"/>
		<edge from-layer="3069" from-port="0" to-layer="3835" to-port="1"/>
		<edge from-layer="3070" from-port="0" to-layer="3835" to-port="2"/>
		<edge from-layer="3071" from-port="0" to-layer="3835" to-port="3"/>
		<edge from-layer="3072" from-port="0" to-layer="3835" to-port="4"/>
		<edge from-layer="3837" from-port="0" to-layer="3838" to-port="0"/>
		<edge from-layer="3838" from-port="1" to-layer="3839" to-port="0"/>
		<edge from-layer="3836" from-port="0" to-layer="3839" to-port="1"/>
		<edge from-layer="3835" from-port="5" to-layer="3840" to-port="0"/>
		<edge from-layer="3839" from-port="2" to-layer="3840" to-port="1"/>
		<edge from-layer="3841" from-port="0" to-layer="3842" to-port="0"/>
		<edge from-layer="3840" from-port="2" to-layer="3843" to-port="0"/>
		<edge from-layer="3842" from-port="1" to-layer="3843" to-port="1"/>
		<edge from-layer="3843" from-port="2" to-layer="3844" to-port="0"/>
		<edge from-layer="3065" from-port="0" to-layer="3844" to-port="1"/>
		<edge from-layer="3066" from-port="0" to-layer="3844" to-port="2"/>
		<edge from-layer="3067" from-port="0" to-layer="3844" to-port="3"/>
		<edge from-layer="3068" from-port="0" to-layer="3844" to-port="4"/>
		<edge from-layer="3844" from-port="5" to-layer="3845" to-port="0"/>
		<edge from-layer="3064" from-port="0" to-layer="3845" to-port="1"/>
		<edge from-layer="3845" from-port="2" to-layer="3846" to-port="0"/>
		<edge from-layer="3060" from-port="0" to-layer="3846" to-port="1"/>
		<edge from-layer="3061" from-port="0" to-layer="3846" to-port="2"/>
		<edge from-layer="3062" from-port="0" to-layer="3846" to-port="3"/>
		<edge from-layer="3063" from-port="0" to-layer="3846" to-port="4"/>
		<edge from-layer="3059" from-port="5" to-layer="3847" to-port="0"/>
		<edge from-layer="3846" from-port="5" to-layer="3847" to-port="1"/>
		<edge from-layer="3849" from-port="0" to-layer="3850" to-port="0"/>
		<edge from-layer="3850" from-port="1" to-layer="3851" to-port="0"/>
		<edge from-layer="3848" from-port="0" to-layer="3851" to-port="1"/>
		<edge from-layer="3847" from-port="2" to-layer="3852" to-port="0"/>
		<edge from-layer="3851" from-port="2" to-layer="3852" to-port="1"/>
		<edge from-layer="3853" from-port="0" to-layer="3854" to-port="0"/>
		<edge from-layer="3852" from-port="2" to-layer="3855" to-port="0"/>
		<edge from-layer="3854" from-port="1" to-layer="3855" to-port="1"/>
		<edge from-layer="3856" from-port="0" to-layer="3857" to-port="0"/>
		<edge from-layer="3855" from-port="2" to-layer="3858" to-port="0"/>
		<edge from-layer="3857" from-port="1" to-layer="3858" to-port="1"/>
		<edge from-layer="3858" from-port="2" to-layer="3859" to-port="0"/>
		<edge from-layer="3036" from-port="0" to-layer="3859" to-port="1"/>
		<edge from-layer="3037" from-port="0" to-layer="3859" to-port="2"/>
		<edge from-layer="3038" from-port="0" to-layer="3859" to-port="3"/>
		<edge from-layer="3039" from-port="0" to-layer="3859" to-port="4"/>
		<edge from-layer="3861" from-port="0" to-layer="3862" to-port="0"/>
		<edge from-layer="3862" from-port="1" to-layer="3863" to-port="0"/>
		<edge from-layer="3860" from-port="0" to-layer="3863" to-port="1"/>
		<edge from-layer="3859" from-port="5" to-layer="3864" to-port="0"/>
		<edge from-layer="3863" from-port="2" to-layer="3864" to-port="1"/>
		<edge from-layer="3865" from-port="0" to-layer="3866" to-port="0"/>
		<edge from-layer="3864" from-port="2" to-layer="3867" to-port="0"/>
		<edge from-layer="3866" from-port="1" to-layer="3867" to-port="1"/>
		<edge from-layer="3868" from-port="0" to-layer="3869" to-port="0"/>
		<edge from-layer="3867" from-port="2" to-layer="3870" to-port="0"/>
		<edge from-layer="3869" from-port="1" to-layer="3870" to-port="1"/>
		<edge from-layer="3870" from-port="2" to-layer="3871" to-port="0"/>
		<edge from-layer="3032" from-port="0" to-layer="3871" to-port="1"/>
		<edge from-layer="3033" from-port="0" to-layer="3871" to-port="2"/>
		<edge from-layer="3034" from-port="0" to-layer="3871" to-port="3"/>
		<edge from-layer="3035" from-port="0" to-layer="3871" to-port="4"/>
		<edge from-layer="3873" from-port="0" to-layer="3874" to-port="0"/>
		<edge from-layer="3874" from-port="1" to-layer="3875" to-port="0"/>
		<edge from-layer="3872" from-port="0" to-layer="3875" to-port="1"/>
		<edge from-layer="3871" from-port="5" to-layer="3876" to-port="0"/>
		<edge from-layer="3875" from-port="2" to-layer="3876" to-port="1"/>
		<edge from-layer="3877" from-port="0" to-layer="3878" to-port="0"/>
		<edge from-layer="3876" from-port="2" to-layer="3879" to-port="0"/>
		<edge from-layer="3878" from-port="1" to-layer="3879" to-port="1"/>
		<edge from-layer="3879" from-port="2" to-layer="3880" to-port="0"/>
		<edge from-layer="3028" from-port="0" to-layer="3880" to-port="1"/>
		<edge from-layer="3029" from-port="0" to-layer="3880" to-port="2"/>
		<edge from-layer="3030" from-port="0" to-layer="3880" to-port="3"/>
		<edge from-layer="3031" from-port="0" to-layer="3880" to-port="4"/>
		<edge from-layer="3880" from-port="5" to-layer="3881" to-port="0"/>
		<edge from-layer="3027" from-port="0" to-layer="3881" to-port="1"/>
		<edge from-layer="3881" from-port="2" to-layer="3882" to-port="0"/>
		<edge from-layer="3023" from-port="0" to-layer="3882" to-port="1"/>
		<edge from-layer="3024" from-port="0" to-layer="3882" to-port="2"/>
		<edge from-layer="3025" from-port="0" to-layer="3882" to-port="3"/>
		<edge from-layer="3026" from-port="0" to-layer="3882" to-port="4"/>
		<edge from-layer="3884" from-port="0" to-layer="3885" to-port="0"/>
		<edge from-layer="3885" from-port="1" to-layer="3886" to-port="0"/>
		<edge from-layer="3883" from-port="0" to-layer="3886" to-port="1"/>
		<edge from-layer="3882" from-port="5" to-layer="3887" to-port="0"/>
		<edge from-layer="3886" from-port="2" to-layer="3887" to-port="1"/>
		<edge from-layer="3887" from-port="2" to-layer="3888" to-port="0"/>
		<edge from-layer="3022" from-port="0" to-layer="3888" to-port="1"/>
		<edge from-layer="3888" from-port="2" to-layer="3890" to-port="0"/>
		<edge from-layer="3889" from-port="0" to-layer="3890" to-port="1"/>
		<edge from-layer="3920" from-port="0" to-layer="3921" to-port="0"/>
		<edge from-layer="3921" from-port="1" to-layer="3922" to-port="0"/>
		<edge from-layer="3919" from-port="0" to-layer="3922" to-port="1"/>
		<edge from-layer="2990" from-port="5" to-layer="3923" to-port="0"/>
		<edge from-layer="3922" from-port="2" to-layer="3923" to-port="1"/>
		<edge from-layer="3924" from-port="0" to-layer="3925" to-port="0"/>
		<edge from-layer="3923" from-port="2" to-layer="3926" to-port="0"/>
		<edge from-layer="3925" from-port="1" to-layer="3926" to-port="1"/>
		<edge from-layer="3926" from-port="2" to-layer="3927" to-port="0"/>
		<edge from-layer="3915" from-port="0" to-layer="3927" to-port="1"/>
		<edge from-layer="3916" from-port="0" to-layer="3927" to-port="2"/>
		<edge from-layer="3917" from-port="0" to-layer="3927" to-port="3"/>
		<edge from-layer="3918" from-port="0" to-layer="3927" to-port="4"/>
		<edge from-layer="3927" from-port="5" to-layer="3928" to-port="0"/>
		<edge from-layer="3914" from-port="0" to-layer="3928" to-port="1"/>
		<edge from-layer="3928" from-port="2" to-layer="3929" to-port="0"/>
		<edge from-layer="3910" from-port="0" to-layer="3929" to-port="1"/>
		<edge from-layer="3911" from-port="0" to-layer="3929" to-port="2"/>
		<edge from-layer="3912" from-port="0" to-layer="3929" to-port="3"/>
		<edge from-layer="3913" from-port="0" to-layer="3929" to-port="4"/>
		<edge from-layer="3940" from-port="0" to-layer="3941" to-port="0"/>
		<edge from-layer="3941" from-port="1" to-layer="3942" to-port="0"/>
		<edge from-layer="3939" from-port="0" to-layer="3942" to-port="1"/>
		<edge from-layer="3835" from-port="5" to-layer="3943" to-port="0"/>
		<edge from-layer="3942" from-port="2" to-layer="3943" to-port="1"/>
		<edge from-layer="3944" from-port="0" to-layer="3945" to-port="0"/>
		<edge from-layer="3943" from-port="2" to-layer="3946" to-port="0"/>
		<edge from-layer="3945" from-port="1" to-layer="3946" to-port="1"/>
		<edge from-layer="3946" from-port="2" to-layer="3947" to-port="0"/>
		<edge from-layer="3935" from-port="0" to-layer="3947" to-port="1"/>
		<edge from-layer="3936" from-port="0" to-layer="3947" to-port="2"/>
		<edge from-layer="3937" from-port="0" to-layer="3947" to-port="3"/>
		<edge from-layer="3938" from-port="0" to-layer="3947" to-port="4"/>
		<edge from-layer="3947" from-port="5" to-layer="3948" to-port="0"/>
		<edge from-layer="3934" from-port="0" to-layer="3948" to-port="1"/>
		<edge from-layer="3948" from-port="2" to-layer="3949" to-port="0"/>
		<edge from-layer="3930" from-port="0" to-layer="3949" to-port="1"/>
		<edge from-layer="3931" from-port="0" to-layer="3949" to-port="2"/>
		<edge from-layer="3932" from-port="0" to-layer="3949" to-port="3"/>
		<edge from-layer="3933" from-port="0" to-layer="3949" to-port="4"/>
		<edge from-layer="3929" from-port="5" to-layer="3950" to-port="0"/>
		<edge from-layer="3949" from-port="5" to-layer="3950" to-port="1"/>
		<edge from-layer="3952" from-port="0" to-layer="3953" to-port="0"/>
		<edge from-layer="3953" from-port="1" to-layer="3954" to-port="0"/>
		<edge from-layer="3951" from-port="0" to-layer="3954" to-port="1"/>
		<edge from-layer="3950" from-port="2" to-layer="3955" to-port="0"/>
		<edge from-layer="3954" from-port="2" to-layer="3955" to-port="1"/>
		<edge from-layer="3956" from-port="0" to-layer="3957" to-port="0"/>
		<edge from-layer="3955" from-port="2" to-layer="3958" to-port="0"/>
		<edge from-layer="3957" from-port="1" to-layer="3958" to-port="1"/>
		<edge from-layer="3959" from-port="0" to-layer="3960" to-port="0"/>
		<edge from-layer="3958" from-port="2" to-layer="3961" to-port="0"/>
		<edge from-layer="3960" from-port="1" to-layer="3961" to-port="1"/>
		<edge from-layer="3961" from-port="2" to-layer="3962" to-port="0"/>
		<edge from-layer="3906" from-port="0" to-layer="3962" to-port="1"/>
		<edge from-layer="3907" from-port="0" to-layer="3962" to-port="2"/>
		<edge from-layer="3908" from-port="0" to-layer="3962" to-port="3"/>
		<edge from-layer="3909" from-port="0" to-layer="3962" to-port="4"/>
		<edge from-layer="3964" from-port="0" to-layer="3965" to-port="0"/>
		<edge from-layer="3965" from-port="1" to-layer="3966" to-port="0"/>
		<edge from-layer="3963" from-port="0" to-layer="3966" to-port="1"/>
		<edge from-layer="3962" from-port="5" to-layer="3967" to-port="0"/>
		<edge from-layer="3966" from-port="2" to-layer="3967" to-port="1"/>
		<edge from-layer="3968" from-port="0" to-layer="3969" to-port="0"/>
		<edge from-layer="3967" from-port="2" to-layer="3970" to-port="0"/>
		<edge from-layer="3969" from-port="1" to-layer="3970" to-port="1"/>
		<edge from-layer="3971" from-port="0" to-layer="3972" to-port="0"/>
		<edge from-layer="3970" from-port="2" to-layer="3973" to-port="0"/>
		<edge from-layer="3972" from-port="1" to-layer="3973" to-port="1"/>
		<edge from-layer="3973" from-port="2" to-layer="3974" to-port="0"/>
		<edge from-layer="3902" from-port="0" to-layer="3974" to-port="1"/>
		<edge from-layer="3903" from-port="0" to-layer="3974" to-port="2"/>
		<edge from-layer="3904" from-port="0" to-layer="3974" to-port="3"/>
		<edge from-layer="3905" from-port="0" to-layer="3974" to-port="4"/>
		<edge from-layer="3976" from-port="0" to-layer="3977" to-port="0"/>
		<edge from-layer="3977" from-port="1" to-layer="3978" to-port="0"/>
		<edge from-layer="3975" from-port="0" to-layer="3978" to-port="1"/>
		<edge from-layer="3974" from-port="5" to-layer="3979" to-port="0"/>
		<edge from-layer="3978" from-port="2" to-layer="3979" to-port="1"/>
		<edge from-layer="3980" from-port="0" to-layer="3981" to-port="0"/>
		<edge from-layer="3979" from-port="2" to-layer="3982" to-port="0"/>
		<edge from-layer="3981" from-port="1" to-layer="3982" to-port="1"/>
		<edge from-layer="3982" from-port="2" to-layer="3983" to-port="0"/>
		<edge from-layer="3898" from-port="0" to-layer="3983" to-port="1"/>
		<edge from-layer="3899" from-port="0" to-layer="3983" to-port="2"/>
		<edge from-layer="3900" from-port="0" to-layer="3983" to-port="3"/>
		<edge from-layer="3901" from-port="0" to-layer="3983" to-port="4"/>
		<edge from-layer="3983" from-port="5" to-layer="3984" to-port="0"/>
		<edge from-layer="3897" from-port="0" to-layer="3984" to-port="1"/>
		<edge from-layer="3984" from-port="2" to-layer="3985" to-port="0"/>
		<edge from-layer="3893" from-port="0" to-layer="3985" to-port="1"/>
		<edge from-layer="3894" from-port="0" to-layer="3985" to-port="2"/>
		<edge from-layer="3895" from-port="0" to-layer="3985" to-port="3"/>
		<edge from-layer="3896" from-port="0" to-layer="3985" to-port="4"/>
		<edge from-layer="3987" from-port="0" to-layer="3988" to-port="0"/>
		<edge from-layer="3988" from-port="1" to-layer="3989" to-port="0"/>
		<edge from-layer="3986" from-port="0" to-layer="3989" to-port="1"/>
		<edge from-layer="3985" from-port="5" to-layer="3990" to-port="0"/>
		<edge from-layer="3989" from-port="2" to-layer="3990" to-port="1"/>
		<edge from-layer="3990" from-port="2" to-layer="3991" to-port="0"/>
		<edge from-layer="3892" from-port="0" to-layer="3991" to-port="1"/>
		<edge from-layer="3991" from-port="2" to-layer="3993" to-port="0"/>
		<edge from-layer="3992" from-port="0" to-layer="3993" to-port="1"/>
		<edge from-layer="4023" from-port="0" to-layer="4024" to-port="0"/>
		<edge from-layer="4024" from-port="1" to-layer="4025" to-port="0"/>
		<edge from-layer="4022" from-port="0" to-layer="4025" to-port="1"/>
		<edge from-layer="2990" from-port="5" to-layer="4026" to-port="0"/>
		<edge from-layer="4025" from-port="2" to-layer="4026" to-port="1"/>
		<edge from-layer="4027" from-port="0" to-layer="4028" to-port="0"/>
		<edge from-layer="4026" from-port="2" to-layer="4029" to-port="0"/>
		<edge from-layer="4028" from-port="1" to-layer="4029" to-port="1"/>
		<edge from-layer="4029" from-port="2" to-layer="4030" to-port="0"/>
		<edge from-layer="4018" from-port="0" to-layer="4030" to-port="1"/>
		<edge from-layer="4019" from-port="0" to-layer="4030" to-port="2"/>
		<edge from-layer="4020" from-port="0" to-layer="4030" to-port="3"/>
		<edge from-layer="4021" from-port="0" to-layer="4030" to-port="4"/>
		<edge from-layer="4030" from-port="5" to-layer="4031" to-port="0"/>
		<edge from-layer="4017" from-port="0" to-layer="4031" to-port="1"/>
		<edge from-layer="4031" from-port="2" to-layer="4032" to-port="0"/>
		<edge from-layer="4013" from-port="0" to-layer="4032" to-port="1"/>
		<edge from-layer="4014" from-port="0" to-layer="4032" to-port="2"/>
		<edge from-layer="4015" from-port="0" to-layer="4032" to-port="3"/>
		<edge from-layer="4016" from-port="0" to-layer="4032" to-port="4"/>
		<edge from-layer="4043" from-port="0" to-layer="4044" to-port="0"/>
		<edge from-layer="4044" from-port="1" to-layer="4045" to-port="0"/>
		<edge from-layer="4042" from-port="0" to-layer="4045" to-port="1"/>
		<edge from-layer="3835" from-port="5" to-layer="4046" to-port="0"/>
		<edge from-layer="4045" from-port="2" to-layer="4046" to-port="1"/>
		<edge from-layer="4047" from-port="0" to-layer="4048" to-port="0"/>
		<edge from-layer="4046" from-port="2" to-layer="4049" to-port="0"/>
		<edge from-layer="4048" from-port="1" to-layer="4049" to-port="1"/>
		<edge from-layer="4049" from-port="2" to-layer="4050" to-port="0"/>
		<edge from-layer="4038" from-port="0" to-layer="4050" to-port="1"/>
		<edge from-layer="4039" from-port="0" to-layer="4050" to-port="2"/>
		<edge from-layer="4040" from-port="0" to-layer="4050" to-port="3"/>
		<edge from-layer="4041" from-port="0" to-layer="4050" to-port="4"/>
		<edge from-layer="4050" from-port="5" to-layer="4051" to-port="0"/>
		<edge from-layer="4037" from-port="0" to-layer="4051" to-port="1"/>
		<edge from-layer="4051" from-port="2" to-layer="4052" to-port="0"/>
		<edge from-layer="4033" from-port="0" to-layer="4052" to-port="1"/>
		<edge from-layer="4034" from-port="0" to-layer="4052" to-port="2"/>
		<edge from-layer="4035" from-port="0" to-layer="4052" to-port="3"/>
		<edge from-layer="4036" from-port="0" to-layer="4052" to-port="4"/>
		<edge from-layer="4032" from-port="5" to-layer="4053" to-port="0"/>
		<edge from-layer="4052" from-port="5" to-layer="4053" to-port="1"/>
		<edge from-layer="4055" from-port="0" to-layer="4056" to-port="0"/>
		<edge from-layer="4056" from-port="1" to-layer="4057" to-port="0"/>
		<edge from-layer="4054" from-port="0" to-layer="4057" to-port="1"/>
		<edge from-layer="4053" from-port="2" to-layer="4058" to-port="0"/>
		<edge from-layer="4057" from-port="2" to-layer="4058" to-port="1"/>
		<edge from-layer="4059" from-port="0" to-layer="4060" to-port="0"/>
		<edge from-layer="4058" from-port="2" to-layer="4061" to-port="0"/>
		<edge from-layer="4060" from-port="1" to-layer="4061" to-port="1"/>
		<edge from-layer="4062" from-port="0" to-layer="4063" to-port="0"/>
		<edge from-layer="4061" from-port="2" to-layer="4064" to-port="0"/>
		<edge from-layer="4063" from-port="1" to-layer="4064" to-port="1"/>
		<edge from-layer="4064" from-port="2" to-layer="4065" to-port="0"/>
		<edge from-layer="4009" from-port="0" to-layer="4065" to-port="1"/>
		<edge from-layer="4010" from-port="0" to-layer="4065" to-port="2"/>
		<edge from-layer="4011" from-port="0" to-layer="4065" to-port="3"/>
		<edge from-layer="4012" from-port="0" to-layer="4065" to-port="4"/>
		<edge from-layer="4067" from-port="0" to-layer="4068" to-port="0"/>
		<edge from-layer="4068" from-port="1" to-layer="4069" to-port="0"/>
		<edge from-layer="4066" from-port="0" to-layer="4069" to-port="1"/>
		<edge from-layer="4065" from-port="5" to-layer="4070" to-port="0"/>
		<edge from-layer="4069" from-port="2" to-layer="4070" to-port="1"/>
		<edge from-layer="4071" from-port="0" to-layer="4072" to-port="0"/>
		<edge from-layer="4070" from-port="2" to-layer="4073" to-port="0"/>
		<edge from-layer="4072" from-port="1" to-layer="4073" to-port="1"/>
		<edge from-layer="4074" from-port="0" to-layer="4075" to-port="0"/>
		<edge from-layer="4073" from-port="2" to-layer="4076" to-port="0"/>
		<edge from-layer="4075" from-port="1" to-layer="4076" to-port="1"/>
		<edge from-layer="4076" from-port="2" to-layer="4077" to-port="0"/>
		<edge from-layer="4005" from-port="0" to-layer="4077" to-port="1"/>
		<edge from-layer="4006" from-port="0" to-layer="4077" to-port="2"/>
		<edge from-layer="4007" from-port="0" to-layer="4077" to-port="3"/>
		<edge from-layer="4008" from-port="0" to-layer="4077" to-port="4"/>
		<edge from-layer="4079" from-port="0" to-layer="4080" to-port="0"/>
		<edge from-layer="4080" from-port="1" to-layer="4081" to-port="0"/>
		<edge from-layer="4078" from-port="0" to-layer="4081" to-port="1"/>
		<edge from-layer="4077" from-port="5" to-layer="4082" to-port="0"/>
		<edge from-layer="4081" from-port="2" to-layer="4082" to-port="1"/>
		<edge from-layer="4083" from-port="0" to-layer="4084" to-port="0"/>
		<edge from-layer="4082" from-port="2" to-layer="4085" to-port="0"/>
		<edge from-layer="4084" from-port="1" to-layer="4085" to-port="1"/>
		<edge from-layer="4085" from-port="2" to-layer="4086" to-port="0"/>
		<edge from-layer="4001" from-port="0" to-layer="4086" to-port="1"/>
		<edge from-layer="4002" from-port="0" to-layer="4086" to-port="2"/>
		<edge from-layer="4003" from-port="0" to-layer="4086" to-port="3"/>
		<edge from-layer="4004" from-port="0" to-layer="4086" to-port="4"/>
		<edge from-layer="4086" from-port="5" to-layer="4087" to-port="0"/>
		<edge from-layer="4000" from-port="0" to-layer="4087" to-port="1"/>
		<edge from-layer="4087" from-port="2" to-layer="4088" to-port="0"/>
		<edge from-layer="3996" from-port="0" to-layer="4088" to-port="1"/>
		<edge from-layer="3997" from-port="0" to-layer="4088" to-port="2"/>
		<edge from-layer="3998" from-port="0" to-layer="4088" to-port="3"/>
		<edge from-layer="3999" from-port="0" to-layer="4088" to-port="4"/>
		<edge from-layer="4090" from-port="0" to-layer="4091" to-port="0"/>
		<edge from-layer="4091" from-port="1" to-layer="4092" to-port="0"/>
		<edge from-layer="4089" from-port="0" to-layer="4092" to-port="1"/>
		<edge from-layer="4088" from-port="5" to-layer="4093" to-port="0"/>
		<edge from-layer="4092" from-port="2" to-layer="4093" to-port="1"/>
		<edge from-layer="4093" from-port="2" to-layer="4094" to-port="0"/>
		<edge from-layer="3995" from-port="0" to-layer="4094" to-port="1"/>
		<edge from-layer="4094" from-port="2" to-layer="4096" to-port="0"/>
		<edge from-layer="4095" from-port="0" to-layer="4096" to-port="1"/>
		<edge from-layer="4126" from-port="0" to-layer="4127" to-port="0"/>
		<edge from-layer="4127" from-port="1" to-layer="4128" to-port="0"/>
		<edge from-layer="4125" from-port="0" to-layer="4128" to-port="1"/>
		<edge from-layer="2990" from-port="5" to-layer="4129" to-port="0"/>
		<edge from-layer="4128" from-port="2" to-layer="4129" to-port="1"/>
		<edge from-layer="4130" from-port="0" to-layer="4131" to-port="0"/>
		<edge from-layer="4129" from-port="2" to-layer="4132" to-port="0"/>
		<edge from-layer="4131" from-port="1" to-layer="4132" to-port="1"/>
		<edge from-layer="4132" from-port="2" to-layer="4133" to-port="0"/>
		<edge from-layer="4121" from-port="0" to-layer="4133" to-port="1"/>
		<edge from-layer="4122" from-port="0" to-layer="4133" to-port="2"/>
		<edge from-layer="4123" from-port="0" to-layer="4133" to-port="3"/>
		<edge from-layer="4124" from-port="0" to-layer="4133" to-port="4"/>
		<edge from-layer="4133" from-port="5" to-layer="4134" to-port="0"/>
		<edge from-layer="4120" from-port="0" to-layer="4134" to-port="1"/>
		<edge from-layer="4134" from-port="2" to-layer="4135" to-port="0"/>
		<edge from-layer="4116" from-port="0" to-layer="4135" to-port="1"/>
		<edge from-layer="4117" from-port="0" to-layer="4135" to-port="2"/>
		<edge from-layer="4118" from-port="0" to-layer="4135" to-port="3"/>
		<edge from-layer="4119" from-port="0" to-layer="4135" to-port="4"/>
		<edge from-layer="4146" from-port="0" to-layer="4147" to-port="0"/>
		<edge from-layer="4147" from-port="1" to-layer="4148" to-port="0"/>
		<edge from-layer="4145" from-port="0" to-layer="4148" to-port="1"/>
		<edge from-layer="3835" from-port="5" to-layer="4149" to-port="0"/>
		<edge from-layer="4148" from-port="2" to-layer="4149" to-port="1"/>
		<edge from-layer="4150" from-port="0" to-layer="4151" to-port="0"/>
		<edge from-layer="4149" from-port="2" to-layer="4152" to-port="0"/>
		<edge from-layer="4151" from-port="1" to-layer="4152" to-port="1"/>
		<edge from-layer="4152" from-port="2" to-layer="4153" to-port="0"/>
		<edge from-layer="4141" from-port="0" to-layer="4153" to-port="1"/>
		<edge from-layer="4142" from-port="0" to-layer="4153" to-port="2"/>
		<edge from-layer="4143" from-port="0" to-layer="4153" to-port="3"/>
		<edge from-layer="4144" from-port="0" to-layer="4153" to-port="4"/>
		<edge from-layer="4153" from-port="5" to-layer="4154" to-port="0"/>
		<edge from-layer="4140" from-port="0" to-layer="4154" to-port="1"/>
		<edge from-layer="4154" from-port="2" to-layer="4155" to-port="0"/>
		<edge from-layer="4136" from-port="0" to-layer="4155" to-port="1"/>
		<edge from-layer="4137" from-port="0" to-layer="4155" to-port="2"/>
		<edge from-layer="4138" from-port="0" to-layer="4155" to-port="3"/>
		<edge from-layer="4139" from-port="0" to-layer="4155" to-port="4"/>
		<edge from-layer="4135" from-port="5" to-layer="4156" to-port="0"/>
		<edge from-layer="4155" from-port="5" to-layer="4156" to-port="1"/>
		<edge from-layer="4158" from-port="0" to-layer="4159" to-port="0"/>
		<edge from-layer="4159" from-port="1" to-layer="4160" to-port="0"/>
		<edge from-layer="4157" from-port="0" to-layer="4160" to-port="1"/>
		<edge from-layer="4156" from-port="2" to-layer="4161" to-port="0"/>
		<edge from-layer="4160" from-port="2" to-layer="4161" to-port="1"/>
		<edge from-layer="4162" from-port="0" to-layer="4163" to-port="0"/>
		<edge from-layer="4161" from-port="2" to-layer="4164" to-port="0"/>
		<edge from-layer="4163" from-port="1" to-layer="4164" to-port="1"/>
		<edge from-layer="4165" from-port="0" to-layer="4166" to-port="0"/>
		<edge from-layer="4164" from-port="2" to-layer="4167" to-port="0"/>
		<edge from-layer="4166" from-port="1" to-layer="4167" to-port="1"/>
		<edge from-layer="4167" from-port="2" to-layer="4168" to-port="0"/>
		<edge from-layer="4112" from-port="0" to-layer="4168" to-port="1"/>
		<edge from-layer="4113" from-port="0" to-layer="4168" to-port="2"/>
		<edge from-layer="4114" from-port="0" to-layer="4168" to-port="3"/>
		<edge from-layer="4115" from-port="0" to-layer="4168" to-port="4"/>
		<edge from-layer="4170" from-port="0" to-layer="4171" to-port="0"/>
		<edge from-layer="4171" from-port="1" to-layer="4172" to-port="0"/>
		<edge from-layer="4169" from-port="0" to-layer="4172" to-port="1"/>
		<edge from-layer="4168" from-port="5" to-layer="4173" to-port="0"/>
		<edge from-layer="4172" from-port="2" to-layer="4173" to-port="1"/>
		<edge from-layer="4174" from-port="0" to-layer="4175" to-port="0"/>
		<edge from-layer="4173" from-port="2" to-layer="4176" to-port="0"/>
		<edge from-layer="4175" from-port="1" to-layer="4176" to-port="1"/>
		<edge from-layer="4177" from-port="0" to-layer="4178" to-port="0"/>
		<edge from-layer="4176" from-port="2" to-layer="4179" to-port="0"/>
		<edge from-layer="4178" from-port="1" to-layer="4179" to-port="1"/>
		<edge from-layer="4179" from-port="2" to-layer="4180" to-port="0"/>
		<edge from-layer="4108" from-port="0" to-layer="4180" to-port="1"/>
		<edge from-layer="4109" from-port="0" to-layer="4180" to-port="2"/>
		<edge from-layer="4110" from-port="0" to-layer="4180" to-port="3"/>
		<edge from-layer="4111" from-port="0" to-layer="4180" to-port="4"/>
		<edge from-layer="4182" from-port="0" to-layer="4183" to-port="0"/>
		<edge from-layer="4183" from-port="1" to-layer="4184" to-port="0"/>
		<edge from-layer="4181" from-port="0" to-layer="4184" to-port="1"/>
		<edge from-layer="4180" from-port="5" to-layer="4185" to-port="0"/>
		<edge from-layer="4184" from-port="2" to-layer="4185" to-port="1"/>
		<edge from-layer="4186" from-port="0" to-layer="4187" to-port="0"/>
		<edge from-layer="4185" from-port="2" to-layer="4188" to-port="0"/>
		<edge from-layer="4187" from-port="1" to-layer="4188" to-port="1"/>
		<edge from-layer="4188" from-port="2" to-layer="4189" to-port="0"/>
		<edge from-layer="4104" from-port="0" to-layer="4189" to-port="1"/>
		<edge from-layer="4105" from-port="0" to-layer="4189" to-port="2"/>
		<edge from-layer="4106" from-port="0" to-layer="4189" to-port="3"/>
		<edge from-layer="4107" from-port="0" to-layer="4189" to-port="4"/>
		<edge from-layer="4189" from-port="5" to-layer="4190" to-port="0"/>
		<edge from-layer="4103" from-port="0" to-layer="4190" to-port="1"/>
		<edge from-layer="4190" from-port="2" to-layer="4191" to-port="0"/>
		<edge from-layer="4099" from-port="0" to-layer="4191" to-port="1"/>
		<edge from-layer="4100" from-port="0" to-layer="4191" to-port="2"/>
		<edge from-layer="4101" from-port="0" to-layer="4191" to-port="3"/>
		<edge from-layer="4102" from-port="0" to-layer="4191" to-port="4"/>
		<edge from-layer="4193" from-port="0" to-layer="4194" to-port="0"/>
		<edge from-layer="4194" from-port="1" to-layer="4195" to-port="0"/>
		<edge from-layer="4192" from-port="0" to-layer="4195" to-port="1"/>
		<edge from-layer="4191" from-port="5" to-layer="4196" to-port="0"/>
		<edge from-layer="4195" from-port="2" to-layer="4196" to-port="1"/>
		<edge from-layer="4196" from-port="2" to-layer="4197" to-port="0"/>
		<edge from-layer="4098" from-port="0" to-layer="4197" to-port="1"/>
		<edge from-layer="4197" from-port="2" to-layer="4199" to-port="0"/>
		<edge from-layer="4198" from-port="0" to-layer="4199" to-port="1"/>
		<edge from-layer="3002" from-port="2" to-layer="3003" to-port="0"/>
		<edge from-layer="3020" from-port="2" to-layer="3021" to-port="0"/>
		<edge from-layer="2984" from-port="2" to-layer="2985" to-port="0"/>
		<edge from-layer="3890" from-port="2" to-layer="3891" to-port="0"/>
		<edge from-layer="3993" from-port="2" to-layer="3994" to-port="0"/>
		<edge from-layer="4096" from-port="2" to-layer="4097" to-port="0"/>
		<edge from-layer="4199" from-port="2" to-layer="4200" to-port="0"/>
	</edges>
	<meta_data>
		<MO_version value="custom_HEAD_0e242b324458ed332f0907ac6d88fc24b610d9b9"/>
		<Runtime_version value="2022.3.0-000-0e242b32445-HEAD"/>
		<legacy_path value="True"/>
		<cli_parameters>
			<caffe_parser_path value="DIR"/>
			<data_type value="FP16"/>
			<disable_nhwc_to_nchw value="False"/>
			<disable_omitting_optional value="False"/>
			<disable_resnet_optimization value="False"/>
			<disable_weights_compression value="False"/>
			<enable_concat_optimization value="False"/>
			<enable_flattening_nested_params value="False"/>
			<enable_ssd_gluoncv value="False"/>
			<extensions value="['/opt/home/sys_k8sworker/workspace/DL-Benchmark/try/convert']"/>
			<framework value="caffe"/>
			<input value="data"/>
			<input_model value="DIR/weights.caffemodel"/>
			<input_model_is_text value="False"/>
			<input_proto value="DIR/deploy.prototxt"/>
			<input_shape value="[1,3,400,680]"/>
			<k value="DIR/CustomLayersMapping.xml"/>
			<layout value="data(nchw)"/>
			<legacy_mxnet_model value="False"/>
			<log_level value="ERROR"/>
			<mean_values value="()"/>
			<model_name value="person-detection-raisinghand-recognition-0001"/>
			<output value="mbox_loc1/out/conv/flat,mbox_main_conf/out/conv/flat/softmax/flat,mbox/priorbox,out/anchor1,out/anchor2,out/anchor3,out/anchor4"/>
			<output_dir value="DIR"/>
			<progress value="False"/>
			<remove_memory value="False"/>
			<remove_output_softmax value="False"/>
			<reverse_input_channels value="False"/>
			<save_params_from_nd value="False"/>
			<scale_values value="()"/>
			<silent value="True"/>
			<source_layout value="()"/>
			<static_shape value="False"/>
			<stream_output value="False"/>
			<target_layout value="()"/>
			<transform value=""/>
			<use_legacy_frontend value="False"/>
			<use_new_frontend value="False"/>
			<unset unset_cli_parameters="batch, counts, disable_fusing, finegrain_fusing, freeze_placeholder_with_value, input_checkpoint, input_meta_graph, input_symbol, mean_file, mean_file_offsets, nd_prefix_name, pretrained_model_name, saved_model_dir, saved_model_tags, scale, tensorboard_logdir, tensorflow_custom_layer_libraries, tensorflow_custom_operations_config_update, tensorflow_object_detection_api_pipeline_config, tensorflow_use_custom_operations_config, transformations_config"/>
		</cli_parameters>
	</meta_data>
	<quantization_parameters>
		<config>{
		'compression': {
			'algorithms': [
				{
					'name': 'DefaultQuantization',
					'params': {
						'num_samples_for_tuning': 2000,
						'preset': 'performance',
						'stat_subset_size': 300,
						'use_fast_bias': false,
						'use_layerwise_tuning': false
					}
				}
			],
			'dump_intermediate_model': true,
			'target_device': 'ANY'
		},
		'engine': {
			'models': [
				{
					'name': 'person-detection-raisinghand-recognition-0001',
					'launchers': [
						{
							'framework': 'openvino',
							'adapter': {
								'type': 'action_detection',
								'priorbox_out': 'mbox/priorbox',
								'loc_out': 'mbox_loc1/out/conv/flat',
								'main_conf_out': 'mbox_main_conf/out/conv/flat/softmax/flat',
								'add_conf_out_prefix': 'out/anchor',
								'add_conf_out_count': 4,
								'num_action_classes': 2,
								'detection_threshold': 0.4,
								'action_confidence_threshold': 0.75,
								'action_scale': 3
							},
							'device': 'cpu'
						}
					],
					'datasets': [
						{
							'name': 'action_detection_dataset_raising_hand',
							'data_source': 'PATH',
							'annotation_conversion': {
								'converter': 'action_recognition',
								'annotation_file': 'PATH',
								'use_images': true,
								'use_case': 'raising_hand'
							},
							'annotation': 'PATH',
							'dataset_meta': 'PATH',
							'preprocessing': [
								{
									'type': 'resize',
									'dst_width': 680,
									'dst_height': 400
								}
							],
							'postprocessing': [
								{
									'type': 'soft_nms',
									'sigma': 0.6,
									'min_score': 0.4,
									'keep_top_k': 200
								},
								{
									'type': 'clip_boxes',
									'apply_to': 'prediction',
									'boxes_normalized': true
								},
								{
									'type': 'filter',
									'is_empty': true,
									'apply_to': 'prediction',
									'remove_filtered': true
								},
								{
									'type': 'normalize_boxes'
								},
								{
									'type': 'clip_boxes',
									'apply_to': 'annotation',
									'boxes_normalized': true
								}
							],
							'metrics': [
								{
									'type': 'map',
									'name': 'class_agnostic@ap',
									'ignore_difficult': false,
									'include_boundaries': false,
									'allow_multiple_matches_per_ignored': false,
									'distinct_conf': true,
									'annotation_source': 'person_annotation',
									'prediction_source': 'class_agnostic_prediction',
									'label_map': 'person_label_map',
									'reference': 0.8
								},
								{
									'type': 'detection_accuracy',
									'use_normalization': true,
									'annotation_source': 'action_annotation',
									'prediction_source': 'action_prediction',
									'label_map': 'action_label_map',
									'ignore_label': 2,
									'reference': 0.905
								}
							],
							'_command_line_mapping': {
								'annotation_file': 'PATH'
							}
						}
					]
				}
			],
			'stat_requests_number': null,
			'eval_requests_number': null,
			'type': 'accuracy_checker'
		}
	}</config>
		<version value="invalid version"/>
		<cli_params value="{'quantize': None, 'preset': None, 'model': None, 'weights': None, 'name': None, 'engine': None, 'ac_config': None, 'max_drop': None, 'evaluate': False, 'output_dir': 'PATH', 'direct_dump': True, 'log_level': 'INFO', 'pbar': False, 'stream_output': False, 'keep_uncompressed_weights': False, 'data_source': None}"/>
	</quantization_parameters>
</net>
