<?xml version="1.0" ?>
<net name="TensorFlow_Frontend_IR" version="11">
	<layers>
		<layer id="455" name="input" type="Parameter" version="opset1">
			<data shape="1,400,680,3" element_type="f32"/>
			<rt_info>
				<attribute name="old_api_map_element_type" version="0" value="f16"/>
			</rt_info>
			<output>
				<port id="0" precision="FP32" names="input,input:0">
					<dim>1</dim>
					<dim>400</dim>
					<dim>680</dim>
					<dim>3</dim>
					<rt_info>
						<attribute name="layout" version="0" layout="[N,H,W,C]"/>
					</rt_info>
				</port>
			</output>
		</layer>
		<layer id="0" name="5694569654195" type="Const" version="opset1">
			<data offset="0" size="24" shape="1,6,1,1" element_type="f32"/>
			<output>
				<port id="0" precision="FP32">
					<dim>1</dim>
					<dim>6</dim>
					<dim>1</dim>
					<dim>1</dim>
				</port>
			</output>
		</layer>
		<layer id="1" name="130331303758785" type="Const" version="opset1">
			<data offset="24" size="4" shape="1,1,1,1" element_type="f32"/>
			<output>
				<port id="0" precision="FP32">
					<dim>1</dim>
					<dim>1</dim>
					<dim>1</dim>
					<dim>1</dim>
				</port>
			</output>
		</layer>
		<layer id="2" name="130341303857219" type="Const" version="opset1">
			<data offset="28" size="4" shape="1,1,1,1" element_type="f32"/>
			<output>
				<port id="0" precision="FP32">
					<dim>1</dim>
					<dim>1</dim>
					<dim>1</dim>
					<dim>1</dim>
				</port>
			</output>
		</layer>
		<layer id="3" name="130351303956568" type="Const" version="opset1">
			<data offset="24" size="4" shape="1,1,1,1" element_type="f32"/>
			<output>
				<port id="0" precision="FP32">
					<dim>1</dim>
					<dim>1</dim>
					<dim>1</dim>
					<dim>1</dim>
				</port>
			</output>
		</layer>
		<layer id="4" name="130361304056064" type="Const" version="opset1">
			<data offset="28" size="4" shape="1,1,1,1" element_type="f32"/>
			<output>
				<port id="0" precision="FP32">
					<dim>1</dim>
					<dim>1</dim>
					<dim>1</dim>
					<dim>1</dim>
				</port>
			</output>
		</layer>
		<layer id="5" name="132031320755026" type="Const" version="opset1">
			<data offset="32" size="4" shape="1,1,1,1" element_type="f32"/>
			<output>
				<port id="0" precision="FP32">
					<dim>1</dim>
					<dim>1</dim>
					<dim>1</dim>
					<dim>1</dim>
				</port>
			</output>
		</layer>
		<layer id="6" name="132041320857873" type="Const" version="opset1">
			<data offset="36" size="4" shape="1,1,1,1" element_type="f32"/>
			<output>
				<port id="0" precision="FP32">
					<dim>1</dim>
					<dim>1</dim>
					<dim>1</dim>
					<dim>1</dim>
				</port>
			</output>
		</layer>
		<layer id="7" name="132051320959178" type="Const" version="opset1">
			<data offset="32" size="4" shape="1,1,1,1" element_type="f32"/>
			<output>
				<port id="0" precision="FP32">
					<dim>1</dim>
					<dim>1</dim>
					<dim>1</dim>
					<dim>1</dim>
				</port>
			</output>
		</layer>
		<layer id="8" name="132061321053226" type="Const" version="opset1">
			<data offset="36" size="4" shape="1,1,1,1" element_type="f32"/>
			<output>
				<port id="0" precision="FP32">
					<dim>1</dim>
					<dim>1</dim>
					<dim>1</dim>
					<dim>1</dim>
				</port>
			</output>
		</layer>
		<layer id="9" name="Transpose_6294427354702" type="Const" version="opset1">
			<data offset="40" size="4" shape="1,1,1,1" element_type="f32"/>
			<output>
				<port id="0" precision="FP32">
					<dim>1</dim>
					<dim>1</dim>
					<dim>1</dim>
					<dim>1</dim>
				</port>
			</output>
		</layer>
		<layer id="10" name="168621686658575" type="Const" version="opset1">
			<data offset="32" size="4" shape="1,1,1,1" element_type="f32"/>
			<output>
				<port id="0" precision="FP32">
					<dim>1</dim>
					<dim>1</dim>
					<dim>1</dim>
					<dim>1</dim>
				</port>
			</output>
		</layer>
		<layer id="11" name="168631686757240" type="Const" version="opset1">
			<data offset="44" size="4" shape="1,1,1,1" element_type="f32"/>
			<output>
				<port id="0" precision="FP32">
					<dim>1</dim>
					<dim>1</dim>
					<dim>1</dim>
					<dim>1</dim>
				</port>
			</output>
		</layer>
		<layer id="12" name="168641686858959" type="Const" version="opset1">
			<data offset="32" size="4" shape="1,1,1,1" element_type="f32"/>
			<output>
				<port id="0" precision="FP32">
					<dim>1</dim>
					<dim>1</dim>
					<dim>1</dim>
					<dim>1</dim>
				</port>
			</output>
		</layer>
		<layer id="13" name="168651686958755" type="Const" version="opset1">
			<data offset="44" size="4" shape="1,1,1,1" element_type="f32"/>
			<output>
				<port id="0" precision="FP32">
					<dim>1</dim>
					<dim>1</dim>
					<dim>1</dim>
					<dim>1</dim>
				</port>
			</output>
		</layer>
		<layer id="14" name="9193919753616" type="Const" version="opset1">
			<data offset="48" size="4" shape="1,1,1,1" element_type="f32"/>
			<output>
				<port id="0" precision="FP32">
					<dim>1</dim>
					<dim>1</dim>
					<dim>1</dim>
					<dim>1</dim>
				</port>
			</output>
		</layer>
		<layer id="15" name="9194919852977" type="Const" version="opset1">
			<data offset="52" size="4" shape="1,1,1,1" element_type="f32"/>
			<output>
				<port id="0" precision="FP32">
					<dim>1</dim>
					<dim>1</dim>
					<dim>1</dim>
					<dim>1</dim>
				</port>
			</output>
		</layer>
		<layer id="16" name="9195919956574" type="Const" version="opset1">
			<data offset="48" size="4" shape="1,1,1,1" element_type="f32"/>
			<output>
				<port id="0" precision="FP32">
					<dim>1</dim>
					<dim>1</dim>
					<dim>1</dim>
					<dim>1</dim>
				</port>
			</output>
		</layer>
		<layer id="17" name="9196920057027" type="Const" version="opset1">
			<data offset="52" size="4" shape="1,1,1,1" element_type="f32"/>
			<output>
				<port id="0" precision="FP32">
					<dim>1</dim>
					<dim>1</dim>
					<dim>1</dim>
					<dim>1</dim>
				</port>
			</output>
		</layer>
		<layer id="18" name="118231182758395" type="Const" version="opset1">
			<data offset="56" size="4" shape="1,1,1,1" element_type="f32"/>
			<output>
				<port id="0" precision="FP32">
					<dim>1</dim>
					<dim>1</dim>
					<dim>1</dim>
					<dim>1</dim>
				</port>
			</output>
		</layer>
		<layer id="19" name="118241182856253" type="Const" version="opset1">
			<data offset="60" size="4" shape="1,1,1,1" element_type="f32"/>
			<output>
				<port id="0" precision="FP32">
					<dim>1</dim>
					<dim>1</dim>
					<dim>1</dim>
					<dim>1</dim>
				</port>
			</output>
		</layer>
		<layer id="20" name="118251182952692" type="Const" version="opset1">
			<data offset="56" size="4" shape="1,1,1,1" element_type="f32"/>
			<output>
				<port id="0" precision="FP32">
					<dim>1</dim>
					<dim>1</dim>
					<dim>1</dim>
					<dim>1</dim>
				</port>
			</output>
		</layer>
		<layer id="21" name="118261183055554" type="Const" version="opset1">
			<data offset="60" size="4" shape="1,1,1,1" element_type="f32"/>
			<output>
				<port id="0" precision="FP32">
					<dim>1</dim>
					<dim>1</dim>
					<dim>1</dim>
					<dim>1</dim>
				</port>
			</output>
		</layer>
		<layer id="22" name="101131011755755" type="Const" version="opset1">
			<data offset="64" size="4" shape="1,1,1,1" element_type="f32"/>
			<output>
				<port id="0" precision="FP32">
					<dim>1</dim>
					<dim>1</dim>
					<dim>1</dim>
					<dim>1</dim>
				</port>
			</output>
		</layer>
		<layer id="23" name="101141011859187" type="Const" version="opset1">
			<data offset="68" size="4" shape="1,1,1,1" element_type="f32"/>
			<output>
				<port id="0" precision="FP32">
					<dim>1</dim>
					<dim>1</dim>
					<dim>1</dim>
					<dim>1</dim>
				</port>
			</output>
		</layer>
		<layer id="24" name="101151011958248" type="Const" version="opset1">
			<data offset="64" size="4" shape="1,1,1,1" element_type="f32"/>
			<output>
				<port id="0" precision="FP32">
					<dim>1</dim>
					<dim>1</dim>
					<dim>1</dim>
					<dim>1</dim>
				</port>
			</output>
		</layer>
		<layer id="25" name="101161012059157" type="Const" version="opset1">
			<data offset="68" size="4" shape="1,1,1,1" element_type="f32"/>
			<output>
				<port id="0" precision="FP32">
					<dim>1</dim>
					<dim>1</dim>
					<dim>1</dim>
					<dim>1</dim>
				</port>
			</output>
		</layer>
		<layer id="26" name="7613761754318" type="Const" version="opset1">
			<data offset="32" size="4" shape="1,1,1,1" element_type="f32"/>
			<output>
				<port id="0" precision="FP32">
					<dim>1</dim>
					<dim>1</dim>
					<dim>1</dim>
					<dim>1</dim>
				</port>
			</output>
		</layer>
		<layer id="27" name="7614761857615" type="Const" version="opset1">
			<data offset="72" size="4" shape="1,1,1,1" element_type="f32"/>
			<output>
				<port id="0" precision="FP32">
					<dim>1</dim>
					<dim>1</dim>
					<dim>1</dim>
					<dim>1</dim>
				</port>
			</output>
		</layer>
		<layer id="28" name="7615761958068" type="Const" version="opset1">
			<data offset="32" size="4" shape="1,1,1,1" element_type="f32"/>
			<output>
				<port id="0" precision="FP32">
					<dim>1</dim>
					<dim>1</dim>
					<dim>1</dim>
					<dim>1</dim>
				</port>
			</output>
		</layer>
		<layer id="29" name="7616762058734" type="Const" version="opset1">
			<data offset="72" size="4" shape="1,1,1,1" element_type="f32"/>
			<output>
				<port id="0" precision="FP32">
					<dim>1</dim>
					<dim>1</dim>
					<dim>1</dim>
					<dim>1</dim>
				</port>
			</output>
		</layer>
		<layer id="30" name="Transpose_6252424957765" type="Const" version="opset1">
			<data offset="40" size="4" shape="1,1,1,1" element_type="f32"/>
			<output>
				<port id="0" precision="FP32">
					<dim>1</dim>
					<dim>1</dim>
					<dim>1</dim>
					<dim>1</dim>
				</port>
			</output>
		</layer>
		<layer id="31" name="168521685652950" type="Const" version="opset1">
			<data offset="32" size="4" shape="1,1,1,1" element_type="f32"/>
			<output>
				<port id="0" precision="FP32">
					<dim>1</dim>
					<dim>1</dim>
					<dim>1</dim>
					<dim>1</dim>
				</port>
			</output>
		</layer>
		<layer id="32" name="168531685755398" type="Const" version="opset1">
			<data offset="76" size="4" shape="1,1,1,1" element_type="f32"/>
			<output>
				<port id="0" precision="FP32">
					<dim>1</dim>
					<dim>1</dim>
					<dim>1</dim>
					<dim>1</dim>
				</port>
			</output>
		</layer>
		<layer id="33" name="168541685853802" type="Const" version="opset1">
			<data offset="32" size="4" shape="1,1,1,1" element_type="f32"/>
			<output>
				<port id="0" precision="FP32">
					<dim>1</dim>
					<dim>1</dim>
					<dim>1</dim>
					<dim>1</dim>
				</port>
			</output>
		</layer>
		<layer id="34" name="168551685953169" type="Const" version="opset1">
			<data offset="76" size="4" shape="1,1,1,1" element_type="f32"/>
			<output>
				<port id="0" precision="FP32">
					<dim>1</dim>
					<dim>1</dim>
					<dim>1</dim>
					<dim>1</dim>
				</port>
			</output>
		</layer>
		<layer id="35" name="106131061757429" type="Const" version="opset1">
			<data offset="80" size="4" shape="1,1,1,1" element_type="f32"/>
			<output>
				<port id="0" precision="FP32">
					<dim>1</dim>
					<dim>1</dim>
					<dim>1</dim>
					<dim>1</dim>
				</port>
			</output>
		</layer>
		<layer id="36" name="106141061856217" type="Const" version="opset1">
			<data offset="84" size="4" shape="1,1,1,1" element_type="f32"/>
			<output>
				<port id="0" precision="FP32">
					<dim>1</dim>
					<dim>1</dim>
					<dim>1</dim>
					<dim>1</dim>
				</port>
			</output>
		</layer>
		<layer id="37" name="106151061958599" type="Const" version="opset1">
			<data offset="80" size="4" shape="1,1,1,1" element_type="f32"/>
			<output>
				<port id="0" precision="FP32">
					<dim>1</dim>
					<dim>1</dim>
					<dim>1</dim>
					<dim>1</dim>
				</port>
			</output>
		</layer>
		<layer id="38" name="106161062056472" type="Const" version="opset1">
			<data offset="84" size="4" shape="1,1,1,1" element_type="f32"/>
			<output>
				<port id="0" precision="FP32">
					<dim>1</dim>
					<dim>1</dim>
					<dim>1</dim>
					<dim>1</dim>
				</port>
			</output>
		</layer>
		<layer id="39" name="108531085755920" type="Const" version="opset1">
			<data offset="88" size="4" shape="1,1,1,1" element_type="f32"/>
			<output>
				<port id="0" precision="FP32">
					<dim>1</dim>
					<dim>1</dim>
					<dim>1</dim>
					<dim>1</dim>
				</port>
			</output>
		</layer>
		<layer id="40" name="108541085852686" type="Const" version="opset1">
			<data offset="92" size="4" shape="1,1,1,1" element_type="f32"/>
			<output>
				<port id="0" precision="FP32">
					<dim>1</dim>
					<dim>1</dim>
					<dim>1</dim>
					<dim>1</dim>
				</port>
			</output>
		</layer>
		<layer id="41" name="108551085952929" type="Const" version="opset1">
			<data offset="88" size="4" shape="1,1,1,1" element_type="f32"/>
			<output>
				<port id="0" precision="FP32">
					<dim>1</dim>
					<dim>1</dim>
					<dim>1</dim>
					<dim>1</dim>
				</port>
			</output>
		</layer>
		<layer id="42" name="108561086058725" type="Const" version="opset1">
			<data offset="92" size="4" shape="1,1,1,1" element_type="f32"/>
			<output>
				<port id="0" precision="FP32">
					<dim>1</dim>
					<dim>1</dim>
					<dim>1</dim>
					<dim>1</dim>
				</port>
			</output>
		</layer>
		<layer id="43" name="8183818757708" type="Const" version="opset1">
			<data offset="96" size="512" shape="1,128,1,1" element_type="f32"/>
			<output>
				<port id="0" precision="FP32">
					<dim>1</dim>
					<dim>128</dim>
					<dim>1</dim>
					<dim>1</dim>
				</port>
			</output>
		</layer>
		<layer id="44" name="8184818854900" type="Const" version="opset1">
			<data offset="608" size="512" shape="1,128,1,1" element_type="f32"/>
			<output>
				<port id="0" precision="FP32">
					<dim>1</dim>
					<dim>128</dim>
					<dim>1</dim>
					<dim>1</dim>
				</port>
			</output>
		</layer>
		<layer id="45" name="8185818956211" type="Const" version="opset1">
			<data offset="96" size="512" shape="1,128,1,1" element_type="f32"/>
			<output>
				<port id="0" precision="FP32">
					<dim>1</dim>
					<dim>128</dim>
					<dim>1</dim>
					<dim>1</dim>
				</port>
			</output>
		</layer>
		<layer id="46" name="8186819059124" type="Const" version="opset1">
			<data offset="608" size="512" shape="1,128,1,1" element_type="f32"/>
			<output>
				<port id="0" precision="FP32">
					<dim>1</dim>
					<dim>128</dim>
					<dim>1</dim>
					<dim>1</dim>
				</port>
			</output>
		</layer>
		<layer id="47" name="107731077757015" type="Const" version="opset1">
			<data offset="1120" size="4" shape="1,1,1,1" element_type="f32"/>
			<output>
				<port id="0" precision="FP32">
					<dim>1</dim>
					<dim>1</dim>
					<dim>1</dim>
					<dim>1</dim>
				</port>
			</output>
		</layer>
		<layer id="48" name="107741077858563" type="Const" version="opset1">
			<data offset="1124" size="4" shape="1,1,1,1" element_type="f32"/>
			<output>
				<port id="0" precision="FP32">
					<dim>1</dim>
					<dim>1</dim>
					<dim>1</dim>
					<dim>1</dim>
				</port>
			</output>
		</layer>
		<layer id="49" name="107751077956469" type="Const" version="opset1">
			<data offset="1120" size="4" shape="1,1,1,1" element_type="f32"/>
			<output>
				<port id="0" precision="FP32">
					<dim>1</dim>
					<dim>1</dim>
					<dim>1</dim>
					<dim>1</dim>
				</port>
			</output>
		</layer>
		<layer id="50" name="107761078058380" type="Const" version="opset1">
			<data offset="1124" size="4" shape="1,1,1,1" element_type="f32"/>
			<output>
				<port id="0" precision="FP32">
					<dim>1</dim>
					<dim>1</dim>
					<dim>1</dim>
					<dim>1</dim>
				</port>
			</output>
		</layer>
		<layer id="51" name="7463746757600" type="Const" version="opset1">
			<data offset="1128" size="4" shape="1,1,1,1" element_type="f32"/>
			<output>
				<port id="0" precision="FP32">
					<dim>1</dim>
					<dim>1</dim>
					<dim>1</dim>
					<dim>1</dim>
				</port>
			</output>
		</layer>
		<layer id="52" name="7464746859373" type="Const" version="opset1">
			<data offset="1132" size="4" shape="1,1,1,1" element_type="f32"/>
			<output>
				<port id="0" precision="FP32">
					<dim>1</dim>
					<dim>1</dim>
					<dim>1</dim>
					<dim>1</dim>
				</port>
			</output>
		</layer>
		<layer id="53" name="7465746952737" type="Const" version="opset1">
			<data offset="1128" size="4" shape="1,1,1,1" element_type="f32"/>
			<output>
				<port id="0" precision="FP32">
					<dim>1</dim>
					<dim>1</dim>
					<dim>1</dim>
					<dim>1</dim>
				</port>
			</output>
		</layer>
		<layer id="54" name="7466747058467" type="Const" version="opset1">
			<data offset="1132" size="4" shape="1,1,1,1" element_type="f32"/>
			<output>
				<port id="0" precision="FP32">
					<dim>1</dim>
					<dim>1</dim>
					<dim>1</dim>
					<dim>1</dim>
				</port>
			</output>
		</layer>
		<layer id="55" name="112731127756154" type="Const" version="opset1">
			<data offset="1136" size="4" shape="1,1,1,1" element_type="f32"/>
			<output>
				<port id="0" precision="FP32">
					<dim>1</dim>
					<dim>1</dim>
					<dim>1</dim>
					<dim>1</dim>
				</port>
			</output>
		</layer>
		<layer id="56" name="112741127856100" type="Const" version="opset1">
			<data offset="1140" size="4" shape="1,1,1,1" element_type="f32"/>
			<output>
				<port id="0" precision="FP32">
					<dim>1</dim>
					<dim>1</dim>
					<dim>1</dim>
					<dim>1</dim>
				</port>
			</output>
		</layer>
		<layer id="57" name="112751127956358" type="Const" version="opset1">
			<data offset="1136" size="4" shape="1,1,1,1" element_type="f32"/>
			<output>
				<port id="0" precision="FP32">
					<dim>1</dim>
					<dim>1</dim>
					<dim>1</dim>
					<dim>1</dim>
				</port>
			</output>
		</layer>
		<layer id="58" name="112761128059271" type="Const" version="opset1">
			<data offset="1140" size="4" shape="1,1,1,1" element_type="f32"/>
			<output>
				<port id="0" precision="FP32">
					<dim>1</dim>
					<dim>1</dim>
					<dim>1</dim>
					<dim>1</dim>
				</port>
			</output>
		</layer>
		<layer id="59" name="101531015756487" type="Const" version="opset1">
			<data offset="1144" size="128" shape="1,32,1,1" element_type="f32"/>
			<output>
				<port id="0" precision="FP32">
					<dim>1</dim>
					<dim>32</dim>
					<dim>1</dim>
					<dim>1</dim>
				</port>
			</output>
		</layer>
		<layer id="60" name="101541015858545" type="Const" version="opset1">
			<data offset="1272" size="128" shape="1,32,1,1" element_type="f32"/>
			<output>
				<port id="0" precision="FP32">
					<dim>1</dim>
					<dim>32</dim>
					<dim>1</dim>
					<dim>1</dim>
				</port>
			</output>
		</layer>
		<layer id="61" name="101551015953778" type="Const" version="opset1">
			<data offset="1144" size="128" shape="1,32,1,1" element_type="f32"/>
			<output>
				<port id="0" precision="FP32">
					<dim>1</dim>
					<dim>32</dim>
					<dim>1</dim>
					<dim>1</dim>
				</port>
			</output>
		</layer>
		<layer id="62" name="101561016057447" type="Const" version="opset1">
			<data offset="1272" size="128" shape="1,32,1,1" element_type="f32"/>
			<output>
				<port id="0" precision="FP32">
					<dim>1</dim>
					<dim>32</dim>
					<dim>1</dim>
					<dim>1</dim>
				</port>
			</output>
		</layer>
		<layer id="63" name="9833983754228" type="Const" version="opset1">
			<data offset="1400" size="4" shape="1,1,1,1" element_type="f32"/>
			<output>
				<port id="0" precision="FP32">
					<dim>1</dim>
					<dim>1</dim>
					<dim>1</dim>
					<dim>1</dim>
				</port>
			</output>
		</layer>
		<layer id="64" name="9834983857864" type="Const" version="opset1">
			<data offset="1404" size="4" shape="1,1,1,1" element_type="f32"/>
			<output>
				<port id="0" precision="FP32">
					<dim>1</dim>
					<dim>1</dim>
					<dim>1</dim>
					<dim>1</dim>
				</port>
			</output>
		</layer>
		<layer id="65" name="9835983956142" type="Const" version="opset1">
			<data offset="1400" size="4" shape="1,1,1,1" element_type="f32"/>
			<output>
				<port id="0" precision="FP32">
					<dim>1</dim>
					<dim>1</dim>
					<dim>1</dim>
					<dim>1</dim>
				</port>
			</output>
		</layer>
		<layer id="66" name="9836984053535" type="Const" version="opset1">
			<data offset="1404" size="4" shape="1,1,1,1" element_type="f32"/>
			<output>
				<port id="0" precision="FP32">
					<dim>1</dim>
					<dim>1</dim>
					<dim>1</dim>
					<dim>1</dim>
				</port>
			</output>
		</layer>
		<layer id="67" name="123431234752731" type="Const" version="opset1">
			<data offset="1408" size="4" shape="1,1,1,1" element_type="f32"/>
			<output>
				<port id="0" precision="FP32">
					<dim>1</dim>
					<dim>1</dim>
					<dim>1</dim>
					<dim>1</dim>
				</port>
			</output>
		</layer>
		<layer id="68" name="123441234858134" type="Const" version="opset1">
			<data offset="1412" size="4" shape="1,1,1,1" element_type="f32"/>
			<output>
				<port id="0" precision="FP32">
					<dim>1</dim>
					<dim>1</dim>
					<dim>1</dim>
					<dim>1</dim>
				</port>
			</output>
		</layer>
		<layer id="69" name="123451234958683" type="Const" version="opset1">
			<data offset="1408" size="4" shape="1,1,1,1" element_type="f32"/>
			<output>
				<port id="0" precision="FP32">
					<dim>1</dim>
					<dim>1</dim>
					<dim>1</dim>
					<dim>1</dim>
				</port>
			</output>
		</layer>
		<layer id="70" name="123461235056976" type="Const" version="opset1">
			<data offset="1412" size="4" shape="1,1,1,1" element_type="f32"/>
			<output>
				<port id="0" precision="FP32">
					<dim>1</dim>
					<dim>1</dim>
					<dim>1</dim>
					<dim>1</dim>
				</port>
			</output>
		</layer>
		<layer id="71" name="7213721758188" type="Const" version="opset1">
			<data offset="1416" size="4" shape="1,1,1,1" element_type="f32"/>
			<output>
				<port id="0" precision="FP32">
					<dim>1</dim>
					<dim>1</dim>
					<dim>1</dim>
					<dim>1</dim>
				</port>
			</output>
		</layer>
		<layer id="72" name="7214721856247" type="Const" version="opset1">
			<data offset="1420" size="4" shape="1,1,1,1" element_type="f32"/>
			<output>
				<port id="0" precision="FP32">
					<dim>1</dim>
					<dim>1</dim>
					<dim>1</dim>
					<dim>1</dim>
				</port>
			</output>
		</layer>
		<layer id="73" name="7215721956334" type="Const" version="opset1">
			<data offset="1416" size="4" shape="1,1,1,1" element_type="f32"/>
			<output>
				<port id="0" precision="FP32">
					<dim>1</dim>
					<dim>1</dim>
					<dim>1</dim>
					<dim>1</dim>
				</port>
			</output>
		</layer>
		<layer id="74" name="7216722054060" type="Const" version="opset1">
			<data offset="1420" size="4" shape="1,1,1,1" element_type="f32"/>
			<output>
				<port id="0" precision="FP32">
					<dim>1</dim>
					<dim>1</dim>
					<dim>1</dim>
					<dim>1</dim>
				</port>
			</output>
		</layer>
		<layer id="75" name="8853885757171" type="Const" version="opset1">
			<data offset="1424" size="128" shape="1,32,1,1" element_type="f32"/>
			<output>
				<port id="0" precision="FP32">
					<dim>1</dim>
					<dim>32</dim>
					<dim>1</dim>
					<dim>1</dim>
				</port>
			</output>
		</layer>
		<layer id="76" name="8854885853541" type="Const" version="opset1">
			<data offset="1552" size="128" shape="1,32,1,1" element_type="f32"/>
			<output>
				<port id="0" precision="FP32">
					<dim>1</dim>
					<dim>32</dim>
					<dim>1</dim>
					<dim>1</dim>
				</port>
			</output>
		</layer>
		<layer id="77" name="8855885956058" type="Const" version="opset1">
			<data offset="1424" size="128" shape="1,32,1,1" element_type="f32"/>
			<output>
				<port id="0" precision="FP32">
					<dim>1</dim>
					<dim>32</dim>
					<dim>1</dim>
					<dim>1</dim>
				</port>
			</output>
		</layer>
		<layer id="78" name="8856886057228" type="Const" version="opset1">
			<data offset="1552" size="128" shape="1,32,1,1" element_type="f32"/>
			<output>
				<port id="0" precision="FP32">
					<dim>1</dim>
					<dim>32</dim>
					<dim>1</dim>
					<dim>1</dim>
				</port>
			</output>
		</layer>
		<layer id="79" name="128931289758494" type="Const" version="opset1">
			<data offset="1680" size="4" shape="1,1,1,1" element_type="f32"/>
			<output>
				<port id="0" precision="FP32">
					<dim>1</dim>
					<dim>1</dim>
					<dim>1</dim>
					<dim>1</dim>
				</port>
			</output>
		</layer>
		<layer id="80" name="128941289856982" type="Const" version="opset1">
			<data offset="1684" size="4" shape="1,1,1,1" element_type="f32"/>
			<output>
				<port id="0" precision="FP32">
					<dim>1</dim>
					<dim>1</dim>
					<dim>1</dim>
					<dim>1</dim>
				</port>
			</output>
		</layer>
		<layer id="81" name="128951289952809" type="Const" version="opset1">
			<data offset="1680" size="4" shape="1,1,1,1" element_type="f32"/>
			<output>
				<port id="0" precision="FP32">
					<dim>1</dim>
					<dim>1</dim>
					<dim>1</dim>
					<dim>1</dim>
				</port>
			</output>
		</layer>
		<layer id="82" name="128961290053532" type="Const" version="opset1">
			<data offset="1684" size="4" shape="1,1,1,1" element_type="f32"/>
			<output>
				<port id="0" precision="FP32">
					<dim>1</dim>
					<dim>1</dim>
					<dim>1</dim>
					<dim>1</dim>
				</port>
			</output>
		</layer>
		<layer id="83" name="125731257753262" type="Const" version="opset1">
			<data offset="1688" size="4" shape="1,1,1,1" element_type="f32"/>
			<output>
				<port id="0" precision="FP32">
					<dim>1</dim>
					<dim>1</dim>
					<dim>1</dim>
					<dim>1</dim>
				</port>
			</output>
		</layer>
		<layer id="84" name="125741257858206" type="Const" version="opset1">
			<data offset="1692" size="4" shape="1,1,1,1" element_type="f32"/>
			<output>
				<port id="0" precision="FP32">
					<dim>1</dim>
					<dim>1</dim>
					<dim>1</dim>
					<dim>1</dim>
				</port>
			</output>
		</layer>
		<layer id="85" name="125751257957177" type="Const" version="opset1">
			<data offset="1688" size="4" shape="1,1,1,1" element_type="f32"/>
			<output>
				<port id="0" precision="FP32">
					<dim>1</dim>
					<dim>1</dim>
					<dim>1</dim>
					<dim>1</dim>
				</port>
			</output>
		</layer>
		<layer id="86" name="125761258058155" type="Const" version="opset1">
			<data offset="1692" size="4" shape="1,1,1,1" element_type="f32"/>
			<output>
				<port id="0" precision="FP32">
					<dim>1</dim>
					<dim>1</dim>
					<dim>1</dim>
					<dim>1</dim>
				</port>
			</output>
		</layer>
		<layer id="87" name="119431194757585" type="Const" version="opset1">
			<data offset="1696" size="4" shape="1,1,1,1" element_type="f32"/>
			<output>
				<port id="0" precision="FP32">
					<dim>1</dim>
					<dim>1</dim>
					<dim>1</dim>
					<dim>1</dim>
				</port>
			</output>
		</layer>
		<layer id="88" name="119441194858701" type="Const" version="opset1">
			<data offset="1700" size="4" shape="1,1,1,1" element_type="f32"/>
			<output>
				<port id="0" precision="FP32">
					<dim>1</dim>
					<dim>1</dim>
					<dim>1</dim>
					<dim>1</dim>
				</port>
			</output>
		</layer>
		<layer id="89" name="119451194958428" type="Const" version="opset1">
			<data offset="1696" size="4" shape="1,1,1,1" element_type="f32"/>
			<output>
				<port id="0" precision="FP32">
					<dim>1</dim>
					<dim>1</dim>
					<dim>1</dim>
					<dim>1</dim>
				</port>
			</output>
		</layer>
		<layer id="90" name="119461195052746" type="Const" version="opset1">
			<data offset="1700" size="4" shape="1,1,1,1" element_type="f32"/>
			<output>
				<port id="0" precision="FP32">
					<dim>1</dim>
					<dim>1</dim>
					<dim>1</dim>
					<dim>1</dim>
				</port>
			</output>
		</layer>
		<layer id="91" name="9293929755389" type="Const" version="opset1">
			<data offset="1704" size="128" shape="1,32,1,1" element_type="f32"/>
			<output>
				<port id="0" precision="FP32">
					<dim>1</dim>
					<dim>32</dim>
					<dim>1</dim>
					<dim>1</dim>
				</port>
			</output>
		</layer>
		<layer id="92" name="9294929858902" type="Const" version="opset1">
			<data offset="1832" size="128" shape="1,32,1,1" element_type="f32"/>
			<output>
				<port id="0" precision="FP32">
					<dim>1</dim>
					<dim>32</dim>
					<dim>1</dim>
					<dim>1</dim>
				</port>
			</output>
		</layer>
		<layer id="93" name="9295929954828" type="Const" version="opset1">
			<data offset="1704" size="128" shape="1,32,1,1" element_type="f32"/>
			<output>
				<port id="0" precision="FP32">
					<dim>1</dim>
					<dim>32</dim>
					<dim>1</dim>
					<dim>1</dim>
				</port>
			</output>
		</layer>
		<layer id="94" name="9296930052719" type="Const" version="opset1">
			<data offset="1832" size="128" shape="1,32,1,1" element_type="f32"/>
			<output>
				<port id="0" precision="FP32">
					<dim>1</dim>
					<dim>32</dim>
					<dim>1</dim>
					<dim>1</dim>
				</port>
			</output>
		</layer>
		<layer id="95" name="7623762757705" type="Const" version="opset1">
			<data offset="1960" size="4" shape="1,1,1,1" element_type="f32"/>
			<output>
				<port id="0" precision="FP32">
					<dim>1</dim>
					<dim>1</dim>
					<dim>1</dim>
					<dim>1</dim>
				</port>
			</output>
		</layer>
		<layer id="96" name="7624762855512" type="Const" version="opset1">
			<data offset="1964" size="4" shape="1,1,1,1" element_type="f32"/>
			<output>
				<port id="0" precision="FP32">
					<dim>1</dim>
					<dim>1</dim>
					<dim>1</dim>
					<dim>1</dim>
				</port>
			</output>
		</layer>
		<layer id="97" name="7625762952701" type="Const" version="opset1">
			<data offset="1960" size="4" shape="1,1,1,1" element_type="f32"/>
			<output>
				<port id="0" precision="FP32">
					<dim>1</dim>
					<dim>1</dim>
					<dim>1</dim>
					<dim>1</dim>
				</port>
			</output>
		</layer>
		<layer id="98" name="7626763058338" type="Const" version="opset1">
			<data offset="1964" size="4" shape="1,1,1,1" element_type="f32"/>
			<output>
				<port id="0" precision="FP32">
					<dim>1</dim>
					<dim>1</dim>
					<dim>1</dim>
					<dim>1</dim>
				</port>
			</output>
		</layer>
		<layer id="99" name="127131271757231" type="Const" version="opset1">
			<data offset="1968" size="4" shape="1,1,1,1" element_type="f32"/>
			<output>
				<port id="0" precision="FP32">
					<dim>1</dim>
					<dim>1</dim>
					<dim>1</dim>
					<dim>1</dim>
				</port>
			</output>
		</layer>
		<layer id="100" name="127141271856736" type="Const" version="opset1">
			<data offset="1972" size="4" shape="1,1,1,1" element_type="f32"/>
			<output>
				<port id="0" precision="FP32">
					<dim>1</dim>
					<dim>1</dim>
					<dim>1</dim>
					<dim>1</dim>
				</port>
			</output>
		</layer>
		<layer id="101" name="127151271954210" type="Const" version="opset1">
			<data offset="1968" size="4" shape="1,1,1,1" element_type="f32"/>
			<output>
				<port id="0" precision="FP32">
					<dim>1</dim>
					<dim>1</dim>
					<dim>1</dim>
					<dim>1</dim>
				</port>
			</output>
		</layer>
		<layer id="102" name="127161272057669" type="Const" version="opset1">
			<data offset="1972" size="4" shape="1,1,1,1" element_type="f32"/>
			<output>
				<port id="0" precision="FP32">
					<dim>1</dim>
					<dim>1</dim>
					<dim>1</dim>
					<dim>1</dim>
				</port>
			</output>
		</layer>
		<layer id="103" name="115231152755092" type="Const" version="opset1">
			<data offset="1976" size="4" shape="1,1,1,1" element_type="f32"/>
			<output>
				<port id="0" precision="FP32">
					<dim>1</dim>
					<dim>1</dim>
					<dim>1</dim>
					<dim>1</dim>
				</port>
			</output>
		</layer>
		<layer id="104" name="115241152853184" type="Const" version="opset1">
			<data offset="1980" size="4" shape="1,1,1,1" element_type="f32"/>
			<output>
				<port id="0" precision="FP32">
					<dim>1</dim>
					<dim>1</dim>
					<dim>1</dim>
					<dim>1</dim>
				</port>
			</output>
		</layer>
		<layer id="105" name="115251152954084" type="Const" version="opset1">
			<data offset="1976" size="4" shape="1,1,1,1" element_type="f32"/>
			<output>
				<port id="0" precision="FP32">
					<dim>1</dim>
					<dim>1</dim>
					<dim>1</dim>
					<dim>1</dim>
				</port>
			</output>
		</layer>
		<layer id="106" name="115261153057030" type="Const" version="opset1">
			<data offset="1980" size="4" shape="1,1,1,1" element_type="f32"/>
			<output>
				<port id="0" precision="FP32">
					<dim>1</dim>
					<dim>1</dim>
					<dim>1</dim>
					<dim>1</dim>
				</port>
			</output>
		</layer>
		<layer id="107" name="8833883755773" type="Const" version="opset1">
			<data offset="1984" size="4" shape="1,1,1,1" element_type="f32"/>
			<output>
				<port id="0" precision="FP32">
					<dim>1</dim>
					<dim>1</dim>
					<dim>1</dim>
					<dim>1</dim>
				</port>
			</output>
		</layer>
		<layer id="108" name="8834883855143" type="Const" version="opset1">
			<data offset="1988" size="4" shape="1,1,1,1" element_type="f32"/>
			<output>
				<port id="0" precision="FP32">
					<dim>1</dim>
					<dim>1</dim>
					<dim>1</dim>
					<dim>1</dim>
				</port>
			</output>
		</layer>
		<layer id="109" name="8835883958470" type="Const" version="opset1">
			<data offset="1984" size="4" shape="1,1,1,1" element_type="f32"/>
			<output>
				<port id="0" precision="FP32">
					<dim>1</dim>
					<dim>1</dim>
					<dim>1</dim>
					<dim>1</dim>
				</port>
			</output>
		</layer>
		<layer id="110" name="8836884057330" type="Const" version="opset1">
			<data offset="1988" size="4" shape="1,1,1,1" element_type="f32"/>
			<output>
				<port id="0" precision="FP32">
					<dim>1</dim>
					<dim>1</dim>
					<dim>1</dim>
					<dim>1</dim>
				</port>
			</output>
		</layer>
		<layer id="111" name="120831208752839" type="Const" version="opset1">
			<data offset="1992" size="4" shape="1,1,1,1" element_type="f32"/>
			<output>
				<port id="0" precision="FP32">
					<dim>1</dim>
					<dim>1</dim>
					<dim>1</dim>
					<dim>1</dim>
				</port>
			</output>
		</layer>
		<layer id="112" name="120841208856079" type="Const" version="opset1">
			<data offset="1996" size="4" shape="1,1,1,1" element_type="f32"/>
			<output>
				<port id="0" precision="FP32">
					<dim>1</dim>
					<dim>1</dim>
					<dim>1</dim>
					<dim>1</dim>
				</port>
			</output>
		</layer>
		<layer id="113" name="120851208956460" type="Const" version="opset1">
			<data offset="1992" size="4" shape="1,1,1,1" element_type="f32"/>
			<output>
				<port id="0" precision="FP32">
					<dim>1</dim>
					<dim>1</dim>
					<dim>1</dim>
					<dim>1</dim>
				</port>
			</output>
		</layer>
		<layer id="114" name="120861209056067" type="Const" version="opset1">
			<data offset="1996" size="4" shape="1,1,1,1" element_type="f32"/>
			<output>
				<port id="0" precision="FP32">
					<dim>1</dim>
					<dim>1</dim>
					<dim>1</dim>
					<dim>1</dim>
				</port>
			</output>
		</layer>
		<layer id="115" name="132331323752623" type="Const" version="opset1">
			<data offset="2000" size="128" shape="1,32,1,1" element_type="f32"/>
			<output>
				<port id="0" precision="FP32">
					<dim>1</dim>
					<dim>32</dim>
					<dim>1</dim>
					<dim>1</dim>
				</port>
			</output>
		</layer>
		<layer id="116" name="132341323856673" type="Const" version="opset1">
			<data offset="2128" size="128" shape="1,32,1,1" element_type="f32"/>
			<output>
				<port id="0" precision="FP32">
					<dim>1</dim>
					<dim>32</dim>
					<dim>1</dim>
					<dim>1</dim>
				</port>
			</output>
		</layer>
		<layer id="117" name="132351323957846" type="Const" version="opset1">
			<data offset="2000" size="128" shape="1,32,1,1" element_type="f32"/>
			<output>
				<port id="0" precision="FP32">
					<dim>1</dim>
					<dim>32</dim>
					<dim>1</dim>
					<dim>1</dim>
				</port>
			</output>
		</layer>
		<layer id="118" name="132361324056727" type="Const" version="opset1">
			<data offset="2128" size="128" shape="1,32,1,1" element_type="f32"/>
			<output>
				<port id="0" precision="FP32">
					<dim>1</dim>
					<dim>32</dim>
					<dim>1</dim>
					<dim>1</dim>
				</port>
			</output>
		</layer>
		<layer id="119" name="112131121756814" type="Const" version="opset1">
			<data offset="2256" size="4" shape="1,1,1,1" element_type="f32"/>
			<output>
				<port id="0" precision="FP32">
					<dim>1</dim>
					<dim>1</dim>
					<dim>1</dim>
					<dim>1</dim>
				</port>
			</output>
		</layer>
		<layer id="120" name="112141121852854" type="Const" version="opset1">
			<data offset="2260" size="4" shape="1,1,1,1" element_type="f32"/>
			<output>
				<port id="0" precision="FP32">
					<dim>1</dim>
					<dim>1</dim>
					<dim>1</dim>
					<dim>1</dim>
				</port>
			</output>
		</layer>
		<layer id="121" name="112151121958878" type="Const" version="opset1">
			<data offset="2256" size="4" shape="1,1,1,1" element_type="f32"/>
			<output>
				<port id="0" precision="FP32">
					<dim>1</dim>
					<dim>1</dim>
					<dim>1</dim>
					<dim>1</dim>
				</port>
			</output>
		</layer>
		<layer id="122" name="112161122055908" type="Const" version="opset1">
			<data offset="2260" size="4" shape="1,1,1,1" element_type="f32"/>
			<output>
				<port id="0" precision="FP32">
					<dim>1</dim>
					<dim>1</dim>
					<dim>1</dim>
					<dim>1</dim>
				</port>
			</output>
		</layer>
		<layer id="123" name="9703970757093" type="Const" version="opset1">
			<data offset="2264" size="4" shape="1,1,1,1" element_type="f32"/>
			<output>
				<port id="0" precision="FP32">
					<dim>1</dim>
					<dim>1</dim>
					<dim>1</dim>
					<dim>1</dim>
				</port>
			</output>
		</layer>
		<layer id="124" name="9704970853592" type="Const" version="opset1">
			<data offset="2268" size="4" shape="1,1,1,1" element_type="f32"/>
			<output>
				<port id="0" precision="FP32">
					<dim>1</dim>
					<dim>1</dim>
					<dim>1</dim>
					<dim>1</dim>
				</port>
			</output>
		</layer>
		<layer id="125" name="9705970954990" type="Const" version="opset1">
			<data offset="2264" size="4" shape="1,1,1,1" element_type="f32"/>
			<output>
				<port id="0" precision="FP32">
					<dim>1</dim>
					<dim>1</dim>
					<dim>1</dim>
					<dim>1</dim>
				</port>
			</output>
		</layer>
		<layer id="126" name="9706971057456" type="Const" version="opset1">
			<data offset="2268" size="4" shape="1,1,1,1" element_type="f32"/>
			<output>
				<port id="0" precision="FP32">
					<dim>1</dim>
					<dim>1</dim>
					<dim>1</dim>
					<dim>1</dim>
				</port>
			</output>
		</layer>
		<layer id="127" name="128131281755173" type="Const" version="opset1">
			<data offset="2272" size="4" shape="1,1,1,1" element_type="f32"/>
			<output>
				<port id="0" precision="FP32">
					<dim>1</dim>
					<dim>1</dim>
					<dim>1</dim>
					<dim>1</dim>
				</port>
			</output>
		</layer>
		<layer id="128" name="128141281858530" type="Const" version="opset1">
			<data offset="2276" size="4" shape="1,1,1,1" element_type="f32"/>
			<output>
				<port id="0" precision="FP32">
					<dim>1</dim>
					<dim>1</dim>
					<dim>1</dim>
					<dim>1</dim>
				</port>
			</output>
		</layer>
		<layer id="129" name="128151281955008" type="Const" version="opset1">
			<data offset="2272" size="4" shape="1,1,1,1" element_type="f32"/>
			<output>
				<port id="0" precision="FP32">
					<dim>1</dim>
					<dim>1</dim>
					<dim>1</dim>
					<dim>1</dim>
				</port>
			</output>
		</layer>
		<layer id="130" name="128161282055035" type="Const" version="opset1">
			<data offset="2276" size="4" shape="1,1,1,1" element_type="f32"/>
			<output>
				<port id="0" precision="FP32">
					<dim>1</dim>
					<dim>1</dim>
					<dim>1</dim>
					<dim>1</dim>
				</port>
			</output>
		</layer>
		<layer id="131" name="9753975757285" type="Const" version="opset1">
			<data offset="2280" size="128" shape="1,32,1,1" element_type="f32"/>
			<output>
				<port id="0" precision="FP32">
					<dim>1</dim>
					<dim>32</dim>
					<dim>1</dim>
					<dim>1</dim>
				</port>
			</output>
		</layer>
		<layer id="132" name="9754975855206" type="Const" version="opset1">
			<data offset="2408" size="128" shape="1,32,1,1" element_type="f32"/>
			<output>
				<port id="0" precision="FP32">
					<dim>1</dim>
					<dim>32</dim>
					<dim>1</dim>
					<dim>1</dim>
				</port>
			</output>
		</layer>
		<layer id="133" name="9755975955782" type="Const" version="opset1">
			<data offset="2280" size="128" shape="1,32,1,1" element_type="f32"/>
			<output>
				<port id="0" precision="FP32">
					<dim>1</dim>
					<dim>32</dim>
					<dim>1</dim>
					<dim>1</dim>
				</port>
			</output>
		</layer>
		<layer id="134" name="9756976054546" type="Const" version="opset1">
			<data offset="2408" size="128" shape="1,32,1,1" element_type="f32"/>
			<output>
				<port id="0" precision="FP32">
					<dim>1</dim>
					<dim>32</dim>
					<dim>1</dim>
					<dim>1</dim>
				</port>
			</output>
		</layer>
		<layer id="135" name="133931339758347" type="Const" version="opset1">
			<data offset="2536" size="4" shape="1,1,1,1" element_type="f32"/>
			<output>
				<port id="0" precision="FP32">
					<dim>1</dim>
					<dim>1</dim>
					<dim>1</dim>
					<dim>1</dim>
				</port>
			</output>
		</layer>
		<layer id="136" name="133941339859139" type="Const" version="opset1">
			<data offset="2540" size="4" shape="1,1,1,1" element_type="f32"/>
			<output>
				<port id="0" precision="FP32">
					<dim>1</dim>
					<dim>1</dim>
					<dim>1</dim>
					<dim>1</dim>
				</port>
			</output>
		</layer>
		<layer id="137" name="133951339954744" type="Const" version="opset1">
			<data offset="2536" size="4" shape="1,1,1,1" element_type="f32"/>
			<output>
				<port id="0" precision="FP32">
					<dim>1</dim>
					<dim>1</dim>
					<dim>1</dim>
					<dim>1</dim>
				</port>
			</output>
		</layer>
		<layer id="138" name="133961340056631" type="Const" version="opset1">
			<data offset="2540" size="4" shape="1,1,1,1" element_type="f32"/>
			<output>
				<port id="0" precision="FP32">
					<dim>1</dim>
					<dim>1</dim>
					<dim>1</dim>
					<dim>1</dim>
				</port>
			</output>
		</layer>
		<layer id="139" name="8993899757318" type="Const" version="opset1">
			<data offset="2544" size="4" shape="1,1,1,1" element_type="f32"/>
			<output>
				<port id="0" precision="FP32">
					<dim>1</dim>
					<dim>1</dim>
					<dim>1</dim>
					<dim>1</dim>
				</port>
			</output>
		</layer>
		<layer id="140" name="8994899856406" type="Const" version="opset1">
			<data offset="2548" size="4" shape="1,1,1,1" element_type="f32"/>
			<output>
				<port id="0" precision="FP32">
					<dim>1</dim>
					<dim>1</dim>
					<dim>1</dim>
					<dim>1</dim>
				</port>
			</output>
		</layer>
		<layer id="141" name="8995899953967" type="Const" version="opset1">
			<data offset="2544" size="4" shape="1,1,1,1" element_type="f32"/>
			<output>
				<port id="0" precision="FP32">
					<dim>1</dim>
					<dim>1</dim>
					<dim>1</dim>
					<dim>1</dim>
				</port>
			</output>
		</layer>
		<layer id="142" name="8996900058041" type="Const" version="opset1">
			<data offset="2548" size="4" shape="1,1,1,1" element_type="f32"/>
			<output>
				<port id="0" precision="FP32">
					<dim>1</dim>
					<dim>1</dim>
					<dim>1</dim>
					<dim>1</dim>
				</port>
			</output>
		</layer>
		<layer id="143" name="9153915753412" type="Const" version="opset1">
			<data offset="2552" size="4" shape="1,1,1,1" element_type="f32"/>
			<output>
				<port id="0" precision="FP32">
					<dim>1</dim>
					<dim>1</dim>
					<dim>1</dim>
					<dim>1</dim>
				</port>
			</output>
		</layer>
		<layer id="144" name="9154915859217" type="Const" version="opset1">
			<data offset="2556" size="4" shape="1,1,1,1" element_type="f32"/>
			<output>
				<port id="0" precision="FP32">
					<dim>1</dim>
					<dim>1</dim>
					<dim>1</dim>
					<dim>1</dim>
				</port>
			</output>
		</layer>
		<layer id="145" name="9155915958374" type="Const" version="opset1">
			<data offset="2552" size="4" shape="1,1,1,1" element_type="f32"/>
			<output>
				<port id="0" precision="FP32">
					<dim>1</dim>
					<dim>1</dim>
					<dim>1</dim>
					<dim>1</dim>
				</port>
			</output>
		</layer>
		<layer id="146" name="9156916057054" type="Const" version="opset1">
			<data offset="2556" size="4" shape="1,1,1,1" element_type="f32"/>
			<output>
				<port id="0" precision="FP32">
					<dim>1</dim>
					<dim>1</dim>
					<dim>1</dim>
					<dim>1</dim>
				</port>
			</output>
		</layer>
		<layer id="147" name="132131321752848" type="Const" version="opset1">
			<data offset="2560" size="128" shape="1,32,1,1" element_type="f32"/>
			<output>
				<port id="0" precision="FP32">
					<dim>1</dim>
					<dim>32</dim>
					<dim>1</dim>
					<dim>1</dim>
				</port>
			</output>
		</layer>
		<layer id="148" name="132141321854219" type="Const" version="opset1">
			<data offset="2688" size="128" shape="1,32,1,1" element_type="f32"/>
			<output>
				<port id="0" precision="FP32">
					<dim>1</dim>
					<dim>32</dim>
					<dim>1</dim>
					<dim>1</dim>
				</port>
			</output>
		</layer>
		<layer id="149" name="132151321959169" type="Const" version="opset1">
			<data offset="2560" size="128" shape="1,32,1,1" element_type="f32"/>
			<output>
				<port id="0" precision="FP32">
					<dim>1</dim>
					<dim>32</dim>
					<dim>1</dim>
					<dim>1</dim>
				</port>
			</output>
		</layer>
		<layer id="150" name="132161322052788" type="Const" version="opset1">
			<data offset="2688" size="128" shape="1,32,1,1" element_type="f32"/>
			<output>
				<port id="0" precision="FP32">
					<dim>1</dim>
					<dim>32</dim>
					<dim>1</dim>
					<dim>1</dim>
				</port>
			</output>
		</layer>
		<layer id="151" name="116831168756559" type="Const" version="opset1">
			<data offset="2816" size="4" shape="1,1,1,1" element_type="f32"/>
			<output>
				<port id="0" precision="FP32">
					<dim>1</dim>
					<dim>1</dim>
					<dim>1</dim>
					<dim>1</dim>
				</port>
			</output>
		</layer>
		<layer id="152" name="116841168854918" type="Const" version="opset1">
			<data offset="2820" size="4" shape="1,1,1,1" element_type="f32"/>
			<output>
				<port id="0" precision="FP32">
					<dim>1</dim>
					<dim>1</dim>
					<dim>1</dim>
					<dim>1</dim>
				</port>
			</output>
		</layer>
		<layer id="153" name="116851168956409" type="Const" version="opset1">
			<data offset="2816" size="4" shape="1,1,1,1" element_type="f32"/>
			<output>
				<port id="0" precision="FP32">
					<dim>1</dim>
					<dim>1</dim>
					<dim>1</dim>
					<dim>1</dim>
				</port>
			</output>
		</layer>
		<layer id="154" name="116861169055713" type="Const" version="opset1">
			<data offset="2820" size="4" shape="1,1,1,1" element_type="f32"/>
			<output>
				<port id="0" precision="FP32">
					<dim>1</dim>
					<dim>1</dim>
					<dim>1</dim>
					<dim>1</dim>
				</port>
			</output>
		</layer>
		<layer id="155" name="8043804753772" type="Const" version="opset1">
			<data offset="2824" size="4" shape="1,1,1,1" element_type="f32"/>
			<output>
				<port id="0" precision="FP32">
					<dim>1</dim>
					<dim>1</dim>
					<dim>1</dim>
					<dim>1</dim>
				</port>
			</output>
		</layer>
		<layer id="156" name="8044804856076" type="Const" version="opset1">
			<data offset="2828" size="4" shape="1,1,1,1" element_type="f32"/>
			<output>
				<port id="0" precision="FP32">
					<dim>1</dim>
					<dim>1</dim>
					<dim>1</dim>
					<dim>1</dim>
				</port>
			</output>
		</layer>
		<layer id="157" name="8045804953415" type="Const" version="opset1">
			<data offset="2824" size="4" shape="1,1,1,1" element_type="f32"/>
			<output>
				<port id="0" precision="FP32">
					<dim>1</dim>
					<dim>1</dim>
					<dim>1</dim>
					<dim>1</dim>
				</port>
			</output>
		</layer>
		<layer id="158" name="8046805056967" type="Const" version="opset1">
			<data offset="2828" size="4" shape="1,1,1,1" element_type="f32"/>
			<output>
				<port id="0" precision="FP32">
					<dim>1</dim>
					<dim>1</dim>
					<dim>1</dim>
					<dim>1</dim>
				</port>
			</output>
		</layer>
		<layer id="159" name="7153715753565" type="Const" version="opset1">
			<data offset="2832" size="4" shape="1,1,1,1" element_type="f32"/>
			<output>
				<port id="0" precision="FP32">
					<dim>1</dim>
					<dim>1</dim>
					<dim>1</dim>
					<dim>1</dim>
				</port>
			</output>
		</layer>
		<layer id="160" name="7154715852797" type="Const" version="opset1">
			<data offset="2836" size="4" shape="1,1,1,1" element_type="f32"/>
			<output>
				<port id="0" precision="FP32">
					<dim>1</dim>
					<dim>1</dim>
					<dim>1</dim>
					<dim>1</dim>
				</port>
			</output>
		</layer>
		<layer id="161" name="7155715956202" type="Const" version="opset1">
			<data offset="2832" size="4" shape="1,1,1,1" element_type="f32"/>
			<output>
				<port id="0" precision="FP32">
					<dim>1</dim>
					<dim>1</dim>
					<dim>1</dim>
					<dim>1</dim>
				</port>
			</output>
		</layer>
		<layer id="162" name="7156716058920" type="Const" version="opset1">
			<data offset="2836" size="4" shape="1,1,1,1" element_type="f32"/>
			<output>
				<port id="0" precision="FP32">
					<dim>1</dim>
					<dim>1</dim>
					<dim>1</dim>
					<dim>1</dim>
				</port>
			</output>
		</layer>
		<layer id="163" name="9033903756148" type="Const" version="opset1">
			<data offset="2840" size="128" shape="1,32,1,1" element_type="f32"/>
			<output>
				<port id="0" precision="FP32">
					<dim>1</dim>
					<dim>32</dim>
					<dim>1</dim>
					<dim>1</dim>
				</port>
			</output>
		</layer>
		<layer id="164" name="9034903852947" type="Const" version="opset1">
			<data offset="2968" size="128" shape="1,32,1,1" element_type="f32"/>
			<output>
				<port id="0" precision="FP32">
					<dim>1</dim>
					<dim>32</dim>
					<dim>1</dim>
					<dim>1</dim>
				</port>
			</output>
		</layer>
		<layer id="165" name="9035903955278" type="Const" version="opset1">
			<data offset="2840" size="128" shape="1,32,1,1" element_type="f32"/>
			<output>
				<port id="0" precision="FP32">
					<dim>1</dim>
					<dim>32</dim>
					<dim>1</dim>
					<dim>1</dim>
				</port>
			</output>
		</layer>
		<layer id="166" name="9036904053013" type="Const" version="opset1">
			<data offset="2968" size="128" shape="1,32,1,1" element_type="f32"/>
			<output>
				<port id="0" precision="FP32">
					<dim>1</dim>
					<dim>32</dim>
					<dim>1</dim>
					<dim>1</dim>
				</port>
			</output>
		</layer>
		<layer id="167" name="9233923755107" type="Const" version="opset1">
			<data offset="3096" size="4" shape="1,1,1,1" element_type="f32"/>
			<output>
				<port id="0" precision="FP32">
					<dim>1</dim>
					<dim>1</dim>
					<dim>1</dim>
					<dim>1</dim>
				</port>
			</output>
		</layer>
		<layer id="168" name="9234923853409" type="Const" version="opset1">
			<data offset="3100" size="4" shape="1,1,1,1" element_type="f32"/>
			<output>
				<port id="0" precision="FP32">
					<dim>1</dim>
					<dim>1</dim>
					<dim>1</dim>
					<dim>1</dim>
				</port>
			</output>
		</layer>
		<layer id="169" name="9235923953553" type="Const" version="opset1">
			<data offset="3096" size="4" shape="1,1,1,1" element_type="f32"/>
			<output>
				<port id="0" precision="FP32">
					<dim>1</dim>
					<dim>1</dim>
					<dim>1</dim>
					<dim>1</dim>
				</port>
			</output>
		</layer>
		<layer id="170" name="9236924058614" type="Const" version="opset1">
			<data offset="3100" size="4" shape="1,1,1,1" element_type="f32"/>
			<output>
				<port id="0" precision="FP32">
					<dim>1</dim>
					<dim>1</dim>
					<dim>1</dim>
					<dim>1</dim>
				</port>
			</output>
		</layer>
		<layer id="171" name="113131131758203" type="Const" version="opset1">
			<data offset="3104" size="4" shape="1,1,1,1" element_type="f32"/>
			<output>
				<port id="0" precision="FP32">
					<dim>1</dim>
					<dim>1</dim>
					<dim>1</dim>
					<dim>1</dim>
				</port>
			</output>
		</layer>
		<layer id="172" name="113141131859298" type="Const" version="opset1">
			<data offset="3108" size="4" shape="1,1,1,1" element_type="f32"/>
			<output>
				<port id="0" precision="FP32">
					<dim>1</dim>
					<dim>1</dim>
					<dim>1</dim>
					<dim>1</dim>
				</port>
			</output>
		</layer>
		<layer id="173" name="113151131955203" type="Const" version="opset1">
			<data offset="3104" size="4" shape="1,1,1,1" element_type="f32"/>
			<output>
				<port id="0" precision="FP32">
					<dim>1</dim>
					<dim>1</dim>
					<dim>1</dim>
					<dim>1</dim>
				</port>
			</output>
		</layer>
		<layer id="174" name="113161132058821" type="Const" version="opset1">
			<data offset="3108" size="4" shape="1,1,1,1" element_type="f32"/>
			<output>
				<port id="0" precision="FP32">
					<dim>1</dim>
					<dim>1</dim>
					<dim>1</dim>
					<dim>1</dim>
				</port>
			</output>
		</layer>
		<layer id="175" name="8223822755656" type="Const" version="opset1">
			<data offset="3112" size="4" shape="1,1,1,1" element_type="f32"/>
			<output>
				<port id="0" precision="FP32">
					<dim>1</dim>
					<dim>1</dim>
					<dim>1</dim>
					<dim>1</dim>
				</port>
			</output>
		</layer>
		<layer id="176" name="8224822853325" type="Const" version="opset1">
			<data offset="3116" size="4" shape="1,1,1,1" element_type="f32"/>
			<output>
				<port id="0" precision="FP32">
					<dim>1</dim>
					<dim>1</dim>
					<dim>1</dim>
					<dim>1</dim>
				</port>
			</output>
		</layer>
		<layer id="177" name="8225822958974" type="Const" version="opset1">
			<data offset="3112" size="4" shape="1,1,1,1" element_type="f32"/>
			<output>
				<port id="0" precision="FP32">
					<dim>1</dim>
					<dim>1</dim>
					<dim>1</dim>
					<dim>1</dim>
				</port>
			</output>
		</layer>
		<layer id="178" name="8226823055176" type="Const" version="opset1">
			<data offset="3116" size="4" shape="1,1,1,1" element_type="f32"/>
			<output>
				<port id="0" precision="FP32">
					<dim>1</dim>
					<dim>1</dim>
					<dim>1</dim>
					<dim>1</dim>
				</port>
			</output>
		</layer>
		<layer id="179" name="128731287753439" type="Const" version="opset1">
			<data offset="3120" size="4" shape="1,1,1,1" element_type="f32"/>
			<output>
				<port id="0" precision="FP32">
					<dim>1</dim>
					<dim>1</dim>
					<dim>1</dim>
					<dim>1</dim>
				</port>
			</output>
		</layer>
		<layer id="180" name="128741287854099" type="Const" version="opset1">
			<data offset="3124" size="4" shape="1,1,1,1" element_type="f32"/>
			<output>
				<port id="0" precision="FP32">
					<dim>1</dim>
					<dim>1</dim>
					<dim>1</dim>
					<dim>1</dim>
				</port>
			</output>
		</layer>
		<layer id="181" name="128751287955605" type="Const" version="opset1">
			<data offset="3120" size="4" shape="1,1,1,1" element_type="f32"/>
			<output>
				<port id="0" precision="FP32">
					<dim>1</dim>
					<dim>1</dim>
					<dim>1</dim>
					<dim>1</dim>
				</port>
			</output>
		</layer>
		<layer id="182" name="128761288053496" type="Const" version="opset1">
			<data offset="3124" size="4" shape="1,1,1,1" element_type="f32"/>
			<output>
				<port id="0" precision="FP32">
					<dim>1</dim>
					<dim>1</dim>
					<dim>1</dim>
					<dim>1</dim>
				</port>
			</output>
		</layer>
		<layer id="183" name="129331293755791" type="Const" version="opset1">
			<data offset="3128" size="4" shape="1,1,1,1" element_type="f32"/>
			<output>
				<port id="0" precision="FP32">
					<dim>1</dim>
					<dim>1</dim>
					<dim>1</dim>
					<dim>1</dim>
				</port>
			</output>
		</layer>
		<layer id="184" name="129341293856742" type="Const" version="opset1">
			<data offset="3132" size="4" shape="1,1,1,1" element_type="f32"/>
			<output>
				<port id="0" precision="FP32">
					<dim>1</dim>
					<dim>1</dim>
					<dim>1</dim>
					<dim>1</dim>
				</port>
			</output>
		</layer>
		<layer id="185" name="129351293955728" type="Const" version="opset1">
			<data offset="3128" size="4" shape="1,1,1,1" element_type="f32"/>
			<output>
				<port id="0" precision="FP32">
					<dim>1</dim>
					<dim>1</dim>
					<dim>1</dim>
					<dim>1</dim>
				</port>
			</output>
		</layer>
		<layer id="186" name="129361294055560" type="Const" version="opset1">
			<data offset="3132" size="4" shape="1,1,1,1" element_type="f32"/>
			<output>
				<port id="0" precision="FP32">
					<dim>1</dim>
					<dim>1</dim>
					<dim>1</dim>
					<dim>1</dim>
				</port>
			</output>
		</layer>
		<layer id="187" name="7703770759088" type="Const" version="opset1">
			<data offset="3136" size="128" shape="1,32,1,1" element_type="f32"/>
			<output>
				<port id="0" precision="FP32">
					<dim>1</dim>
					<dim>32</dim>
					<dim>1</dim>
					<dim>1</dim>
				</port>
			</output>
		</layer>
		<layer id="188" name="7704770856301" type="Const" version="opset1">
			<data offset="3264" size="128" shape="1,32,1,1" element_type="f32"/>
			<output>
				<port id="0" precision="FP32">
					<dim>1</dim>
					<dim>32</dim>
					<dim>1</dim>
					<dim>1</dim>
				</port>
			</output>
		</layer>
		<layer id="189" name="7705770953529" type="Const" version="opset1">
			<data offset="3136" size="128" shape="1,32,1,1" element_type="f32"/>
			<output>
				<port id="0" precision="FP32">
					<dim>1</dim>
					<dim>32</dim>
					<dim>1</dim>
					<dim>1</dim>
				</port>
			</output>
		</layer>
		<layer id="190" name="7706771056859" type="Const" version="opset1">
			<data offset="3264" size="128" shape="1,32,1,1" element_type="f32"/>
			<output>
				<port id="0" precision="FP32">
					<dim>1</dim>
					<dim>32</dim>
					<dim>1</dim>
					<dim>1</dim>
				</port>
			</output>
		</layer>
		<layer id="191" name="133731337755662" type="Const" version="opset1">
			<data offset="3392" size="4" shape="1,1,1,1" element_type="f32"/>
			<output>
				<port id="0" precision="FP32">
					<dim>1</dim>
					<dim>1</dim>
					<dim>1</dim>
					<dim>1</dim>
				</port>
			</output>
		</layer>
		<layer id="192" name="133741337856028" type="Const" version="opset1">
			<data offset="3396" size="4" shape="1,1,1,1" element_type="f32"/>
			<output>
				<port id="0" precision="FP32">
					<dim>1</dim>
					<dim>1</dim>
					<dim>1</dim>
					<dim>1</dim>
				</port>
			</output>
		</layer>
		<layer id="193" name="133751337956070" type="Const" version="opset1">
			<data offset="3392" size="4" shape="1,1,1,1" element_type="f32"/>
			<output>
				<port id="0" precision="FP32">
					<dim>1</dim>
					<dim>1</dim>
					<dim>1</dim>
					<dim>1</dim>
				</port>
			</output>
		</layer>
		<layer id="194" name="133761338056598" type="Const" version="opset1">
			<data offset="3396" size="4" shape="1,1,1,1" element_type="f32"/>
			<output>
				<port id="0" precision="FP32">
					<dim>1</dim>
					<dim>1</dim>
					<dim>1</dim>
					<dim>1</dim>
				</port>
			</output>
		</layer>
		<layer id="195" name="8913891755002" type="Const" version="opset1">
			<data offset="3400" size="4" shape="1,1,1,1" element_type="f32"/>
			<output>
				<port id="0" precision="FP32">
					<dim>1</dim>
					<dim>1</dim>
					<dim>1</dim>
					<dim>1</dim>
				</port>
			</output>
		</layer>
		<layer id="196" name="8914891855308" type="Const" version="opset1">
			<data offset="3404" size="4" shape="1,1,1,1" element_type="f32"/>
			<output>
				<port id="0" precision="FP32">
					<dim>1</dim>
					<dim>1</dim>
					<dim>1</dim>
					<dim>1</dim>
				</port>
			</output>
		</layer>
		<layer id="197" name="8915891952749" type="Const" version="opset1">
			<data offset="3400" size="4" shape="1,1,1,1" element_type="f32"/>
			<output>
				<port id="0" precision="FP32">
					<dim>1</dim>
					<dim>1</dim>
					<dim>1</dim>
					<dim>1</dim>
				</port>
			</output>
		</layer>
		<layer id="198" name="8916892053316" type="Const" version="opset1">
			<data offset="3404" size="4" shape="1,1,1,1" element_type="f32"/>
			<output>
				<port id="0" precision="FP32">
					<dim>1</dim>
					<dim>1</dim>
					<dim>1</dim>
					<dim>1</dim>
				</port>
			</output>
		</layer>
		<layer id="199" name="112531125758215" type="Const" version="opset1">
			<data offset="3408" size="4" shape="1,1,1,1" element_type="f32"/>
			<output>
				<port id="0" precision="FP32">
					<dim>1</dim>
					<dim>1</dim>
					<dim>1</dim>
					<dim>1</dim>
				</port>
			</output>
		</layer>
		<layer id="200" name="112541125857933" type="Const" version="opset1">
			<data offset="3412" size="4" shape="1,1,1,1" element_type="f32"/>
			<output>
				<port id="0" precision="FP32">
					<dim>1</dim>
					<dim>1</dim>
					<dim>1</dim>
					<dim>1</dim>
				</port>
			</output>
		</layer>
		<layer id="201" name="112551125953601" type="Const" version="opset1">
			<data offset="3408" size="4" shape="1,1,1,1" element_type="f32"/>
			<output>
				<port id="0" precision="FP32">
					<dim>1</dim>
					<dim>1</dim>
					<dim>1</dim>
					<dim>1</dim>
				</port>
			</output>
		</layer>
		<layer id="202" name="112561126055647" type="Const" version="opset1">
			<data offset="3412" size="4" shape="1,1,1,1" element_type="f32"/>
			<output>
				<port id="0" precision="FP32">
					<dim>1</dim>
					<dim>1</dim>
					<dim>1</dim>
					<dim>1</dim>
				</port>
			</output>
		</layer>
		<layer id="203" name="116031160759025" type="Const" version="opset1">
			<data offset="3416" size="128" shape="1,32,1,1" element_type="f32"/>
			<output>
				<port id="0" precision="FP32">
					<dim>1</dim>
					<dim>32</dim>
					<dim>1</dim>
					<dim>1</dim>
				</port>
			</output>
		</layer>
		<layer id="204" name="116041160854444" type="Const" version="opset1">
			<data offset="3544" size="128" shape="1,32,1,1" element_type="f32"/>
			<output>
				<port id="0" precision="FP32">
					<dim>1</dim>
					<dim>32</dim>
					<dim>1</dim>
					<dim>1</dim>
				</port>
			</output>
		</layer>
		<layer id="205" name="116051160956022" type="Const" version="opset1">
			<data offset="3416" size="128" shape="1,32,1,1" element_type="f32"/>
			<output>
				<port id="0" precision="FP32">
					<dim>1</dim>
					<dim>32</dim>
					<dim>1</dim>
					<dim>1</dim>
				</port>
			</output>
		</layer>
		<layer id="206" name="116061161058449" type="Const" version="opset1">
			<data offset="3544" size="128" shape="1,32,1,1" element_type="f32"/>
			<output>
				<port id="0" precision="FP32">
					<dim>1</dim>
					<dim>32</dim>
					<dim>1</dim>
					<dim>1</dim>
				</port>
			</output>
		</layer>
		<layer id="207" name="106531065757681" type="Const" version="opset1">
			<data offset="3672" size="4" shape="1,1,1,1" element_type="f32"/>
			<output>
				<port id="0" precision="FP32">
					<dim>1</dim>
					<dim>1</dim>
					<dim>1</dim>
					<dim>1</dim>
				</port>
			</output>
		</layer>
		<layer id="208" name="106541065855899" type="Const" version="opset1">
			<data offset="3676" size="4" shape="1,1,1,1" element_type="f32"/>
			<output>
				<port id="0" precision="FP32">
					<dim>1</dim>
					<dim>1</dim>
					<dim>1</dim>
					<dim>1</dim>
				</port>
			</output>
		</layer>
		<layer id="209" name="106551065955260" type="Const" version="opset1">
			<data offset="3672" size="4" shape="1,1,1,1" element_type="f32"/>
			<output>
				<port id="0" precision="FP32">
					<dim>1</dim>
					<dim>1</dim>
					<dim>1</dim>
					<dim>1</dim>
				</port>
			</output>
		</layer>
		<layer id="210" name="106561066053085" type="Const" version="opset1">
			<data offset="3676" size="4" shape="1,1,1,1" element_type="f32"/>
			<output>
				<port id="0" precision="FP32">
					<dim>1</dim>
					<dim>1</dim>
					<dim>1</dim>
					<dim>1</dim>
				</port>
			</output>
		</layer>
		<layer id="211" name="112331123754363" type="Const" version="opset1">
			<data offset="3680" size="4" shape="1,1,1,1" element_type="f32"/>
			<output>
				<port id="0" precision="FP32">
					<dim>1</dim>
					<dim>1</dim>
					<dim>1</dim>
					<dim>1</dim>
				</port>
			</output>
		</layer>
		<layer id="212" name="112341123853310" type="Const" version="opset1">
			<data offset="3684" size="4" shape="1,1,1,1" element_type="f32"/>
			<output>
				<port id="0" precision="FP32">
					<dim>1</dim>
					<dim>1</dim>
					<dim>1</dim>
					<dim>1</dim>
				</port>
			</output>
		</layer>
		<layer id="213" name="112351123957879" type="Const" version="opset1">
			<data offset="3680" size="4" shape="1,1,1,1" element_type="f32"/>
			<output>
				<port id="0" precision="FP32">
					<dim>1</dim>
					<dim>1</dim>
					<dim>1</dim>
					<dim>1</dim>
				</port>
			</output>
		</layer>
		<layer id="214" name="112361124055401" type="Const" version="opset1">
			<data offset="3684" size="4" shape="1,1,1,1" element_type="f32"/>
			<output>
				<port id="0" precision="FP32">
					<dim>1</dim>
					<dim>1</dim>
					<dim>1</dim>
					<dim>1</dim>
				</port>
			</output>
		</layer>
		<layer id="215" name="8693869753901" type="Const" version="opset1">
			<data offset="3688" size="4" shape="1,1,1,1" element_type="f32"/>
			<output>
				<port id="0" precision="FP32">
					<dim>1</dim>
					<dim>1</dim>
					<dim>1</dim>
					<dim>1</dim>
				</port>
			</output>
		</layer>
		<layer id="216" name="8694869856685" type="Const" version="opset1">
			<data offset="3692" size="4" shape="1,1,1,1" element_type="f32"/>
			<output>
				<port id="0" precision="FP32">
					<dim>1</dim>
					<dim>1</dim>
					<dim>1</dim>
					<dim>1</dim>
				</port>
			</output>
		</layer>
		<layer id="217" name="8695869955788" type="Const" version="opset1">
			<data offset="3688" size="4" shape="1,1,1,1" element_type="f32"/>
			<output>
				<port id="0" precision="FP32">
					<dim>1</dim>
					<dim>1</dim>
					<dim>1</dim>
					<dim>1</dim>
				</port>
			</output>
		</layer>
		<layer id="218" name="8696870053964" type="Const" version="opset1">
			<data offset="3692" size="4" shape="1,1,1,1" element_type="f32"/>
			<output>
				<port id="0" precision="FP32">
					<dim>1</dim>
					<dim>1</dim>
					<dim>1</dim>
					<dim>1</dim>
				</port>
			</output>
		</layer>
		<layer id="219" name="100931009757237" type="Const" version="opset1">
			<data offset="3696" size="128" shape="1,32,1,1" element_type="f32"/>
			<output>
				<port id="0" precision="FP32">
					<dim>1</dim>
					<dim>32</dim>
					<dim>1</dim>
					<dim>1</dim>
				</port>
			</output>
		</layer>
		<layer id="220" name="100941009856610" type="Const" version="opset1">
			<data offset="3824" size="128" shape="1,32,1,1" element_type="f32"/>
			<output>
				<port id="0" precision="FP32">
					<dim>1</dim>
					<dim>32</dim>
					<dim>1</dim>
					<dim>1</dim>
				</port>
			</output>
		</layer>
		<layer id="221" name="100951009957300" type="Const" version="opset1">
			<data offset="3696" size="128" shape="1,32,1,1" element_type="f32"/>
			<output>
				<port id="0" precision="FP32">
					<dim>1</dim>
					<dim>32</dim>
					<dim>1</dim>
					<dim>1</dim>
				</port>
			</output>
		</layer>
		<layer id="222" name="100961010056463" type="Const" version="opset1">
			<data offset="3824" size="128" shape="1,32,1,1" element_type="f32"/>
			<output>
				<port id="0" precision="FP32">
					<dim>1</dim>
					<dim>32</dim>
					<dim>1</dim>
					<dim>1</dim>
				</port>
			</output>
		</layer>
		<layer id="223" name="121431214754615" type="Const" version="opset1">
			<data offset="3952" size="4" shape="1,1,1,1" element_type="f32"/>
			<output>
				<port id="0" precision="FP32">
					<dim>1</dim>
					<dim>1</dim>
					<dim>1</dim>
					<dim>1</dim>
				</port>
			</output>
		</layer>
		<layer id="224" name="121441214859172" type="Const" version="opset1">
			<data offset="3956" size="4" shape="1,1,1,1" element_type="f32"/>
			<output>
				<port id="0" precision="FP32">
					<dim>1</dim>
					<dim>1</dim>
					<dim>1</dim>
					<dim>1</dim>
				</port>
			</output>
		</layer>
		<layer id="225" name="121451214958551" type="Const" version="opset1">
			<data offset="3952" size="4" shape="1,1,1,1" element_type="f32"/>
			<output>
				<port id="0" precision="FP32">
					<dim>1</dim>
					<dim>1</dim>
					<dim>1</dim>
					<dim>1</dim>
				</port>
			</output>
		</layer>
		<layer id="226" name="121461215057246" type="Const" version="opset1">
			<data offset="3956" size="4" shape="1,1,1,1" element_type="f32"/>
			<output>
				<port id="0" precision="FP32">
					<dim>1</dim>
					<dim>1</dim>
					<dim>1</dim>
					<dim>1</dim>
				</port>
			</output>
		</layer>
		<layer id="227" name="9533953758539" type="Const" version="opset1">
			<data offset="3960" size="4" shape="1,1,1,1" element_type="f32"/>
			<output>
				<port id="0" precision="FP32">
					<dim>1</dim>
					<dim>1</dim>
					<dim>1</dim>
					<dim>1</dim>
				</port>
			</output>
		</layer>
		<layer id="228" name="9534953854183" type="Const" version="opset1">
			<data offset="3964" size="4" shape="1,1,1,1" element_type="f32"/>
			<output>
				<port id="0" precision="FP32">
					<dim>1</dim>
					<dim>1</dim>
					<dim>1</dim>
					<dim>1</dim>
				</port>
			</output>
		</layer>
		<layer id="229" name="9535953953277" type="Const" version="opset1">
			<data offset="3960" size="4" shape="1,1,1,1" element_type="f32"/>
			<output>
				<port id="0" precision="FP32">
					<dim>1</dim>
					<dim>1</dim>
					<dim>1</dim>
					<dim>1</dim>
				</port>
			</output>
		</layer>
		<layer id="230" name="9536954055959" type="Const" version="opset1">
			<data offset="3964" size="4" shape="1,1,1,1" element_type="f32"/>
			<output>
				<port id="0" precision="FP32">
					<dim>1</dim>
					<dim>1</dim>
					<dim>1</dim>
					<dim>1</dim>
				</port>
			</output>
		</layer>
		<layer id="231" name="112931129759055" type="Const" version="opset1">
			<data offset="3968" size="4" shape="1,1,1,1" element_type="f32"/>
			<output>
				<port id="0" precision="FP32">
					<dim>1</dim>
					<dim>1</dim>
					<dim>1</dim>
					<dim>1</dim>
				</port>
			</output>
		</layer>
		<layer id="232" name="112941129858368" type="Const" version="opset1">
			<data offset="3972" size="4" shape="1,1,1,1" element_type="f32"/>
			<output>
				<port id="0" precision="FP32">
					<dim>1</dim>
					<dim>1</dim>
					<dim>1</dim>
					<dim>1</dim>
				</port>
			</output>
		</layer>
		<layer id="233" name="112951129957690" type="Const" version="opset1">
			<data offset="3968" size="4" shape="1,1,1,1" element_type="f32"/>
			<output>
				<port id="0" precision="FP32">
					<dim>1</dim>
					<dim>1</dim>
					<dim>1</dim>
					<dim>1</dim>
				</port>
			</output>
		</layer>
		<layer id="234" name="112961130059145" type="Const" version="opset1">
			<data offset="3972" size="4" shape="1,1,1,1" element_type="f32"/>
			<output>
				<port id="0" precision="FP32">
					<dim>1</dim>
					<dim>1</dim>
					<dim>1</dim>
					<dim>1</dim>
				</port>
			</output>
		</layer>
		<layer id="235" name="7233723759013" type="Const" version="opset1">
			<data offset="3976" size="128" shape="1,32,1,1" element_type="f32"/>
			<output>
				<port id="0" precision="FP32">
					<dim>1</dim>
					<dim>32</dim>
					<dim>1</dim>
					<dim>1</dim>
				</port>
			</output>
		</layer>
		<layer id="236" name="7234723853367" type="Const" version="opset1">
			<data offset="4104" size="128" shape="1,32,1,1" element_type="f32"/>
			<output>
				<port id="0" precision="FP32">
					<dim>1</dim>
					<dim>32</dim>
					<dim>1</dim>
					<dim>1</dim>
				</port>
			</output>
		</layer>
		<layer id="237" name="7235723953307" type="Const" version="opset1">
			<data offset="3976" size="128" shape="1,32,1,1" element_type="f32"/>
			<output>
				<port id="0" precision="FP32">
					<dim>1</dim>
					<dim>32</dim>
					<dim>1</dim>
					<dim>1</dim>
				</port>
			</output>
		</layer>
		<layer id="238" name="7236724059079" type="Const" version="opset1">
			<data offset="4104" size="128" shape="1,32,1,1" element_type="f32"/>
			<output>
				<port id="0" precision="FP32">
					<dim>1</dim>
					<dim>32</dim>
					<dim>1</dim>
					<dim>1</dim>
				</port>
			</output>
		</layer>
		<layer id="239" name="133431334757288" type="Const" version="opset1">
			<data offset="4232" size="4" shape="1,1,1,1" element_type="f32"/>
			<output>
				<port id="0" precision="FP32">
					<dim>1</dim>
					<dim>1</dim>
					<dim>1</dim>
					<dim>1</dim>
				</port>
			</output>
		</layer>
		<layer id="240" name="133441334855722" type="Const" version="opset1">
			<data offset="4236" size="4" shape="1,1,1,1" element_type="f32"/>
			<output>
				<port id="0" precision="FP32">
					<dim>1</dim>
					<dim>1</dim>
					<dim>1</dim>
					<dim>1</dim>
				</port>
			</output>
		</layer>
		<layer id="241" name="133451334955425" type="Const" version="opset1">
			<data offset="4232" size="4" shape="1,1,1,1" element_type="f32"/>
			<output>
				<port id="0" precision="FP32">
					<dim>1</dim>
					<dim>1</dim>
					<dim>1</dim>
					<dim>1</dim>
				</port>
			</output>
		</layer>
		<layer id="242" name="133461335052941" type="Const" version="opset1">
			<data offset="4236" size="4" shape="1,1,1,1" element_type="f32"/>
			<output>
				<port id="0" precision="FP32">
					<dim>1</dim>
					<dim>1</dim>
					<dim>1</dim>
					<dim>1</dim>
				</port>
			</output>
		</layer>
		<layer id="243" name="8003800753637" type="Const" version="opset1">
			<data offset="4240" size="4" shape="1,1,1,1" element_type="f32"/>
			<output>
				<port id="0" precision="FP32">
					<dim>1</dim>
					<dim>1</dim>
					<dim>1</dim>
					<dim>1</dim>
				</port>
			</output>
		</layer>
		<layer id="244" name="8004800854540" type="Const" version="opset1">
			<data offset="4244" size="4" shape="1,1,1,1" element_type="f32"/>
			<output>
				<port id="0" precision="FP32">
					<dim>1</dim>
					<dim>1</dim>
					<dim>1</dim>
					<dim>1</dim>
				</port>
			</output>
		</layer>
		<layer id="245" name="8005800956652" type="Const" version="opset1">
			<data offset="4240" size="4" shape="1,1,1,1" element_type="f32"/>
			<output>
				<port id="0" precision="FP32">
					<dim>1</dim>
					<dim>1</dim>
					<dim>1</dim>
					<dim>1</dim>
				</port>
			</output>
		</layer>
		<layer id="246" name="8006801053430" type="Const" version="opset1">
			<data offset="4244" size="4" shape="1,1,1,1" element_type="f32"/>
			<output>
				<port id="0" precision="FP32">
					<dim>1</dim>
					<dim>1</dim>
					<dim>1</dim>
					<dim>1</dim>
				</port>
			</output>
		</layer>
		<layer id="247" name="125331253755833" type="Const" version="opset1">
			<data offset="4248" size="4" shape="1,1,1,1" element_type="f32"/>
			<output>
				<port id="0" precision="FP32">
					<dim>1</dim>
					<dim>1</dim>
					<dim>1</dim>
					<dim>1</dim>
				</port>
			</output>
		</layer>
		<layer id="248" name="125341253852773" type="Const" version="opset1">
			<data offset="4252" size="4" shape="1,1,1,1" element_type="f32"/>
			<output>
				<port id="0" precision="FP32">
					<dim>1</dim>
					<dim>1</dim>
					<dim>1</dim>
					<dim>1</dim>
				</port>
			</output>
		</layer>
		<layer id="249" name="125351253957258" type="Const" version="opset1">
			<data offset="4248" size="4" shape="1,1,1,1" element_type="f32"/>
			<output>
				<port id="0" precision="FP32">
					<dim>1</dim>
					<dim>1</dim>
					<dim>1</dim>
					<dim>1</dim>
				</port>
			</output>
		</layer>
		<layer id="250" name="125361254053826" type="Const" version="opset1">
			<data offset="4252" size="4" shape="1,1,1,1" element_type="f32"/>
			<output>
				<port id="0" precision="FP32">
					<dim>1</dim>
					<dim>1</dim>
					<dim>1</dim>
					<dim>1</dim>
				</port>
			</output>
		</layer>
		<layer id="251" name="9253925755158" type="Const" version="opset1">
			<data offset="4256" size="64" shape="1,16,1,1" element_type="f32"/>
			<output>
				<port id="0" precision="FP32">
					<dim>1</dim>
					<dim>16</dim>
					<dim>1</dim>
					<dim>1</dim>
				</port>
			</output>
		</layer>
		<layer id="252" name="9254925858995" type="Const" version="opset1">
			<data offset="4320" size="64" shape="1,16,1,1" element_type="f32"/>
			<output>
				<port id="0" precision="FP32">
					<dim>1</dim>
					<dim>16</dim>
					<dim>1</dim>
					<dim>1</dim>
				</port>
			</output>
		</layer>
		<layer id="253" name="9255925954198" type="Const" version="opset1">
			<data offset="4256" size="64" shape="1,16,1,1" element_type="f32"/>
			<output>
				<port id="0" precision="FP32">
					<dim>1</dim>
					<dim>16</dim>
					<dim>1</dim>
					<dim>1</dim>
				</port>
			</output>
		</layer>
		<layer id="254" name="9256926052653" type="Const" version="opset1">
			<data offset="4320" size="64" shape="1,16,1,1" element_type="f32"/>
			<output>
				<port id="0" precision="FP32">
					<dim>1</dim>
					<dim>16</dim>
					<dim>1</dim>
					<dim>1</dim>
				</port>
			</output>
		</layer>
		<layer id="255" name="9073907759049" type="Const" version="opset1">
			<data offset="4384" size="4" shape="1,1,1,1" element_type="f32"/>
			<output>
				<port id="0" precision="FP32">
					<dim>1</dim>
					<dim>1</dim>
					<dim>1</dim>
					<dim>1</dim>
				</port>
			</output>
		</layer>
		<layer id="256" name="9074907852740" type="Const" version="opset1">
			<data offset="4388" size="4" shape="1,1,1,1" element_type="f32"/>
			<output>
				<port id="0" precision="FP32">
					<dim>1</dim>
					<dim>1</dim>
					<dim>1</dim>
					<dim>1</dim>
				</port>
			</output>
		</layer>
		<layer id="257" name="9075907953331" type="Const" version="opset1">
			<data offset="4384" size="4" shape="1,1,1,1" element_type="f32"/>
			<output>
				<port id="0" precision="FP32">
					<dim>1</dim>
					<dim>1</dim>
					<dim>1</dim>
					<dim>1</dim>
				</port>
			</output>
		</layer>
		<layer id="258" name="9076908057894" type="Const" version="opset1">
			<data offset="4388" size="4" shape="1,1,1,1" element_type="f32"/>
			<output>
				<port id="0" precision="FP32">
					<dim>1</dim>
					<dim>1</dim>
					<dim>1</dim>
					<dim>1</dim>
				</port>
			</output>
		</layer>
		<layer id="259" name="9973997755257" type="Const" version="opset1">
			<data offset="4392" size="4" shape="1,1,1,1" element_type="f32"/>
			<output>
				<port id="0" precision="FP32">
					<dim>1</dim>
					<dim>1</dim>
					<dim>1</dim>
					<dim>1</dim>
				</port>
			</output>
		</layer>
		<layer id="260" name="9974997857459" type="Const" version="opset1">
			<data offset="4396" size="4" shape="1,1,1,1" element_type="f32"/>
			<output>
				<port id="0" precision="FP32">
					<dim>1</dim>
					<dim>1</dim>
					<dim>1</dim>
					<dim>1</dim>
				</port>
			</output>
		</layer>
		<layer id="261" name="9975997954087" type="Const" version="opset1">
			<data offset="4392" size="4" shape="1,1,1,1" element_type="f32"/>
			<output>
				<port id="0" precision="FP32">
					<dim>1</dim>
					<dim>1</dim>
					<dim>1</dim>
					<dim>1</dim>
				</port>
			</output>
		</layer>
		<layer id="262" name="9976998057888" type="Const" version="opset1">
			<data offset="4396" size="4" shape="1,1,1,1" element_type="f32"/>
			<output>
				<port id="0" precision="FP32">
					<dim>1</dim>
					<dim>1</dim>
					<dim>1</dim>
					<dim>1</dim>
				</port>
			</output>
		</layer>
		<layer id="263" name="8953895754558" type="Const" version="opset1">
			<data offset="4400" size="4" shape="1,1,1,1" element_type="f32"/>
			<output>
				<port id="0" precision="FP32">
					<dim>1</dim>
					<dim>1</dim>
					<dim>1</dim>
					<dim>1</dim>
				</port>
			</output>
		</layer>
		<layer id="264" name="8954895857420" type="Const" version="opset1">
			<data offset="4404" size="4" shape="1,1,1,1" element_type="f32"/>
			<output>
				<port id="0" precision="FP32">
					<dim>1</dim>
					<dim>1</dim>
					<dim>1</dim>
					<dim>1</dim>
				</port>
			</output>
		</layer>
		<layer id="265" name="8955895956349" type="Const" version="opset1">
			<data offset="4400" size="4" shape="1,1,1,1" element_type="f32"/>
			<output>
				<port id="0" precision="FP32">
					<dim>1</dim>
					<dim>1</dim>
					<dim>1</dim>
					<dim>1</dim>
				</port>
			</output>
		</layer>
		<layer id="266" name="8956896054987" type="Const" version="opset1">
			<data offset="4404" size="4" shape="1,1,1,1" element_type="f32"/>
			<output>
				<port id="0" precision="FP32">
					<dim>1</dim>
					<dim>1</dim>
					<dim>1</dim>
					<dim>1</dim>
				</port>
			</output>
		</layer>
		<layer id="267" name="127731277755797" type="Const" version="opset1">
			<data offset="4408" size="64" shape="1,16,1,1" element_type="f32"/>
			<output>
				<port id="0" precision="FP32">
					<dim>1</dim>
					<dim>16</dim>
					<dim>1</dim>
					<dim>1</dim>
				</port>
			</output>
		</layer>
		<layer id="268" name="127741277857087" type="Const" version="opset1">
			<data offset="4472" size="64" shape="1,16,1,1" element_type="f32"/>
			<output>
				<port id="0" precision="FP32">
					<dim>1</dim>
					<dim>16</dim>
					<dim>1</dim>
					<dim>1</dim>
				</port>
			</output>
		</layer>
		<layer id="269" name="127751277953019" type="Const" version="opset1">
			<data offset="4408" size="64" shape="1,16,1,1" element_type="f32"/>
			<output>
				<port id="0" precision="FP32">
					<dim>1</dim>
					<dim>16</dim>
					<dim>1</dim>
					<dim>1</dim>
				</port>
			</output>
		</layer>
		<layer id="270" name="127761278056634" type="Const" version="opset1">
			<data offset="4472" size="64" shape="1,16,1,1" element_type="f32"/>
			<output>
				<port id="0" precision="FP32">
					<dim>1</dim>
					<dim>16</dim>
					<dim>1</dim>
					<dim>1</dim>
				</port>
			</output>
		</layer>
		<layer id="271" name="110531105758596" type="Const" version="opset1">
			<data offset="4536" size="4" shape="1,1,1,1" element_type="f32"/>
			<output>
				<port id="0" precision="FP32">
					<dim>1</dim>
					<dim>1</dim>
					<dim>1</dim>
					<dim>1</dim>
				</port>
			</output>
		</layer>
		<layer id="272" name="110541105856448" type="Const" version="opset1">
			<data offset="4540" size="4" shape="1,1,1,1" element_type="f32"/>
			<output>
				<port id="0" precision="FP32">
					<dim>1</dim>
					<dim>1</dim>
					<dim>1</dim>
					<dim>1</dim>
				</port>
			</output>
		</layer>
		<layer id="273" name="110551105954951" type="Const" version="opset1">
			<data offset="4536" size="4" shape="1,1,1,1" element_type="f32"/>
			<output>
				<port id="0" precision="FP32">
					<dim>1</dim>
					<dim>1</dim>
					<dim>1</dim>
					<dim>1</dim>
				</port>
			</output>
		</layer>
		<layer id="274" name="110561106057084" type="Const" version="opset1">
			<data offset="4540" size="4" shape="1,1,1,1" element_type="f32"/>
			<output>
				<port id="0" precision="FP32">
					<dim>1</dim>
					<dim>1</dim>
					<dim>1</dim>
					<dim>1</dim>
				</port>
			</output>
		</layer>
		<layer id="275" name="134131341754627" type="Const" version="opset1">
			<data offset="4544" size="4" shape="1,1,1,1" element_type="f32"/>
			<output>
				<port id="0" precision="FP32">
					<dim>1</dim>
					<dim>1</dim>
					<dim>1</dim>
					<dim>1</dim>
				</port>
			</output>
		</layer>
		<layer id="276" name="134141341858452" type="Const" version="opset1">
			<data offset="4548" size="4" shape="1,1,1,1" element_type="f32"/>
			<output>
				<port id="0" precision="FP32">
					<dim>1</dim>
					<dim>1</dim>
					<dim>1</dim>
					<dim>1</dim>
				</port>
			</output>
		</layer>
		<layer id="277" name="134151341958968" type="Const" version="opset1">
			<data offset="4544" size="4" shape="1,1,1,1" element_type="f32"/>
			<output>
				<port id="0" precision="FP32">
					<dim>1</dim>
					<dim>1</dim>
					<dim>1</dim>
					<dim>1</dim>
				</port>
			</output>
		</layer>
		<layer id="278" name="134161342058401" type="Const" version="opset1">
			<data offset="4548" size="4" shape="1,1,1,1" element_type="f32"/>
			<output>
				<port id="0" precision="FP32">
					<dim>1</dim>
					<dim>1</dim>
					<dim>1</dim>
					<dim>1</dim>
				</port>
			</output>
		</layer>
		<layer id="279" name="7783778758416" type="Const" version="opset1">
			<data offset="4552" size="4" shape="1,1,1,1" element_type="f32"/>
			<output>
				<port id="0" precision="FP32">
					<dim>1</dim>
					<dim>1</dim>
					<dim>1</dim>
					<dim>1</dim>
				</port>
			</output>
		</layer>
		<layer id="280" name="7784778858860" type="Const" version="opset1">
			<data offset="4556" size="4" shape="1,1,1,1" element_type="f32"/>
			<output>
				<port id="0" precision="FP32">
					<dim>1</dim>
					<dim>1</dim>
					<dim>1</dim>
					<dim>1</dim>
				</port>
			</output>
		</layer>
		<layer id="281" name="7785778955419" type="Const" version="opset1">
			<data offset="4552" size="4" shape="1,1,1,1" element_type="f32"/>
			<output>
				<port id="0" precision="FP32">
					<dim>1</dim>
					<dim>1</dim>
					<dim>1</dim>
					<dim>1</dim>
				</port>
			</output>
		</layer>
		<layer id="282" name="7786779057135" type="Const" version="opset1">
			<data offset="4556" size="4" shape="1,1,1,1" element_type="f32"/>
			<output>
				<port id="0" precision="FP32">
					<dim>1</dim>
					<dim>1</dim>
					<dim>1</dim>
					<dim>1</dim>
				</port>
			</output>
		</layer>
		<layer id="283" name="8423842756928" type="Const" version="opset1">
			<data offset="4560" size="64" shape="1,16,1,1" element_type="f32"/>
			<output>
				<port id="0" precision="FP32">
					<dim>1</dim>
					<dim>16</dim>
					<dim>1</dim>
					<dim>1</dim>
				</port>
			</output>
		</layer>
		<layer id="284" name="8424842857345" type="Const" version="opset1">
			<data offset="4624" size="64" shape="1,16,1,1" element_type="f32"/>
			<output>
				<port id="0" precision="FP32">
					<dim>1</dim>
					<dim>16</dim>
					<dim>1</dim>
					<dim>1</dim>
				</port>
			</output>
		</layer>
		<layer id="285" name="8425842954051" type="Const" version="opset1">
			<data offset="4560" size="64" shape="1,16,1,1" element_type="f32"/>
			<output>
				<port id="0" precision="FP32">
					<dim>1</dim>
					<dim>16</dim>
					<dim>1</dim>
					<dim>1</dim>
				</port>
			</output>
		</layer>
		<layer id="286" name="8426843052782" type="Const" version="opset1">
			<data offset="4624" size="64" shape="1,16,1,1" element_type="f32"/>
			<output>
				<port id="0" precision="FP32">
					<dim>1</dim>
					<dim>16</dim>
					<dim>1</dim>
					<dim>1</dim>
				</port>
			</output>
		</layer>
		<layer id="287" name="9603960754903" type="Const" version="opset1">
			<data offset="4688" size="4" shape="1,1,1,1" element_type="f32"/>
			<output>
				<port id="0" precision="FP32">
					<dim>1</dim>
					<dim>1</dim>
					<dim>1</dim>
					<dim>1</dim>
				</port>
			</output>
		</layer>
		<layer id="288" name="9604960856205" type="Const" version="opset1">
			<data offset="4692" size="4" shape="1,1,1,1" element_type="f32"/>
			<output>
				<port id="0" precision="FP32">
					<dim>1</dim>
					<dim>1</dim>
					<dim>1</dim>
					<dim>1</dim>
				</port>
			</output>
		</layer>
		<layer id="289" name="9605960953766" type="Const" version="opset1">
			<data offset="4688" size="4" shape="1,1,1,1" element_type="f32"/>
			<output>
				<port id="0" precision="FP32">
					<dim>1</dim>
					<dim>1</dim>
					<dim>1</dim>
					<dim>1</dim>
				</port>
			</output>
		</layer>
		<layer id="290" name="9606961055542" type="Const" version="opset1">
			<data offset="4692" size="4" shape="1,1,1,1" element_type="f32"/>
			<output>
				<port id="0" precision="FP32">
					<dim>1</dim>
					<dim>1</dim>
					<dim>1</dim>
					<dim>1</dim>
				</port>
			</output>
		</layer>
		<layer id="291" name="9853985754969" type="Const" version="opset1">
			<data offset="4696" size="4" shape="1,1,1,1" element_type="f32"/>
			<output>
				<port id="0" precision="FP32">
					<dim>1</dim>
					<dim>1</dim>
					<dim>1</dim>
					<dim>1</dim>
				</port>
			</output>
		</layer>
		<layer id="292" name="9854985854684" type="Const" version="opset1">
			<data offset="4700" size="4" shape="1,1,1,1" element_type="f32"/>
			<output>
				<port id="0" precision="FP32">
					<dim>1</dim>
					<dim>1</dim>
					<dim>1</dim>
					<dim>1</dim>
				</port>
			</output>
		</layer>
		<layer id="293" name="9855985955296" type="Const" version="opset1">
			<data offset="4696" size="4" shape="1,1,1,1" element_type="f32"/>
			<output>
				<port id="0" precision="FP32">
					<dim>1</dim>
					<dim>1</dim>
					<dim>1</dim>
					<dim>1</dim>
				</port>
			</output>
		</layer>
		<layer id="294" name="9856986058311" type="Const" version="opset1">
			<data offset="4700" size="4" shape="1,1,1,1" element_type="f32"/>
			<output>
				<port id="0" precision="FP32">
					<dim>1</dim>
					<dim>1</dim>
					<dim>1</dim>
					<dim>1</dim>
				</port>
			</output>
		</layer>
		<layer id="295" name="7503750754783" type="Const" version="opset1">
			<data offset="4704" size="4" shape="1,1,1,1" element_type="f32"/>
			<output>
				<port id="0" precision="FP32">
					<dim>1</dim>
					<dim>1</dim>
					<dim>1</dim>
					<dim>1</dim>
				</port>
			</output>
		</layer>
		<layer id="296" name="7504750857081" type="Const" version="opset1">
			<data offset="4708" size="4" shape="1,1,1,1" element_type="f32"/>
			<output>
				<port id="0" precision="FP32">
					<dim>1</dim>
					<dim>1</dim>
					<dim>1</dim>
					<dim>1</dim>
				</port>
			</output>
		</layer>
		<layer id="297" name="7505750958044" type="Const" version="opset1">
			<data offset="4704" size="4" shape="1,1,1,1" element_type="f32"/>
			<output>
				<port id="0" precision="FP32">
					<dim>1</dim>
					<dim>1</dim>
					<dim>1</dim>
					<dim>1</dim>
				</port>
			</output>
		</layer>
		<layer id="298" name="7506751053913" type="Const" version="opset1">
			<data offset="4708" size="4" shape="1,1,1,1" element_type="f32"/>
			<output>
				<port id="0" precision="FP32">
					<dim>1</dim>
					<dim>1</dim>
					<dim>1</dim>
					<dim>1</dim>
				</port>
			</output>
		</layer>
		<layer id="299" name="7563756756328" type="Const" version="opset1">
			<data offset="4712" size="64" shape="1,16,1,1" element_type="f32"/>
			<output>
				<port id="0" precision="FP32">
					<dim>1</dim>
					<dim>16</dim>
					<dim>1</dim>
					<dim>1</dim>
				</port>
			</output>
		</layer>
		<layer id="300" name="7564756856661" type="Const" version="opset1">
			<data offset="4776" size="64" shape="1,16,1,1" element_type="f32"/>
			<output>
				<port id="0" precision="FP32">
					<dim>1</dim>
					<dim>16</dim>
					<dim>1</dim>
					<dim>1</dim>
				</port>
			</output>
		</layer>
		<layer id="301" name="7565756956130" type="Const" version="opset1">
			<data offset="4712" size="64" shape="1,16,1,1" element_type="f32"/>
			<output>
				<port id="0" precision="FP32">
					<dim>1</dim>
					<dim>16</dim>
					<dim>1</dim>
					<dim>1</dim>
				</port>
			</output>
		</layer>
		<layer id="302" name="7566757053223" type="Const" version="opset1">
			<data offset="4776" size="64" shape="1,16,1,1" element_type="f32"/>
			<output>
				<port id="0" precision="FP32">
					<dim>1</dim>
					<dim>16</dim>
					<dim>1</dim>
					<dim>1</dim>
				</port>
			</output>
		</layer>
		<layer id="303" name="124631246757375" type="Const" version="opset1">
			<data offset="4840" size="4" shape="1,1,1,1" element_type="f32"/>
			<output>
				<port id="0" precision="FP32">
					<dim>1</dim>
					<dim>1</dim>
					<dim>1</dim>
					<dim>1</dim>
				</port>
			</output>
		</layer>
		<layer id="304" name="124641246854663" type="Const" version="opset1">
			<data offset="4844" size="4" shape="1,1,1,1" element_type="f32"/>
			<output>
				<port id="0" precision="FP32">
					<dim>1</dim>
					<dim>1</dim>
					<dim>1</dim>
					<dim>1</dim>
				</port>
			</output>
		</layer>
		<layer id="305" name="124651246957120" type="Const" version="opset1">
			<data offset="4840" size="4" shape="1,1,1,1" element_type="f32"/>
			<output>
				<port id="0" precision="FP32">
					<dim>1</dim>
					<dim>1</dim>
					<dim>1</dim>
					<dim>1</dim>
				</port>
			</output>
		</layer>
		<layer id="306" name="124661247055293" type="Const" version="opset1">
			<data offset="4844" size="4" shape="1,1,1,1" element_type="f32"/>
			<output>
				<port id="0" precision="FP32">
					<dim>1</dim>
					<dim>1</dim>
					<dim>1</dim>
					<dim>1</dim>
				</port>
			</output>
		</layer>
		<layer id="307" name="7403740755047" type="Const" version="opset1">
			<data offset="4848" size="4" shape="1,1,1,1" element_type="f32"/>
			<output>
				<port id="0" precision="FP32">
					<dim>1</dim>
					<dim>1</dim>
					<dim>1</dim>
					<dim>1</dim>
				</port>
			</output>
		</layer>
		<layer id="308" name="7404740854462" type="Const" version="opset1">
			<data offset="4852" size="4" shape="1,1,1,1" element_type="f32"/>
			<output>
				<port id="0" precision="FP32">
					<dim>1</dim>
					<dim>1</dim>
					<dim>1</dim>
					<dim>1</dim>
				</port>
			</output>
		</layer>
		<layer id="309" name="7405740958761" type="Const" version="opset1">
			<data offset="4848" size="4" shape="1,1,1,1" element_type="f32"/>
			<output>
				<port id="0" precision="FP32">
					<dim>1</dim>
					<dim>1</dim>
					<dim>1</dim>
					<dim>1</dim>
				</port>
			</output>
		</layer>
		<layer id="310" name="7406741056787" type="Const" version="opset1">
			<data offset="4852" size="4" shape="1,1,1,1" element_type="f32"/>
			<output>
				<port id="0" precision="FP32">
					<dim>1</dim>
					<dim>1</dim>
					<dim>1</dim>
					<dim>1</dim>
				</port>
			</output>
		</layer>
		<layer id="311" name="131731317759208" type="Const" version="opset1">
			<data offset="4856" size="4" shape="1,1,1,1" element_type="f32"/>
			<output>
				<port id="0" precision="FP32">
					<dim>1</dim>
					<dim>1</dim>
					<dim>1</dim>
					<dim>1</dim>
				</port>
			</output>
		</layer>
		<layer id="312" name="131741317855347" type="Const" version="opset1">
			<data offset="4860" size="4" shape="1,1,1,1" element_type="f32"/>
			<output>
				<port id="0" precision="FP32">
					<dim>1</dim>
					<dim>1</dim>
					<dim>1</dim>
					<dim>1</dim>
				</port>
			</output>
		</layer>
		<layer id="313" name="131751317953508" type="Const" version="opset1">
			<data offset="4856" size="4" shape="1,1,1,1" element_type="f32"/>
			<output>
				<port id="0" precision="FP32">
					<dim>1</dim>
					<dim>1</dim>
					<dim>1</dim>
					<dim>1</dim>
				</port>
			</output>
		</layer>
		<layer id="314" name="131761318057078" type="Const" version="opset1">
			<data offset="4860" size="4" shape="1,1,1,1" element_type="f32"/>
			<output>
				<port id="0" precision="FP32">
					<dim>1</dim>
					<dim>1</dim>
					<dim>1</dim>
					<dim>1</dim>
				</port>
			</output>
		</layer>
		<layer id="315" name="117831178759148" type="Const" version="opset1">
			<data offset="4864" size="64" shape="1,16,1,1" element_type="f32"/>
			<output>
				<port id="0" precision="FP32">
					<dim>1</dim>
					<dim>16</dim>
					<dim>1</dim>
					<dim>1</dim>
				</port>
			</output>
		</layer>
		<layer id="316" name="117841178859274" type="Const" version="opset1">
			<data offset="4928" size="64" shape="1,16,1,1" element_type="f32"/>
			<output>
				<port id="0" precision="FP32">
					<dim>1</dim>
					<dim>16</dim>
					<dim>1</dim>
					<dim>1</dim>
				</port>
			</output>
		</layer>
		<layer id="317" name="117851178955380" type="Const" version="opset1">
			<data offset="4864" size="64" shape="1,16,1,1" element_type="f32"/>
			<output>
				<port id="0" precision="FP32">
					<dim>1</dim>
					<dim>16</dim>
					<dim>1</dim>
					<dim>1</dim>
				</port>
			</output>
		</layer>
		<layer id="318" name="117861179058323" type="Const" version="opset1">
			<data offset="4928" size="64" shape="1,16,1,1" element_type="f32"/>
			<output>
				<port id="0" precision="FP32">
					<dim>1</dim>
					<dim>16</dim>
					<dim>1</dim>
					<dim>1</dim>
				</port>
			</output>
		</layer>
		<layer id="319" name="127931279757405" type="Const" version="opset1">
			<data offset="4992" size="4" shape="1,1,1,1" element_type="f32"/>
			<output>
				<port id="0" precision="FP32">
					<dim>1</dim>
					<dim>1</dim>
					<dim>1</dim>
					<dim>1</dim>
				</port>
			</output>
		</layer>
		<layer id="320" name="127941279855251" type="Const" version="opset1">
			<data offset="4996" size="4" shape="1,1,1,1" element_type="f32"/>
			<output>
				<port id="0" precision="FP32">
					<dim>1</dim>
					<dim>1</dim>
					<dim>1</dim>
					<dim>1</dim>
				</port>
			</output>
		</layer>
		<layer id="321" name="127951279953190" type="Const" version="opset1">
			<data offset="4992" size="4" shape="1,1,1,1" element_type="f32"/>
			<output>
				<port id="0" precision="FP32">
					<dim>1</dim>
					<dim>1</dim>
					<dim>1</dim>
					<dim>1</dim>
				</port>
			</output>
		</layer>
		<layer id="322" name="127961280054840" type="Const" version="opset1">
			<data offset="4996" size="4" shape="1,1,1,1" element_type="f32"/>
			<output>
				<port id="0" precision="FP32">
					<dim>1</dim>
					<dim>1</dim>
					<dim>1</dim>
					<dim>1</dim>
				</port>
			</output>
		</layer>
		<layer id="323" name="9473947756853" type="Const" version="opset1">
			<data offset="5000" size="4" shape="1,1,1,1" element_type="f32"/>
			<output>
				<port id="0" precision="FP32">
					<dim>1</dim>
					<dim>1</dim>
					<dim>1</dim>
					<dim>1</dim>
				</port>
			</output>
		</layer>
		<layer id="324" name="9474947855407" type="Const" version="opset1">
			<data offset="5004" size="4" shape="1,1,1,1" element_type="f32"/>
			<output>
				<port id="0" precision="FP32">
					<dim>1</dim>
					<dim>1</dim>
					<dim>1</dim>
					<dim>1</dim>
				</port>
			</output>
		</layer>
		<layer id="325" name="9475947956397" type="Const" version="opset1">
			<data offset="5000" size="4" shape="1,1,1,1" element_type="f32"/>
			<output>
				<port id="0" precision="FP32">
					<dim>1</dim>
					<dim>1</dim>
					<dim>1</dim>
					<dim>1</dim>
				</port>
			</output>
		</layer>
		<layer id="326" name="9476948059091" type="Const" version="opset1">
			<data offset="5004" size="4" shape="1,1,1,1" element_type="f32"/>
			<output>
				<port id="0" precision="FP32">
					<dim>1</dim>
					<dim>1</dim>
					<dim>1</dim>
					<dim>1</dim>
				</port>
			</output>
		</layer>
		<layer id="327" name="8933893756715" type="Const" version="opset1">
			<data offset="5008" size="4" shape="1,1,1,1" element_type="f32"/>
			<output>
				<port id="0" precision="FP32">
					<dim>1</dim>
					<dim>1</dim>
					<dim>1</dim>
					<dim>1</dim>
				</port>
			</output>
		</layer>
		<layer id="328" name="8934893853823" type="Const" version="opset1">
			<data offset="5012" size="4" shape="1,1,1,1" element_type="f32"/>
			<output>
				<port id="0" precision="FP32">
					<dim>1</dim>
					<dim>1</dim>
					<dim>1</dim>
					<dim>1</dim>
				</port>
			</output>
		</layer>
		<layer id="329" name="8935893957570" type="Const" version="opset1">
			<data offset="5008" size="4" shape="1,1,1,1" element_type="f32"/>
			<output>
				<port id="0" precision="FP32">
					<dim>1</dim>
					<dim>1</dim>
					<dim>1</dim>
					<dim>1</dim>
				</port>
			</output>
		</layer>
		<layer id="330" name="8936894054480" type="Const" version="opset1">
			<data offset="5012" size="4" shape="1,1,1,1" element_type="f32"/>
			<output>
				<port id="0" precision="FP32">
					<dim>1</dim>
					<dim>1</dim>
					<dim>1</dim>
					<dim>1</dim>
				</port>
			</output>
		</layer>
		<layer id="331" name="8343834755122" type="Const" version="opset1">
			<data offset="5016" size="64" shape="1,16,1,1" element_type="f32"/>
			<output>
				<port id="0" precision="FP32">
					<dim>1</dim>
					<dim>16</dim>
					<dim>1</dim>
					<dim>1</dim>
				</port>
			</output>
		</layer>
		<layer id="332" name="8344834855356" type="Const" version="opset1">
			<data offset="5080" size="64" shape="1,16,1,1" element_type="f32"/>
			<output>
				<port id="0" precision="FP32">
					<dim>1</dim>
					<dim>16</dim>
					<dim>1</dim>
					<dim>1</dim>
				</port>
			</output>
		</layer>
		<layer id="333" name="8345834952971" type="Const" version="opset1">
			<data offset="5016" size="64" shape="1,16,1,1" element_type="f32"/>
			<output>
				<port id="0" precision="FP32">
					<dim>1</dim>
					<dim>16</dim>
					<dim>1</dim>
					<dim>1</dim>
				</port>
			</output>
		</layer>
		<layer id="334" name="8346835057198" type="Const" version="opset1">
			<data offset="5080" size="64" shape="1,16,1,1" element_type="f32"/>
			<output>
				<port id="0" precision="FP32">
					<dim>1</dim>
					<dim>16</dim>
					<dim>1</dim>
					<dim>1</dim>
				</port>
			</output>
		</layer>
		<layer id="335" name="8653865758800" type="Const" version="opset1">
			<data offset="5144" size="4" shape="1,1,1,1" element_type="f32"/>
			<output>
				<port id="0" precision="FP32">
					<dim>1</dim>
					<dim>1</dim>
					<dim>1</dim>
					<dim>1</dim>
				</port>
			</output>
		</layer>
		<layer id="336" name="8654865856793" type="Const" version="opset1">
			<data offset="5148" size="4" shape="1,1,1,1" element_type="f32"/>
			<output>
				<port id="0" precision="FP32">
					<dim>1</dim>
					<dim>1</dim>
					<dim>1</dim>
					<dim>1</dim>
				</port>
			</output>
		</layer>
		<layer id="337" name="8655865958089" type="Const" version="opset1">
			<data offset="5144" size="4" shape="1,1,1,1" element_type="f32"/>
			<output>
				<port id="0" precision="FP32">
					<dim>1</dim>
					<dim>1</dim>
					<dim>1</dim>
					<dim>1</dim>
				</port>
			</output>
		</layer>
		<layer id="338" name="8656866055302" type="Const" version="opset1">
			<data offset="5148" size="4" shape="1,1,1,1" element_type="f32"/>
			<output>
				<port id="0" precision="FP32">
					<dim>1</dim>
					<dim>1</dim>
					<dim>1</dim>
					<dim>1</dim>
				</port>
			</output>
		</layer>
		<layer id="339" name="105331053757774" type="Const" version="opset1">
			<data offset="5152" size="4" shape="1,1,1,1" element_type="f32"/>
			<output>
				<port id="0" precision="FP32">
					<dim>1</dim>
					<dim>1</dim>
					<dim>1</dim>
					<dim>1</dim>
				</port>
			</output>
		</layer>
		<layer id="340" name="105341053859103" type="Const" version="opset1">
			<data offset="5156" size="4" shape="1,1,1,1" element_type="f32"/>
			<output>
				<port id="0" precision="FP32">
					<dim>1</dim>
					<dim>1</dim>
					<dim>1</dim>
					<dim>1</dim>
				</port>
			</output>
		</layer>
		<layer id="341" name="105351053956106" type="Const" version="opset1">
			<data offset="5152" size="4" shape="1,1,1,1" element_type="f32"/>
			<output>
				<port id="0" precision="FP32">
					<dim>1</dim>
					<dim>1</dim>
					<dim>1</dim>
					<dim>1</dim>
				</port>
			</output>
		</layer>
		<layer id="342" name="105361054057828" type="Const" version="opset1">
			<data offset="5156" size="4" shape="1,1,1,1" element_type="f32"/>
			<output>
				<port id="0" precision="FP32">
					<dim>1</dim>
					<dim>1</dim>
					<dim>1</dim>
					<dim>1</dim>
				</port>
			</output>
		</layer>
		<layer id="343" name="105131051757060" type="Const" version="opset1">
			<data offset="5160" size="4" shape="1,1,1,1" element_type="f32"/>
			<output>
				<port id="0" precision="FP32">
					<dim>1</dim>
					<dim>1</dim>
					<dim>1</dim>
					<dim>1</dim>
				</port>
			</output>
		</layer>
		<layer id="344" name="105141051856367" type="Const" version="opset1">
			<data offset="5164" size="4" shape="1,1,1,1" element_type="f32"/>
			<output>
				<port id="0" precision="FP32">
					<dim>1</dim>
					<dim>1</dim>
					<dim>1</dim>
					<dim>1</dim>
				</port>
			</output>
		</layer>
		<layer id="345" name="105151051957417" type="Const" version="opset1">
			<data offset="5160" size="4" shape="1,1,1,1" element_type="f32"/>
			<output>
				<port id="0" precision="FP32">
					<dim>1</dim>
					<dim>1</dim>
					<dim>1</dim>
					<dim>1</dim>
				</port>
			</output>
		</layer>
		<layer id="346" name="105161052057780" type="Const" version="opset1">
			<data offset="5164" size="4" shape="1,1,1,1" element_type="f32"/>
			<output>
				<port id="0" precision="FP32">
					<dim>1</dim>
					<dim>1</dim>
					<dim>1</dim>
					<dim>1</dim>
				</port>
			</output>
		</layer>
		<layer id="347" name="7963796754705" type="Const" version="opset1">
			<data offset="5168" size="64" shape="1,16,1,1" element_type="f32"/>
			<output>
				<port id="0" precision="FP32">
					<dim>1</dim>
					<dim>16</dim>
					<dim>1</dim>
					<dim>1</dim>
				</port>
			</output>
		</layer>
		<layer id="348" name="7964796854591" type="Const" version="opset1">
			<data offset="5232" size="64" shape="1,16,1,1" element_type="f32"/>
			<output>
				<port id="0" precision="FP32">
					<dim>1</dim>
					<dim>16</dim>
					<dim>1</dim>
					<dim>1</dim>
				</port>
			</output>
		</layer>
		<layer id="349" name="7965796954399" type="Const" version="opset1">
			<data offset="5168" size="64" shape="1,16,1,1" element_type="f32"/>
			<output>
				<port id="0" precision="FP32">
					<dim>1</dim>
					<dim>16</dim>
					<dim>1</dim>
					<dim>1</dim>
				</port>
			</output>
		</layer>
		<layer id="350" name="7966797055353" type="Const" version="opset1">
			<data offset="5232" size="64" shape="1,16,1,1" element_type="f32"/>
			<output>
				<port id="0" precision="FP32">
					<dim>1</dim>
					<dim>16</dim>
					<dim>1</dim>
					<dim>1</dim>
				</port>
			</output>
		</layer>
		<layer id="351" name="7093709755638" type="Const" version="opset1">
			<data offset="5296" size="4" shape="1,1,1,1" element_type="f32"/>
			<output>
				<port id="0" precision="FP32">
					<dim>1</dim>
					<dim>1</dim>
					<dim>1</dim>
					<dim>1</dim>
				</port>
			</output>
		</layer>
		<layer id="352" name="7094709854468" type="Const" version="opset1">
			<data offset="5300" size="4" shape="1,1,1,1" element_type="f32"/>
			<output>
				<port id="0" precision="FP32">
					<dim>1</dim>
					<dim>1</dim>
					<dim>1</dim>
					<dim>1</dim>
				</port>
			</output>
		</layer>
		<layer id="353" name="7095709956496" type="Const" version="opset1">
			<data offset="5296" size="4" shape="1,1,1,1" element_type="f32"/>
			<output>
				<port id="0" precision="FP32">
					<dim>1</dim>
					<dim>1</dim>
					<dim>1</dim>
					<dim>1</dim>
				</port>
			</output>
		</layer>
		<layer id="354" name="7096710056433" type="Const" version="opset1">
			<data offset="5300" size="4" shape="1,1,1,1" element_type="f32"/>
			<output>
				<port id="0" precision="FP32">
					<dim>1</dim>
					<dim>1</dim>
					<dim>1</dim>
					<dim>1</dim>
				</port>
			</output>
		</layer>
		<layer id="355" name="122831228753166" type="Const" version="opset1">
			<data offset="5304" size="4" shape="1,1,1,1" element_type="f32"/>
			<output>
				<port id="0" precision="FP32">
					<dim>1</dim>
					<dim>1</dim>
					<dim>1</dim>
					<dim>1</dim>
				</port>
			</output>
		</layer>
		<layer id="356" name="122841228853298" type="Const" version="opset1">
			<data offset="5308" size="4" shape="1,1,1,1" element_type="f32"/>
			<output>
				<port id="0" precision="FP32">
					<dim>1</dim>
					<dim>1</dim>
					<dim>1</dim>
					<dim>1</dim>
				</port>
			</output>
		</layer>
		<layer id="357" name="122851228956262" type="Const" version="opset1">
			<data offset="5304" size="4" shape="1,1,1,1" element_type="f32"/>
			<output>
				<port id="0" precision="FP32">
					<dim>1</dim>
					<dim>1</dim>
					<dim>1</dim>
					<dim>1</dim>
				</port>
			</output>
		</layer>
		<layer id="358" name="122861229053742" type="Const" version="opset1">
			<data offset="5308" size="4" shape="1,1,1,1" element_type="f32"/>
			<output>
				<port id="0" precision="FP32">
					<dim>1</dim>
					<dim>1</dim>
					<dim>1</dim>
					<dim>1</dim>
				</port>
			</output>
		</layer>
		<layer id="359" name="108331083757387" type="Const" version="opset1">
			<data offset="5312" size="4" shape="1,1,1,1" element_type="f32"/>
			<output>
				<port id="0" precision="FP32">
					<dim>1</dim>
					<dim>1</dim>
					<dim>1</dim>
					<dim>1</dim>
				</port>
			</output>
		</layer>
		<layer id="360" name="108341083853814" type="Const" version="opset1">
			<data offset="5316" size="4" shape="1,1,1,1" element_type="f32"/>
			<output>
				<port id="0" precision="FP32">
					<dim>1</dim>
					<dim>1</dim>
					<dim>1</dim>
					<dim>1</dim>
				</port>
			</output>
		</layer>
		<layer id="361" name="108351083957633" type="Const" version="opset1">
			<data offset="5312" size="4" shape="1,1,1,1" element_type="f32"/>
			<output>
				<port id="0" precision="FP32">
					<dim>1</dim>
					<dim>1</dim>
					<dim>1</dim>
					<dim>1</dim>
				</port>
			</output>
		</layer>
		<layer id="362" name="108361084056544" type="Const" version="opset1">
			<data offset="5316" size="4" shape="1,1,1,1" element_type="f32"/>
			<output>
				<port id="0" precision="FP32">
					<dim>1</dim>
					<dim>1</dim>
					<dim>1</dim>
					<dim>1</dim>
				</port>
			</output>
		</layer>
		<layer id="363" name="8773877755263" type="Const" version="opset1">
			<data offset="5320" size="64" shape="1,16,1,1" element_type="f32"/>
			<output>
				<port id="0" precision="FP32">
					<dim>1</dim>
					<dim>16</dim>
					<dim>1</dim>
					<dim>1</dim>
				</port>
			</output>
		</layer>
		<layer id="364" name="8774877853334" type="Const" version="opset1">
			<data offset="5384" size="64" shape="1,16,1,1" element_type="f32"/>
			<output>
				<port id="0" precision="FP32">
					<dim>1</dim>
					<dim>16</dim>
					<dim>1</dim>
					<dim>1</dim>
				</port>
			</output>
		</layer>
		<layer id="365" name="8775877954894" type="Const" version="opset1">
			<data offset="5320" size="64" shape="1,16,1,1" element_type="f32"/>
			<output>
				<port id="0" precision="FP32">
					<dim>1</dim>
					<dim>16</dim>
					<dim>1</dim>
					<dim>1</dim>
				</port>
			</output>
		</layer>
		<layer id="366" name="8776878055983" type="Const" version="opset1">
			<data offset="5384" size="64" shape="1,16,1,1" element_type="f32"/>
			<output>
				<port id="0" precision="FP32">
					<dim>1</dim>
					<dim>16</dim>
					<dim>1</dim>
					<dim>1</dim>
				</port>
			</output>
		</layer>
		<layer id="367" name="8023802755194" type="Const" version="opset1">
			<data offset="5448" size="4" shape="1,1,1,1" element_type="f32"/>
			<output>
				<port id="0" precision="FP32">
					<dim>1</dim>
					<dim>1</dim>
					<dim>1</dim>
					<dim>1</dim>
				</port>
			</output>
		</layer>
		<layer id="368" name="8024802855254" type="Const" version="opset1">
			<data offset="5452" size="4" shape="1,1,1,1" element_type="f32"/>
			<output>
				<port id="0" precision="FP32">
					<dim>1</dim>
					<dim>1</dim>
					<dim>1</dim>
					<dim>1</dim>
				</port>
			</output>
		</layer>
		<layer id="369" name="8025802959268" type="Const" version="opset1">
			<data offset="5448" size="4" shape="1,1,1,1" element_type="f32"/>
			<output>
				<port id="0" precision="FP32">
					<dim>1</dim>
					<dim>1</dim>
					<dim>1</dim>
					<dim>1</dim>
				</port>
			</output>
		</layer>
		<layer id="370" name="8026803057393" type="Const" version="opset1">
			<data offset="5452" size="4" shape="1,1,1,1" element_type="f32"/>
			<output>
				<port id="0" precision="FP32">
					<dim>1</dim>
					<dim>1</dim>
					<dim>1</dim>
					<dim>1</dim>
				</port>
			</output>
		</layer>
		<layer id="371" name="8463846754948" type="Const" version="opset1">
			<data offset="5456" size="4" shape="1,1,1,1" element_type="f32"/>
			<output>
				<port id="0" precision="FP32">
					<dim>1</dim>
					<dim>1</dim>
					<dim>1</dim>
					<dim>1</dim>
				</port>
			</output>
		</layer>
		<layer id="372" name="8464846856628" type="Const" version="opset1">
			<data offset="5460" size="4" shape="1,1,1,1" element_type="f32"/>
			<output>
				<port id="0" precision="FP32">
					<dim>1</dim>
					<dim>1</dim>
					<dim>1</dim>
					<dim>1</dim>
				</port>
			</output>
		</layer>
		<layer id="373" name="8465846955821" type="Const" version="opset1">
			<data offset="5456" size="4" shape="1,1,1,1" element_type="f32"/>
			<output>
				<port id="0" precision="FP32">
					<dim>1</dim>
					<dim>1</dim>
					<dim>1</dim>
					<dim>1</dim>
				</port>
			</output>
		</layer>
		<layer id="374" name="8466847056163" type="Const" version="opset1">
			<data offset="5460" size="4" shape="1,1,1,1" element_type="f32"/>
			<output>
				<port id="0" precision="FP32">
					<dim>1</dim>
					<dim>1</dim>
					<dim>1</dim>
					<dim>1</dim>
				</port>
			</output>
		</layer>
		<layer id="375" name="8753875756172" type="Const" version="opset1">
			<data offset="5464" size="4" shape="1,1,1,1" element_type="f32"/>
			<output>
				<port id="0" precision="FP32">
					<dim>1</dim>
					<dim>1</dim>
					<dim>1</dim>
					<dim>1</dim>
				</port>
			</output>
		</layer>
		<layer id="376" name="8754875858857" type="Const" version="opset1">
			<data offset="5468" size="4" shape="1,1,1,1" element_type="f32"/>
			<output>
				<port id="0" precision="FP32">
					<dim>1</dim>
					<dim>1</dim>
					<dim>1</dim>
					<dim>1</dim>
				</port>
			</output>
		</layer>
		<layer id="377" name="8755875957222" type="Const" version="opset1">
			<data offset="5464" size="4" shape="1,1,1,1" element_type="f32"/>
			<output>
				<port id="0" precision="FP32">
					<dim>1</dim>
					<dim>1</dim>
					<dim>1</dim>
					<dim>1</dim>
				</port>
			</output>
		</layer>
		<layer id="378" name="8756876053259" type="Const" version="opset1">
			<data offset="5468" size="4" shape="1,1,1,1" element_type="f32"/>
			<output>
				<port id="0" precision="FP32">
					<dim>1</dim>
					<dim>1</dim>
					<dim>1</dim>
					<dim>1</dim>
				</port>
			</output>
		</layer>
		<layer id="379" name="126331263754513" type="Const" version="opset1">
			<data offset="5472" size="64" shape="1,16,1,1" element_type="f32"/>
			<output>
				<port id="0" precision="FP32">
					<dim>1</dim>
					<dim>16</dim>
					<dim>1</dim>
					<dim>1</dim>
				</port>
			</output>
		</layer>
		<layer id="380" name="126341263858572" type="Const" version="opset1">
			<data offset="5536" size="64" shape="1,16,1,1" element_type="f32"/>
			<output>
				<port id="0" precision="FP32">
					<dim>1</dim>
					<dim>16</dim>
					<dim>1</dim>
					<dim>1</dim>
				</port>
			</output>
		</layer>
		<layer id="381" name="126351263957804" type="Const" version="opset1">
			<data offset="5472" size="64" shape="1,16,1,1" element_type="f32"/>
			<output>
				<port id="0" precision="FP32">
					<dim>1</dim>
					<dim>16</dim>
					<dim>1</dim>
					<dim>1</dim>
				</port>
			</output>
		</layer>
		<layer id="382" name="126361264054531" type="Const" version="opset1">
			<data offset="5536" size="64" shape="1,16,1,1" element_type="f32"/>
			<output>
				<port id="0" precision="FP32">
					<dim>1</dim>
					<dim>16</dim>
					<dim>1</dim>
					<dim>1</dim>
				</port>
			</output>
		</layer>
		<layer id="383" name="9213921753127" type="Const" version="opset1">
			<data offset="5600" size="4" shape="1,1,1,1" element_type="f32"/>
			<output>
				<port id="0" precision="FP32">
					<dim>1</dim>
					<dim>1</dim>
					<dim>1</dim>
					<dim>1</dim>
				</port>
			</output>
		</layer>
		<layer id="384" name="9214921853715" type="Const" version="opset1">
			<data offset="5604" size="4" shape="1,1,1,1" element_type="f32"/>
			<output>
				<port id="0" precision="FP32">
					<dim>1</dim>
					<dim>1</dim>
					<dim>1</dim>
					<dim>1</dim>
				</port>
			</output>
		</layer>
		<layer id="385" name="9215921955350" type="Const" version="opset1">
			<data offset="5600" size="4" shape="1,1,1,1" element_type="f32"/>
			<output>
				<port id="0" precision="FP32">
					<dim>1</dim>
					<dim>1</dim>
					<dim>1</dim>
					<dim>1</dim>
				</port>
			</output>
		</layer>
		<layer id="386" name="9216922057843" type="Const" version="opset1">
			<data offset="5604" size="4" shape="1,1,1,1" element_type="f32"/>
			<output>
				<port id="0" precision="FP32">
					<dim>1</dim>
					<dim>1</dim>
					<dim>1</dim>
					<dim>1</dim>
				</port>
			</output>
		</layer>
		<layer id="387" name="129931299758350" type="Const" version="opset1">
			<data offset="5608" size="4" shape="1,1,1,1" element_type="f32"/>
			<output>
				<port id="0" precision="FP32">
					<dim>1</dim>
					<dim>1</dim>
					<dim>1</dim>
					<dim>1</dim>
				</port>
			</output>
		</layer>
		<layer id="388" name="129941299855314" type="Const" version="opset1">
			<data offset="5612" size="4" shape="1,1,1,1" element_type="f32"/>
			<output>
				<port id="0" precision="FP32">
					<dim>1</dim>
					<dim>1</dim>
					<dim>1</dim>
					<dim>1</dim>
				</port>
			</output>
		</layer>
		<layer id="389" name="129951299955230" type="Const" version="opset1">
			<data offset="5608" size="4" shape="1,1,1,1" element_type="f32"/>
			<output>
				<port id="0" precision="FP32">
					<dim>1</dim>
					<dim>1</dim>
					<dim>1</dim>
					<dim>1</dim>
				</port>
			</output>
		</layer>
		<layer id="390" name="129961300054720" type="Const" version="opset1">
			<data offset="5612" size="4" shape="1,1,1,1" element_type="f32"/>
			<output>
				<port id="0" precision="FP32">
					<dim>1</dim>
					<dim>1</dim>
					<dim>1</dim>
					<dim>1</dim>
				</port>
			</output>
		</layer>
		<layer id="391" name="103331033758443" type="Const" version="opset1">
			<data offset="5616" size="4" shape="1,1,1,1" element_type="f32"/>
			<output>
				<port id="0" precision="FP32">
					<dim>1</dim>
					<dim>1</dim>
					<dim>1</dim>
					<dim>1</dim>
				</port>
			</output>
		</layer>
		<layer id="392" name="103341033858956" type="Const" version="opset1">
			<data offset="5620" size="4" shape="1,1,1,1" element_type="f32"/>
			<output>
				<port id="0" precision="FP32">
					<dim>1</dim>
					<dim>1</dim>
					<dim>1</dim>
					<dim>1</dim>
				</port>
			</output>
		</layer>
		<layer id="393" name="103351033956772" type="Const" version="opset1">
			<data offset="5616" size="4" shape="1,1,1,1" element_type="f32"/>
			<output>
				<port id="0" precision="FP32">
					<dim>1</dim>
					<dim>1</dim>
					<dim>1</dim>
					<dim>1</dim>
				</port>
			</output>
		</layer>
		<layer id="394" name="103361034053526" type="Const" version="opset1">
			<data offset="5620" size="4" shape="1,1,1,1" element_type="f32"/>
			<output>
				<port id="0" precision="FP32">
					<dim>1</dim>
					<dim>1</dim>
					<dim>1</dim>
					<dim>1</dim>
				</port>
			</output>
		</layer>
		<layer id="395" name="133031330757966" type="Const" version="opset1">
			<data offset="5624" size="32" shape="1,8,1,1" element_type="f32"/>
			<output>
				<port id="0" precision="FP32">
					<dim>1</dim>
					<dim>8</dim>
					<dim>1</dim>
					<dim>1</dim>
				</port>
			</output>
		</layer>
		<layer id="396" name="133041330858665" type="Const" version="opset1">
			<data offset="5656" size="32" shape="1,8,1,1" element_type="f32"/>
			<output>
				<port id="0" precision="FP32">
					<dim>1</dim>
					<dim>8</dim>
					<dim>1</dim>
					<dim>1</dim>
				</port>
			</output>
		</layer>
		<layer id="397" name="133051330957024" type="Const" version="opset1">
			<data offset="5624" size="32" shape="1,8,1,1" element_type="f32"/>
			<output>
				<port id="0" precision="FP32">
					<dim>1</dim>
					<dim>8</dim>
					<dim>1</dim>
					<dim>1</dim>
				</port>
			</output>
		</layer>
		<layer id="398" name="133061331057336" type="Const" version="opset1">
			<data offset="5656" size="32" shape="1,8,1,1" element_type="f32"/>
			<output>
				<port id="0" precision="FP32">
					<dim>1</dim>
					<dim>8</dim>
					<dim>1</dim>
					<dim>1</dim>
				</port>
			</output>
		</layer>
		<layer id="399" name="107031070758641" type="Const" version="opset1">
			<data offset="5688" size="4" shape="1,1,1,1" element_type="f32"/>
			<output>
				<port id="0" precision="FP32">
					<dim>1</dim>
					<dim>1</dim>
					<dim>1</dim>
					<dim>1</dim>
				</port>
			</output>
		</layer>
		<layer id="400" name="107041070853919" type="Const" version="opset1">
			<data offset="5692" size="4" shape="1,1,1,1" element_type="f32"/>
			<output>
				<port id="0" precision="FP32">
					<dim>1</dim>
					<dim>1</dim>
					<dim>1</dim>
					<dim>1</dim>
				</port>
			</output>
		</layer>
		<layer id="401" name="107051070955422" type="Const" version="opset1">
			<data offset="5688" size="4" shape="1,1,1,1" element_type="f32"/>
			<output>
				<port id="0" precision="FP32">
					<dim>1</dim>
					<dim>1</dim>
					<dim>1</dim>
					<dim>1</dim>
				</port>
			</output>
		</layer>
		<layer id="402" name="107061071059061" type="Const" version="opset1">
			<data offset="5692" size="4" shape="1,1,1,1" element_type="f32"/>
			<output>
				<port id="0" precision="FP32">
					<dim>1</dim>
					<dim>1</dim>
					<dim>1</dim>
					<dim>1</dim>
				</port>
			</output>
		</layer>
		<layer id="403" name="124031240753079" type="Const" version="opset1">
			<data offset="5696" size="4" shape="1,1,1,1" element_type="f32"/>
			<output>
				<port id="0" precision="FP32">
					<dim>1</dim>
					<dim>1</dim>
					<dim>1</dim>
					<dim>1</dim>
				</port>
			</output>
		</layer>
		<layer id="404" name="124041240855929" type="Const" version="opset1">
			<data offset="5700" size="4" shape="1,1,1,1" element_type="f32"/>
			<output>
				<port id="0" precision="FP32">
					<dim>1</dim>
					<dim>1</dim>
					<dim>1</dim>
					<dim>1</dim>
				</port>
			</output>
		</layer>
		<layer id="405" name="124051240952650" type="Const" version="opset1">
			<data offset="5696" size="4" shape="1,1,1,1" element_type="f32"/>
			<output>
				<port id="0" precision="FP32">
					<dim>1</dim>
					<dim>1</dim>
					<dim>1</dim>
					<dim>1</dim>
				</port>
			</output>
		</layer>
		<layer id="406" name="124061241054366" type="Const" version="opset1">
			<data offset="5700" size="4" shape="1,1,1,1" element_type="f32"/>
			<output>
				<port id="0" precision="FP32">
					<dim>1</dim>
					<dim>1</dim>
					<dim>1</dim>
					<dim>1</dim>
				</port>
			</output>
		</layer>
		<layer id="407" name="7583758757876" type="Const" version="opset1">
			<data offset="5704" size="4" shape="1,1,1,1" element_type="f32"/>
			<output>
				<port id="0" precision="FP32">
					<dim>1</dim>
					<dim>1</dim>
					<dim>1</dim>
					<dim>1</dim>
				</port>
			</output>
		</layer>
		<layer id="408" name="7584758855800" type="Const" version="opset1">
			<data offset="5708" size="4" shape="1,1,1,1" element_type="f32"/>
			<output>
				<port id="0" precision="FP32">
					<dim>1</dim>
					<dim>1</dim>
					<dim>1</dim>
					<dim>1</dim>
				</port>
			</output>
		</layer>
		<layer id="409" name="7585758957948" type="Const" version="opset1">
			<data offset="5704" size="4" shape="1,1,1,1" element_type="f32"/>
			<output>
				<port id="0" precision="FP32">
					<dim>1</dim>
					<dim>1</dim>
					<dim>1</dim>
					<dim>1</dim>
				</port>
			</output>
		</layer>
		<layer id="410" name="7586759053811" type="Const" version="opset1">
			<data offset="5708" size="4" shape="1,1,1,1" element_type="f32"/>
			<output>
				<port id="0" precision="FP32">
					<dim>1</dim>
					<dim>1</dim>
					<dim>1</dim>
					<dim>1</dim>
				</port>
			</output>
		</layer>
		<layer id="411" name="9683968757354" type="Const" version="opset1">
			<data offset="5712" size="32" shape="1,8,1,1" element_type="f32"/>
			<output>
				<port id="0" precision="FP32">
					<dim>1</dim>
					<dim>8</dim>
					<dim>1</dim>
					<dim>1</dim>
				</port>
			</output>
		</layer>
		<layer id="412" name="9684968857306" type="Const" version="opset1">
			<data offset="5744" size="32" shape="1,8,1,1" element_type="f32"/>
			<output>
				<port id="0" precision="FP32">
					<dim>1</dim>
					<dim>8</dim>
					<dim>1</dim>
					<dim>1</dim>
				</port>
			</output>
		</layer>
		<layer id="413" name="9685968955761" type="Const" version="opset1">
			<data offset="5712" size="32" shape="1,8,1,1" element_type="f32"/>
			<output>
				<port id="0" precision="FP32">
					<dim>1</dim>
					<dim>8</dim>
					<dim>1</dim>
					<dim>1</dim>
				</port>
			</output>
		</layer>
		<layer id="414" name="9686969057234" type="Const" version="opset1">
			<data offset="5744" size="32" shape="1,8,1,1" element_type="f32"/>
			<output>
				<port id="0" precision="FP32">
					<dim>1</dim>
					<dim>8</dim>
					<dim>1</dim>
					<dim>1</dim>
				</port>
			</output>
		</layer>
		<layer id="415" name="9273927753745" type="Const" version="opset1">
			<data offset="5776" size="4" shape="1,1,1,1" element_type="f32"/>
			<output>
				<port id="0" precision="FP32">
					<dim>1</dim>
					<dim>1</dim>
					<dim>1</dim>
					<dim>1</dim>
				</port>
			</output>
		</layer>
		<layer id="416" name="9274927859337" type="Const" version="opset1">
			<data offset="5780" size="4" shape="1,1,1,1" element_type="f32"/>
			<output>
				<port id="0" precision="FP32">
					<dim>1</dim>
					<dim>1</dim>
					<dim>1</dim>
					<dim>1</dim>
				</port>
			</output>
		</layer>
		<layer id="417" name="9275927953061" type="Const" version="opset1">
			<data offset="5776" size="4" shape="1,1,1,1" element_type="f32"/>
			<output>
				<port id="0" precision="FP32">
					<dim>1</dim>
					<dim>1</dim>
					<dim>1</dim>
					<dim>1</dim>
				</port>
			</output>
		</layer>
		<layer id="418" name="9276928058005" type="Const" version="opset1">
			<data offset="5780" size="4" shape="1,1,1,1" element_type="f32"/>
			<output>
				<port id="0" precision="FP32">
					<dim>1</dim>
					<dim>1</dim>
					<dim>1</dim>
					<dim>1</dim>
				</port>
			</output>
		</layer>
		<layer id="419" name="118631186757582" type="Const" version="opset1">
			<data offset="5784" size="4" shape="1,1,1,1" element_type="f32"/>
			<output>
				<port id="0" precision="FP32">
					<dim>1</dim>
					<dim>1</dim>
					<dim>1</dim>
					<dim>1</dim>
				</port>
			</output>
		</layer>
		<layer id="420" name="118641186855965" type="Const" version="opset1">
			<data offset="5788" size="4" shape="1,1,1,1" element_type="f32"/>
			<output>
				<port id="0" precision="FP32">
					<dim>1</dim>
					<dim>1</dim>
					<dim>1</dim>
					<dim>1</dim>
				</port>
			</output>
		</layer>
		<layer id="421" name="118651186956886" type="Const" version="opset1">
			<data offset="5784" size="4" shape="1,1,1,1" element_type="f32"/>
			<output>
				<port id="0" precision="FP32">
					<dim>1</dim>
					<dim>1</dim>
					<dim>1</dim>
					<dim>1</dim>
				</port>
			</output>
		</layer>
		<layer id="422" name="118661187052824" type="Const" version="opset1">
			<data offset="5788" size="4" shape="1,1,1,1" element_type="f32"/>
			<output>
				<port id="0" precision="FP32">
					<dim>1</dim>
					<dim>1</dim>
					<dim>1</dim>
					<dim>1</dim>
				</port>
			</output>
		</layer>
		<layer id="423" name="9663966754168" type="Const" version="opset1">
			<data offset="5792" size="4" shape="1,1,1,1" element_type="f32"/>
			<output>
				<port id="0" precision="FP32">
					<dim>1</dim>
					<dim>1</dim>
					<dim>1</dim>
					<dim>1</dim>
				</port>
			</output>
		</layer>
		<layer id="424" name="9664966858953" type="Const" version="opset1">
			<data offset="5796" size="4" shape="1,1,1,1" element_type="f32"/>
			<output>
				<port id="0" precision="FP32">
					<dim>1</dim>
					<dim>1</dim>
					<dim>1</dim>
					<dim>1</dim>
				</port>
			</output>
		</layer>
		<layer id="425" name="9665966953328" type="Const" version="opset1">
			<data offset="5792" size="4" shape="1,1,1,1" element_type="f32"/>
			<output>
				<port id="0" precision="FP32">
					<dim>1</dim>
					<dim>1</dim>
					<dim>1</dim>
					<dim>1</dim>
				</port>
			</output>
		</layer>
		<layer id="426" name="9666967054570" type="Const" version="opset1">
			<data offset="5796" size="4" shape="1,1,1,1" element_type="f32"/>
			<output>
				<port id="0" precision="FP32">
					<dim>1</dim>
					<dim>1</dim>
					<dim>1</dim>
					<dim>1</dim>
				</port>
			</output>
		</layer>
		<layer id="427" name="8593859756847" type="Const" version="opset1">
			<data offset="5800" size="32" shape="1,8,1,1" element_type="f32"/>
			<output>
				<port id="0" precision="FP32">
					<dim>1</dim>
					<dim>8</dim>
					<dim>1</dim>
					<dim>1</dim>
				</port>
			</output>
		</layer>
		<layer id="428" name="8594859858722" type="Const" version="opset1">
			<data offset="5832" size="32" shape="1,8,1,1" element_type="f32"/>
			<output>
				<port id="0" precision="FP32">
					<dim>1</dim>
					<dim>8</dim>
					<dim>1</dim>
					<dim>1</dim>
				</port>
			</output>
		</layer>
		<layer id="429" name="8595859954624" type="Const" version="opset1">
			<data offset="5800" size="32" shape="1,8,1,1" element_type="f32"/>
			<output>
				<port id="0" precision="FP32">
					<dim>1</dim>
					<dim>8</dim>
					<dim>1</dim>
					<dim>1</dim>
				</port>
			</output>
		</layer>
		<layer id="430" name="8596860054264" type="Const" version="opset1">
			<data offset="5832" size="32" shape="1,8,1,1" element_type="f32"/>
			<output>
				<port id="0" precision="FP32">
					<dim>1</dim>
					<dim>8</dim>
					<dim>1</dim>
					<dim>1</dim>
				</port>
			</output>
		</layer>
		<layer id="431" name="117031170754144" type="Const" version="opset1">
			<data offset="5864" size="4" shape="1,1,1,1" element_type="f32"/>
			<output>
				<port id="0" precision="FP32">
					<dim>1</dim>
					<dim>1</dim>
					<dim>1</dim>
					<dim>1</dim>
				</port>
			</output>
		</layer>
		<layer id="432" name="117041170858413" type="Const" version="opset1">
			<data offset="5868" size="4" shape="1,1,1,1" element_type="f32"/>
			<output>
				<port id="0" precision="FP32">
					<dim>1</dim>
					<dim>1</dim>
					<dim>1</dim>
					<dim>1</dim>
				</port>
			</output>
		</layer>
		<layer id="433" name="117051170955626" type="Const" version="opset1">
			<data offset="5864" size="4" shape="1,1,1,1" element_type="f32"/>
			<output>
				<port id="0" precision="FP32">
					<dim>1</dim>
					<dim>1</dim>
					<dim>1</dim>
					<dim>1</dim>
				</port>
			</output>
		</layer>
		<layer id="434" name="117061171053121" type="Const" version="opset1">
			<data offset="5868" size="4" shape="1,1,1,1" element_type="f32"/>
			<output>
				<port id="0" precision="FP32">
					<dim>1</dim>
					<dim>1</dim>
					<dim>1</dim>
					<dim>1</dim>
				</port>
			</output>
		</layer>
		<layer id="435" name="7823782753646" type="Const" version="opset1">
			<data offset="5872" size="4" shape="1,1,1,1" element_type="f32"/>
			<output>
				<port id="0" precision="FP32">
					<dim>1</dim>
					<dim>1</dim>
					<dim>1</dim>
					<dim>1</dim>
				</port>
			</output>
		</layer>
		<layer id="436" name="7824782853100" type="Const" version="opset1">
			<data offset="5876" size="4" shape="1,1,1,1" element_type="f32"/>
			<output>
				<port id="0" precision="FP32">
					<dim>1</dim>
					<dim>1</dim>
					<dim>1</dim>
					<dim>1</dim>
				</port>
			</output>
		</layer>
		<layer id="437" name="7825782952914" type="Const" version="opset1">
			<data offset="5872" size="4" shape="1,1,1,1" element_type="f32"/>
			<output>
				<port id="0" precision="FP32">
					<dim>1</dim>
					<dim>1</dim>
					<dim>1</dim>
					<dim>1</dim>
				</port>
			</output>
		</layer>
		<layer id="438" name="7826783054576" type="Const" version="opset1">
			<data offset="5876" size="4" shape="1,1,1,1" element_type="f32"/>
			<output>
				<port id="0" precision="FP32">
					<dim>1</dim>
					<dim>1</dim>
					<dim>1</dim>
					<dim>1</dim>
				</port>
			</output>
		</layer>
		<layer id="439" name="7443744752713" type="Const" version="opset1">
			<data offset="5880" size="4" shape="1,1,1,1" element_type="f32"/>
			<output>
				<port id="0" precision="FP32">
					<dim>1</dim>
					<dim>1</dim>
					<dim>1</dim>
					<dim>1</dim>
				</port>
			</output>
		</layer>
		<layer id="440" name="7444744853421" type="Const" version="opset1">
			<data offset="5884" size="4" shape="1,1,1,1" element_type="f32"/>
			<output>
				<port id="0" precision="FP32">
					<dim>1</dim>
					<dim>1</dim>
					<dim>1</dim>
					<dim>1</dim>
				</port>
			</output>
		</layer>
		<layer id="441" name="7445744954999" type="Const" version="opset1">
			<data offset="5880" size="4" shape="1,1,1,1" element_type="f32"/>
			<output>
				<port id="0" precision="FP32">
					<dim>1</dim>
					<dim>1</dim>
					<dim>1</dim>
					<dim>1</dim>
				</port>
			</output>
		</layer>
		<layer id="442" name="7446745056343" type="Const" version="opset1">
			<data offset="5884" size="4" shape="1,1,1,1" element_type="f32"/>
			<output>
				<port id="0" precision="FP32">
					<dim>1</dim>
					<dim>1</dim>
					<dim>1</dim>
					<dim>1</dim>
				</port>
			</output>
		</layer>
		<layer id="443" name="8443844752836" type="Const" version="opset1">
			<data offset="5888" size="32" shape="1,8,1,1" element_type="f32"/>
			<output>
				<port id="0" precision="FP32">
					<dim>1</dim>
					<dim>8</dim>
					<dim>1</dim>
					<dim>1</dim>
				</port>
			</output>
		</layer>
		<layer id="444" name="8444844856181" type="Const" version="opset1">
			<data offset="5920" size="32" shape="1,8,1,1" element_type="f32"/>
			<output>
				<port id="0" precision="FP32">
					<dim>1</dim>
					<dim>8</dim>
					<dim>1</dim>
					<dim>1</dim>
				</port>
			</output>
		</layer>
		<layer id="445" name="8445844953799" type="Const" version="opset1">
			<data offset="5888" size="32" shape="1,8,1,1" element_type="f32"/>
			<output>
				<port id="0" precision="FP32">
					<dim>1</dim>
					<dim>8</dim>
					<dim>1</dim>
					<dim>1</dim>
				</port>
			</output>
		</layer>
		<layer id="446" name="8446845055413" type="Const" version="opset1">
			<data offset="5920" size="32" shape="1,8,1,1" element_type="f32"/>
			<output>
				<port id="0" precision="FP32">
					<dim>1</dim>
					<dim>8</dim>
					<dim>1</dim>
					<dim>1</dim>
				</port>
			</output>
		</layer>
		<layer id="447" name="8163816758611" type="Const" version="opset1">
			<data offset="5952" size="4" shape="1,1,1,1" element_type="f32"/>
			<output>
				<port id="0" precision="FP32">
					<dim>1</dim>
					<dim>1</dim>
					<dim>1</dim>
					<dim>1</dim>
				</port>
			</output>
		</layer>
		<layer id="448" name="8164816856034" type="Const" version="opset1">
			<data offset="5956" size="4" shape="1,1,1,1" element_type="f32"/>
			<output>
				<port id="0" precision="FP32">
					<dim>1</dim>
					<dim>1</dim>
					<dim>1</dim>
					<dim>1</dim>
				</port>
			</output>
		</layer>
		<layer id="449" name="8165816959355" type="Const" version="opset1">
			<data offset="5952" size="4" shape="1,1,1,1" element_type="f32"/>
			<output>
				<port id="0" precision="FP32">
					<dim>1</dim>
					<dim>1</dim>
					<dim>1</dim>
					<dim>1</dim>
				</port>
			</output>
		</layer>
		<layer id="450" name="8166817056958" type="Const" version="opset1">
			<data offset="5956" size="4" shape="1,1,1,1" element_type="f32"/>
			<output>
				<port id="0" precision="FP32">
					<dim>1</dim>
					<dim>1</dim>
					<dim>1</dim>
					<dim>1</dim>
				</port>
			</output>
		</layer>
		<layer id="451" name="109531095758710" type="Const" version="opset1">
			<data offset="5960" size="4" shape="1,1,1,1" element_type="f32"/>
			<output>
				<port id="0" precision="FP32">
					<dim>1</dim>
					<dim>1</dim>
					<dim>1</dim>
					<dim>1</dim>
				</port>
			</output>
		</layer>
		<layer id="452" name="109541095857327" type="Const" version="opset1">
			<data offset="5964" size="4" shape="1,1,1,1" element_type="f32"/>
			<output>
				<port id="0" precision="FP32">
					<dim>1</dim>
					<dim>1</dim>
					<dim>1</dim>
					<dim>1</dim>
				</port>
			</output>
		</layer>
		<layer id="453" name="109551095959328" type="Const" version="opset1">
			<data offset="5960" size="4" shape="1,1,1,1" element_type="f32"/>
			<output>
				<port id="0" precision="FP32">
					<dim>1</dim>
					<dim>1</dim>
					<dim>1</dim>
					<dim>1</dim>
				</port>
			</output>
		</layer>
		<layer id="454" name="109561096055146" type="Const" version="opset1">
			<data offset="5964" size="4" shape="1,1,1,1" element_type="f32"/>
			<output>
				<port id="0" precision="FP32">
					<dim>1</dim>
					<dim>1</dim>
					<dim>1</dim>
					<dim>1</dim>
				</port>
			</output>
		</layer>
		<layer id="456" name="Constant_75772147" type="Const" version="opset1">
			<data offset="5968" size="32" shape="4" element_type="i64"/>
			<output>
				<port id="0" precision="I64">
					<dim>4</dim>
				</port>
			</output>
		</layer>
		<layer id="457" name="Transpose_7578" type="Transpose" version="opset1">
			<input>
				<port id="0">
					<dim>1</dim>
					<dim>400</dim>
					<dim>680</dim>
					<dim>3</dim>
				</port>
				<port id="1">
					<dim>4</dim>
				</port>
			</input>
			<output>
				<port id="2" precision="FP32">
					<dim>1</dim>
					<dim>3</dim>
					<dim>400</dim>
					<dim>680</dim>
				</port>
			</output>
		</layer>
		<layer id="458" name="Transpose_7582215057609" type="Const" version="opset1">
			<data offset="6000" size="6" shape="1,3,1,1" element_type="f16"/>
			<output>
				<port id="0" precision="FP16">
					<dim>1</dim>
					<dim>3</dim>
					<dim>1</dim>
					<dim>1</dim>
				</port>
			</output>
		</layer>
		<layer id="459" name="Transpose_7582215028728/restored_convert" type="Convert" version="opset1">
			<data destination_type="f32"/>
			<rt_info>
				<attribute name="decompression" version="0"/>
			</rt_info>
			<input>
				<port id="0">
					<dim>1</dim>
					<dim>3</dim>
					<dim>1</dim>
					<dim>1</dim>
				</port>
			</input>
			<output>
				<port id="1" precision="FP32">
					<dim>1</dim>
					<dim>3</dim>
					<dim>1</dim>
					<dim>1</dim>
				</port>
			</output>
		</layer>
		<layer id="460" name="Transpose_7572" type="Multiply" version="opset1">
			<data auto_broadcast="numpy"/>
			<input>
				<port id="0">
					<dim>1</dim>
					<dim>3</dim>
					<dim>400</dim>
					<dim>680</dim>
				</port>
				<port id="1">
					<dim>1</dim>
					<dim>3</dim>
					<dim>1</dim>
					<dim>1</dim>
				</port>
			</input>
			<output>
				<port id="2" precision="FP32">
					<dim>1</dim>
					<dim>3</dim>
					<dim>400</dim>
					<dim>680</dim>
				</port>
			</output>
		</layer>
		<layer id="461" name="Transpose_7576215356883" type="Const" version="opset1">
			<data offset="6006" size="6" shape="1,3,1,1" element_type="f16"/>
			<output>
				<port id="0" precision="FP16">
					<dim>1</dim>
					<dim>3</dim>
					<dim>1</dim>
					<dim>1</dim>
				</port>
			</output>
		</layer>
		<layer id="462" name="Transpose_7576215328729/restored_convert" type="Convert" version="opset1">
			<data destination_type="f32"/>
			<rt_info>
				<attribute name="decompression" version="0"/>
			</rt_info>
			<input>
				<port id="0">
					<dim>1</dim>
					<dim>3</dim>
					<dim>1</dim>
					<dim>1</dim>
				</port>
			</input>
			<output>
				<port id="1" precision="FP32">
					<dim>1</dim>
					<dim>3</dim>
					<dim>1</dim>
					<dim>1</dim>
				</port>
			</output>
		</layer>
		<layer id="463" name="Transpose_43" type="Add" version="opset1">
			<data auto_broadcast="numpy"/>
			<input>
				<port id="0">
					<dim>1</dim>
					<dim>3</dim>
					<dim>400</dim>
					<dim>680</dim>
				</port>
				<port id="1">
					<dim>1</dim>
					<dim>3</dim>
					<dim>1</dim>
					<dim>1</dim>
				</port>
			</input>
			<output>
				<port id="2" precision="FP32">
					<dim>1</dim>
					<dim>3</dim>
					<dim>400</dim>
					<dim>680</dim>
				</port>
			</output>
		</layer>
		<layer id="464" name="Convolution_46/fq_input_0" type="FakeQuantize" version="opset1">
			<data levels="256" auto_broadcast="numpy"/>
			<input>
				<port id="0">
					<dim>1</dim>
					<dim>3</dim>
					<dim>400</dim>
					<dim>680</dim>
				</port>
				<port id="1">
					<dim>1</dim>
					<dim>1</dim>
					<dim>1</dim>
					<dim>1</dim>
				</port>
				<port id="2">
					<dim>1</dim>
					<dim>1</dim>
					<dim>1</dim>
					<dim>1</dim>
				</port>
				<port id="3">
					<dim>1</dim>
					<dim>1</dim>
					<dim>1</dim>
					<dim>1</dim>
				</port>
				<port id="4">
					<dim>1</dim>
					<dim>1</dim>
					<dim>1</dim>
					<dim>1</dim>
				</port>
			</input>
			<output>
				<port id="5" precision="FP32">
					<dim>1</dim>
					<dim>3</dim>
					<dim>400</dim>
					<dim>680</dim>
				</port>
			</output>
		</layer>
		<layer id="465" name="Convolution_46/fq_weights_1/scale3379755101" type="Const" version="opset1">
			<data offset="6012" size="128" shape="32,1,1,1" element_type="f32"/>
			<output>
				<port id="0" precision="FP32">
					<dim>32</dim>
					<dim>1</dim>
					<dim>1</dim>
					<dim>1</dim>
				</port>
			</output>
		</layer>
		<layer id="466" name="Transpose_45215628730/restored_convert/quantized3378958011" type="Const" version="opset1">
			<data offset="6140" size="864" shape="32,3,3,3" element_type="i8"/>
			<output>
				<port id="0" precision="I8">
					<dim>32</dim>
					<dim>3</dim>
					<dim>3</dim>
					<dim>3</dim>
				</port>
			</output>
		</layer>
		<layer id="467" name="Transpose_45215628730/restored_convert/quantized/to_f32" type="Convert" version="opset1">
			<data destination_type="f32"/>
			<input>
				<port id="0">
					<dim>32</dim>
					<dim>3</dim>
					<dim>3</dim>
					<dim>3</dim>
				</port>
			</input>
			<output>
				<port id="1" precision="FP32">
					<dim>32</dim>
					<dim>3</dim>
					<dim>3</dim>
					<dim>3</dim>
				</port>
			</output>
		</layer>
		<layer id="468" name="Convolution_46/fq_weights_1/mulpiply_by_scale" type="Multiply" version="opset1">
			<data auto_broadcast="numpy"/>
			<input>
				<port id="0">
					<dim>32</dim>
					<dim>3</dim>
					<dim>3</dim>
					<dim>3</dim>
				</port>
				<port id="1">
					<dim>32</dim>
					<dim>1</dim>
					<dim>1</dim>
					<dim>1</dim>
				</port>
			</input>
			<output>
				<port id="2" precision="FP32">
					<dim>32</dim>
					<dim>3</dim>
					<dim>3</dim>
					<dim>3</dim>
				</port>
			</output>
		</layer>
		<layer id="469" name="Convolution_46" type="Convolution" version="opset1">
			<data auto_pad="same_upper" strides="2,2" dilations="1,1" pads_begin="0,0" pads_end="0,0"/>
			<input>
				<port id="0">
					<dim>1</dim>
					<dim>3</dim>
					<dim>400</dim>
					<dim>680</dim>
				</port>
				<port id="1">
					<dim>32</dim>
					<dim>3</dim>
					<dim>3</dim>
					<dim>3</dim>
				</port>
			</input>
			<output>
				<port id="2" precision="FP32">
					<dim>1</dim>
					<dim>32</dim>
					<dim>200</dim>
					<dim>340</dim>
				</port>
			</output>
		</layer>
		<layer id="470" name="Transpose_3288215955671" type="Const" version="opset1">
			<data offset="7004" size="64" shape="1,32,1,1" element_type="f16"/>
			<output>
				<port id="0" precision="FP16">
					<dim>1</dim>
					<dim>32</dim>
					<dim>1</dim>
					<dim>1</dim>
				</port>
			</output>
		</layer>
		<layer id="471" name="Transpose_3288215928731/restored_convert" type="Convert" version="opset1">
			<data destination_type="f32"/>
			<rt_info>
				<attribute name="decompression" version="0"/>
			</rt_info>
			<input>
				<port id="0">
					<dim>1</dim>
					<dim>32</dim>
					<dim>1</dim>
					<dim>1</dim>
				</port>
			</input>
			<output>
				<port id="1" precision="FP32">
					<dim>1</dim>
					<dim>32</dim>
					<dim>1</dim>
					<dim>1</dim>
				</port>
			</output>
		</layer>
		<layer id="472" name="Transpose_7600" type="Add" version="opset1">
			<data auto_broadcast="numpy"/>
			<input>
				<port id="0">
					<dim>1</dim>
					<dim>32</dim>
					<dim>200</dim>
					<dim>340</dim>
				</port>
				<port id="1">
					<dim>1</dim>
					<dim>32</dim>
					<dim>1</dim>
					<dim>1</dim>
				</port>
			</input>
			<output>
				<port id="2" precision="FP32">
					<dim>1</dim>
					<dim>32</dim>
					<dim>200</dim>
					<dim>340</dim>
				</port>
			</output>
		</layer>
		<layer id="473" name="Transpose_3294216254447" type="Const" version="opset1">
			<data offset="7068" size="2" shape="1,1,1,1" element_type="f16"/>
			<output>
				<port id="0" precision="FP16">
					<dim>1</dim>
					<dim>1</dim>
					<dim>1</dim>
					<dim>1</dim>
				</port>
			</output>
		</layer>
		<layer id="474" name="Transpose_3294216228732/restored_convert" type="Convert" version="opset1">
			<data destination_type="f32"/>
			<rt_info>
				<attribute name="decompression" version="0"/>
			</rt_info>
			<input>
				<port id="0">
					<dim>1</dim>
					<dim>1</dim>
					<dim>1</dim>
					<dim>1</dim>
				</port>
			</input>
			<output>
				<port id="1" precision="FP32">
					<dim>1</dim>
					<dim>1</dim>
					<dim>1</dim>
					<dim>1</dim>
				</port>
			</output>
		</layer>
		<layer id="475" name="Transpose_59" type="PReLU" version="opset1">
			<input>
				<port id="0">
					<dim>1</dim>
					<dim>32</dim>
					<dim>200</dim>
					<dim>340</dim>
				</port>
				<port id="1">
					<dim>1</dim>
					<dim>1</dim>
					<dim>1</dim>
					<dim>1</dim>
				</port>
			</input>
			<output>
				<port id="2" precision="FP32">
					<dim>1</dim>
					<dim>32</dim>
					<dim>200</dim>
					<dim>340</dim>
				</port>
			</output>
		</layer>
		<layer id="476" name="Convolution_62/fq_input_0" type="FakeQuantize" version="opset1">
			<data levels="256" auto_broadcast="numpy"/>
			<input>
				<port id="0">
					<dim>1</dim>
					<dim>32</dim>
					<dim>200</dim>
					<dim>340</dim>
				</port>
				<port id="1">
					<dim>1</dim>
					<dim>1</dim>
					<dim>1</dim>
					<dim>1</dim>
				</port>
				<port id="2">
					<dim>1</dim>
					<dim>1</dim>
					<dim>1</dim>
					<dim>1</dim>
				</port>
				<port id="3">
					<dim>1</dim>
					<dim>1</dim>
					<dim>1</dim>
					<dim>1</dim>
				</port>
				<port id="4">
					<dim>1</dim>
					<dim>1</dim>
					<dim>1</dim>
					<dim>1</dim>
				</port>
			</input>
			<output>
				<port id="5" precision="FP32">
					<dim>1</dim>
					<dim>32</dim>
					<dim>200</dim>
					<dim>340</dim>
				</port>
			</output>
		</layer>
		<layer id="477" name="Convolution_62/fq_weights_1/scale3880757918" type="Const" version="opset1">
			<data offset="7070" size="32" shape="8,1,1,1" element_type="f32"/>
			<output>
				<port id="0" precision="FP32">
					<dim>8</dim>
					<dim>1</dim>
					<dim>1</dim>
					<dim>1</dim>
				</port>
			</output>
		</layer>
		<layer id="478" name="Transpose_61216528733/restored_convert/quantized3879959313" type="Const" version="opset1">
			<data offset="7102" size="256" shape="8,32,1,1" element_type="i8"/>
			<output>
				<port id="0" precision="I8">
					<dim>8</dim>
					<dim>32</dim>
					<dim>1</dim>
					<dim>1</dim>
				</port>
			</output>
		</layer>
		<layer id="479" name="Transpose_61216528733/restored_convert/quantized/to_f32" type="Convert" version="opset1">
			<data destination_type="f32"/>
			<input>
				<port id="0">
					<dim>8</dim>
					<dim>32</dim>
					<dim>1</dim>
					<dim>1</dim>
				</port>
			</input>
			<output>
				<port id="1" precision="FP32">
					<dim>8</dim>
					<dim>32</dim>
					<dim>1</dim>
					<dim>1</dim>
				</port>
			</output>
		</layer>
		<layer id="480" name="Convolution_62/fq_weights_1/mulpiply_by_scale" type="Multiply" version="opset1">
			<data auto_broadcast="numpy"/>
			<input>
				<port id="0">
					<dim>8</dim>
					<dim>32</dim>
					<dim>1</dim>
					<dim>1</dim>
				</port>
				<port id="1">
					<dim>8</dim>
					<dim>1</dim>
					<dim>1</dim>
					<dim>1</dim>
				</port>
			</input>
			<output>
				<port id="2" precision="FP32">
					<dim>8</dim>
					<dim>32</dim>
					<dim>1</dim>
					<dim>1</dim>
				</port>
			</output>
		</layer>
		<layer id="481" name="Convolution_62" type="Convolution" version="opset1">
			<data auto_pad="same_upper" strides="1,1" dilations="1,1" pads_begin="0,0" pads_end="0,0"/>
			<input>
				<port id="0">
					<dim>1</dim>
					<dim>32</dim>
					<dim>200</dim>
					<dim>340</dim>
				</port>
				<port id="1">
					<dim>8</dim>
					<dim>32</dim>
					<dim>1</dim>
					<dim>1</dim>
				</port>
			</input>
			<output>
				<port id="2" precision="FP32">
					<dim>1</dim>
					<dim>8</dim>
					<dim>200</dim>
					<dim>340</dim>
				</port>
			</output>
		</layer>
		<layer id="482" name="Transpose_3300216854045" type="Const" version="opset1">
			<data offset="7358" size="16" shape="1,8,1,1" element_type="f16"/>
			<output>
				<port id="0" precision="FP16">
					<dim>1</dim>
					<dim>8</dim>
					<dim>1</dim>
					<dim>1</dim>
				</port>
			</output>
		</layer>
		<layer id="483" name="Transpose_3300216828734/restored_convert" type="Convert" version="opset1">
			<data destination_type="f32"/>
			<rt_info>
				<attribute name="decompression" version="0"/>
			</rt_info>
			<input>
				<port id="0">
					<dim>1</dim>
					<dim>8</dim>
					<dim>1</dim>
					<dim>1</dim>
				</port>
			</input>
			<output>
				<port id="1" precision="FP32">
					<dim>1</dim>
					<dim>8</dim>
					<dim>1</dim>
					<dim>1</dim>
				</port>
			</output>
		</layer>
		<layer id="484" name="Transpose_3302" type="Add" version="opset1">
			<data auto_broadcast="numpy"/>
			<input>
				<port id="0">
					<dim>1</dim>
					<dim>8</dim>
					<dim>200</dim>
					<dim>340</dim>
				</port>
				<port id="1">
					<dim>1</dim>
					<dim>8</dim>
					<dim>1</dim>
					<dim>1</dim>
				</port>
			</input>
			<output>
				<port id="2" precision="FP32">
					<dim>1</dim>
					<dim>8</dim>
					<dim>200</dim>
					<dim>340</dim>
				</port>
			</output>
		</layer>
		<layer id="485" name="Transpose_3306217156925" type="Const" version="opset1">
			<data offset="7068" size="2" shape="1,1,1,1" element_type="f16"/>
			<output>
				<port id="0" precision="FP16">
					<dim>1</dim>
					<dim>1</dim>
					<dim>1</dim>
					<dim>1</dim>
				</port>
			</output>
		</layer>
		<layer id="486" name="Transpose_3306217128735/restored_convert" type="Convert" version="opset1">
			<data destination_type="f32"/>
			<rt_info>
				<attribute name="decompression" version="0"/>
			</rt_info>
			<input>
				<port id="0">
					<dim>1</dim>
					<dim>1</dim>
					<dim>1</dim>
					<dim>1</dim>
				</port>
			</input>
			<output>
				<port id="1" precision="FP32">
					<dim>1</dim>
					<dim>1</dim>
					<dim>1</dim>
					<dim>1</dim>
				</port>
			</output>
		</layer>
		<layer id="487" name="Transpose_3308" type="PReLU" version="opset1">
			<input>
				<port id="0">
					<dim>1</dim>
					<dim>8</dim>
					<dim>200</dim>
					<dim>340</dim>
				</port>
				<port id="1">
					<dim>1</dim>
					<dim>1</dim>
					<dim>1</dim>
					<dim>1</dim>
				</port>
			</input>
			<output>
				<port id="2" precision="FP32">
					<dim>1</dim>
					<dim>8</dim>
					<dim>200</dim>
					<dim>340</dim>
				</port>
			</output>
		</layer>
		<layer id="488" name="GroupConvolution_74/fq_input_0" type="FakeQuantize" version="opset1">
			<data levels="256" auto_broadcast="numpy"/>
			<input>
				<port id="0">
					<dim>1</dim>
					<dim>8</dim>
					<dim>200</dim>
					<dim>340</dim>
				</port>
				<port id="1">
					<dim>1</dim>
					<dim>8</dim>
					<dim>1</dim>
					<dim>1</dim>
				</port>
				<port id="2">
					<dim>1</dim>
					<dim>8</dim>
					<dim>1</dim>
					<dim>1</dim>
				</port>
				<port id="3">
					<dim>1</dim>
					<dim>8</dim>
					<dim>1</dim>
					<dim>1</dim>
				</port>
				<port id="4">
					<dim>1</dim>
					<dim>8</dim>
					<dim>1</dim>
					<dim>1</dim>
				</port>
			</input>
			<output>
…
		<edge from-layer="3765" from-port="2" to-layer="3766" to-port="0"/>
		<edge from-layer="3714" from-port="0" to-layer="3766" to-port="1"/>
		<edge from-layer="3715" from-port="0" to-layer="3766" to-port="2"/>
		<edge from-layer="3716" from-port="0" to-layer="3766" to-port="3"/>
		<edge from-layer="3717" from-port="0" to-layer="3766" to-port="4"/>
		<edge from-layer="3768" from-port="0" to-layer="3769" to-port="0"/>
		<edge from-layer="3769" from-port="1" to-layer="3770" to-port="0"/>
		<edge from-layer="3767" from-port="0" to-layer="3770" to-port="1"/>
		<edge from-layer="3766" from-port="5" to-layer="3771" to-port="0"/>
		<edge from-layer="3770" from-port="2" to-layer="3771" to-port="1"/>
		<edge from-layer="3772" from-port="0" to-layer="3773" to-port="0"/>
		<edge from-layer="3771" from-port="2" to-layer="3774" to-port="0"/>
		<edge from-layer="3773" from-port="1" to-layer="3774" to-port="1"/>
		<edge from-layer="3774" from-port="2" to-layer="3775" to-port="0"/>
		<edge from-layer="3710" from-port="0" to-layer="3775" to-port="1"/>
		<edge from-layer="3711" from-port="0" to-layer="3775" to-port="2"/>
		<edge from-layer="3712" from-port="0" to-layer="3775" to-port="3"/>
		<edge from-layer="3713" from-port="0" to-layer="3775" to-port="4"/>
		<edge from-layer="3775" from-port="5" to-layer="3776" to-port="0"/>
		<edge from-layer="3775" from-port="5" to-layer="3776" to-port="1"/>
		<edge from-layer="3776" from-port="2" to-layer="3778" to-port="0"/>
		<edge from-layer="3777" from-port="0" to-layer="3778" to-port="1"/>
		<edge from-layer="3778" from-port="2" to-layer="3779" to-port="0"/>
		<edge from-layer="3706" from-port="0" to-layer="3779" to-port="1"/>
		<edge from-layer="3707" from-port="0" to-layer="3779" to-port="2"/>
		<edge from-layer="3708" from-port="0" to-layer="3779" to-port="3"/>
		<edge from-layer="3709" from-port="0" to-layer="3779" to-port="4"/>
		<edge from-layer="3779" from-port="5" to-layer="3780" to-port="0"/>
		<edge from-layer="3705" from-port="0" to-layer="3780" to-port="1"/>
		<edge from-layer="3781" from-port="0" to-layer="3782" to-port="0"/>
		<edge from-layer="3780" from-port="2" to-layer="3783" to-port="0"/>
		<edge from-layer="3782" from-port="1" to-layer="3783" to-port="1"/>
		<edge from-layer="3783" from-port="2" to-layer="3784" to-port="0"/>
		<edge from-layer="3701" from-port="0" to-layer="3784" to-port="1"/>
		<edge from-layer="3702" from-port="0" to-layer="3784" to-port="2"/>
		<edge from-layer="3703" from-port="0" to-layer="3784" to-port="3"/>
		<edge from-layer="3704" from-port="0" to-layer="3784" to-port="4"/>
		<edge from-layer="3775" from-port="5" to-layer="3785" to-port="0"/>
		<edge from-layer="3784" from-port="5" to-layer="3785" to-port="1"/>
		<edge from-layer="3785" from-port="2" to-layer="3786" to-port="0"/>
		<edge from-layer="3697" from-port="0" to-layer="3786" to-port="1"/>
		<edge from-layer="3698" from-port="0" to-layer="3786" to-port="2"/>
		<edge from-layer="3699" from-port="0" to-layer="3786" to-port="3"/>
		<edge from-layer="3700" from-port="0" to-layer="3786" to-port="4"/>
		<edge from-layer="3788" from-port="0" to-layer="3789" to-port="0"/>
		<edge from-layer="3789" from-port="1" to-layer="3790" to-port="0"/>
		<edge from-layer="3787" from-port="0" to-layer="3790" to-port="1"/>
		<edge from-layer="3786" from-port="5" to-layer="3791" to-port="0"/>
		<edge from-layer="3790" from-port="2" to-layer="3791" to-port="1"/>
		<edge from-layer="3791" from-port="2" to-layer="3792" to-port="0"/>
		<edge from-layer="3696" from-port="0" to-layer="3792" to-port="1"/>
		<edge from-layer="3792" from-port="2" to-layer="3794" to-port="0"/>
		<edge from-layer="3793" from-port="0" to-layer="3794" to-port="1"/>
		<edge from-layer="3836" from-port="0" to-layer="3837" to-port="0"/>
		<edge from-layer="3837" from-port="1" to-layer="3838" to-port="0"/>
		<edge from-layer="3835" from-port="0" to-layer="3838" to-port="1"/>
		<edge from-layer="3534" from-port="5" to-layer="3839" to-port="0"/>
		<edge from-layer="3838" from-port="2" to-layer="3839" to-port="1"/>
		<edge from-layer="3840" from-port="0" to-layer="3841" to-port="0"/>
		<edge from-layer="3839" from-port="2" to-layer="3842" to-port="0"/>
		<edge from-layer="3841" from-port="1" to-layer="3842" to-port="1"/>
		<edge from-layer="3842" from-port="2" to-layer="3843" to-port="0"/>
		<edge from-layer="3831" from-port="0" to-layer="3843" to-port="1"/>
		<edge from-layer="3832" from-port="0" to-layer="3843" to-port="2"/>
		<edge from-layer="3833" from-port="0" to-layer="3843" to-port="3"/>
		<edge from-layer="3834" from-port="0" to-layer="3843" to-port="4"/>
		<edge from-layer="3843" from-port="5" to-layer="3844" to-port="0"/>
		<edge from-layer="3843" from-port="5" to-layer="3844" to-port="1"/>
		<edge from-layer="3844" from-port="2" to-layer="3846" to-port="0"/>
		<edge from-layer="3845" from-port="0" to-layer="3846" to-port="1"/>
		<edge from-layer="3846" from-port="2" to-layer="3847" to-port="0"/>
		<edge from-layer="3827" from-port="0" to-layer="3847" to-port="1"/>
		<edge from-layer="3828" from-port="0" to-layer="3847" to-port="2"/>
		<edge from-layer="3829" from-port="0" to-layer="3847" to-port="3"/>
		<edge from-layer="3830" from-port="0" to-layer="3847" to-port="4"/>
		<edge from-layer="3847" from-port="5" to-layer="3848" to-port="0"/>
		<edge from-layer="3826" from-port="0" to-layer="3848" to-port="1"/>
		<edge from-layer="3849" from-port="0" to-layer="3850" to-port="0"/>
		<edge from-layer="3848" from-port="2" to-layer="3851" to-port="0"/>
		<edge from-layer="3850" from-port="1" to-layer="3851" to-port="1"/>
		<edge from-layer="3851" from-port="2" to-layer="3852" to-port="0"/>
		<edge from-layer="3822" from-port="0" to-layer="3852" to-port="1"/>
		<edge from-layer="3823" from-port="0" to-layer="3852" to-port="2"/>
		<edge from-layer="3824" from-port="0" to-layer="3852" to-port="3"/>
		<edge from-layer="3825" from-port="0" to-layer="3852" to-port="4"/>
		<edge from-layer="3843" from-port="5" to-layer="3853" to-port="0"/>
		<edge from-layer="3852" from-port="5" to-layer="3853" to-port="1"/>
		<edge from-layer="3853" from-port="2" to-layer="3854" to-port="0"/>
		<edge from-layer="3818" from-port="0" to-layer="3854" to-port="1"/>
		<edge from-layer="3819" from-port="0" to-layer="3854" to-port="2"/>
		<edge from-layer="3820" from-port="0" to-layer="3854" to-port="3"/>
		<edge from-layer="3821" from-port="0" to-layer="3854" to-port="4"/>
		<edge from-layer="3856" from-port="0" to-layer="3857" to-port="0"/>
		<edge from-layer="3857" from-port="1" to-layer="3858" to-port="0"/>
		<edge from-layer="3855" from-port="0" to-layer="3858" to-port="1"/>
		<edge from-layer="3854" from-port="5" to-layer="3859" to-port="0"/>
		<edge from-layer="3858" from-port="2" to-layer="3859" to-port="1"/>
		<edge from-layer="3860" from-port="0" to-layer="3861" to-port="0"/>
		<edge from-layer="3859" from-port="2" to-layer="3862" to-port="0"/>
		<edge from-layer="3861" from-port="1" to-layer="3862" to-port="1"/>
		<edge from-layer="3863" from-port="0" to-layer="3864" to-port="0"/>
		<edge from-layer="3862" from-port="2" to-layer="3865" to-port="0"/>
		<edge from-layer="3864" from-port="1" to-layer="3865" to-port="1"/>
		<edge from-layer="3865" from-port="2" to-layer="3866" to-port="0"/>
		<edge from-layer="3814" from-port="0" to-layer="3866" to-port="1"/>
		<edge from-layer="3815" from-port="0" to-layer="3866" to-port="2"/>
		<edge from-layer="3816" from-port="0" to-layer="3866" to-port="3"/>
		<edge from-layer="3817" from-port="0" to-layer="3866" to-port="4"/>
		<edge from-layer="3868" from-port="0" to-layer="3869" to-port="0"/>
		<edge from-layer="3869" from-port="1" to-layer="3870" to-port="0"/>
		<edge from-layer="3867" from-port="0" to-layer="3870" to-port="1"/>
		<edge from-layer="3866" from-port="5" to-layer="3871" to-port="0"/>
		<edge from-layer="3870" from-port="2" to-layer="3871" to-port="1"/>
		<edge from-layer="3872" from-port="0" to-layer="3873" to-port="0"/>
		<edge from-layer="3871" from-port="2" to-layer="3874" to-port="0"/>
		<edge from-layer="3873" from-port="1" to-layer="3874" to-port="1"/>
		<edge from-layer="3874" from-port="2" to-layer="3875" to-port="0"/>
		<edge from-layer="3810" from-port="0" to-layer="3875" to-port="1"/>
		<edge from-layer="3811" from-port="0" to-layer="3875" to-port="2"/>
		<edge from-layer="3812" from-port="0" to-layer="3875" to-port="3"/>
		<edge from-layer="3813" from-port="0" to-layer="3875" to-port="4"/>
		<edge from-layer="3875" from-port="5" to-layer="3876" to-port="0"/>
		<edge from-layer="3875" from-port="5" to-layer="3876" to-port="1"/>
		<edge from-layer="3876" from-port="2" to-layer="3878" to-port="0"/>
		<edge from-layer="3877" from-port="0" to-layer="3878" to-port="1"/>
		<edge from-layer="3878" from-port="2" to-layer="3879" to-port="0"/>
		<edge from-layer="3806" from-port="0" to-layer="3879" to-port="1"/>
		<edge from-layer="3807" from-port="0" to-layer="3879" to-port="2"/>
		<edge from-layer="3808" from-port="0" to-layer="3879" to-port="3"/>
		<edge from-layer="3809" from-port="0" to-layer="3879" to-port="4"/>
		<edge from-layer="3879" from-port="5" to-layer="3880" to-port="0"/>
		<edge from-layer="3805" from-port="0" to-layer="3880" to-port="1"/>
		<edge from-layer="3881" from-port="0" to-layer="3882" to-port="0"/>
		<edge from-layer="3880" from-port="2" to-layer="3883" to-port="0"/>
		<edge from-layer="3882" from-port="1" to-layer="3883" to-port="1"/>
		<edge from-layer="3883" from-port="2" to-layer="3884" to-port="0"/>
		<edge from-layer="3801" from-port="0" to-layer="3884" to-port="1"/>
		<edge from-layer="3802" from-port="0" to-layer="3884" to-port="2"/>
		<edge from-layer="3803" from-port="0" to-layer="3884" to-port="3"/>
		<edge from-layer="3804" from-port="0" to-layer="3884" to-port="4"/>
		<edge from-layer="3875" from-port="5" to-layer="3885" to-port="0"/>
		<edge from-layer="3884" from-port="5" to-layer="3885" to-port="1"/>
		<edge from-layer="3885" from-port="2" to-layer="3886" to-port="0"/>
		<edge from-layer="3797" from-port="0" to-layer="3886" to-port="1"/>
		<edge from-layer="3798" from-port="0" to-layer="3886" to-port="2"/>
		<edge from-layer="3799" from-port="0" to-layer="3886" to-port="3"/>
		<edge from-layer="3800" from-port="0" to-layer="3886" to-port="4"/>
		<edge from-layer="3888" from-port="0" to-layer="3889" to-port="0"/>
		<edge from-layer="3889" from-port="1" to-layer="3890" to-port="0"/>
		<edge from-layer="3887" from-port="0" to-layer="3890" to-port="1"/>
		<edge from-layer="3886" from-port="5" to-layer="3891" to-port="0"/>
		<edge from-layer="3890" from-port="2" to-layer="3891" to-port="1"/>
		<edge from-layer="3891" from-port="2" to-layer="3892" to-port="0"/>
		<edge from-layer="3796" from-port="0" to-layer="3892" to-port="1"/>
		<edge from-layer="3892" from-port="2" to-layer="3894" to-port="0"/>
		<edge from-layer="3893" from-port="0" to-layer="3894" to-port="1"/>
		<edge from-layer="3905" from-port="0" to-layer="3906" to-port="0"/>
		<edge from-layer="3906" from-port="1" to-layer="3907" to-port="0"/>
		<edge from-layer="3904" from-port="0" to-layer="3907" to-port="1"/>
		<edge from-layer="2752" from-port="5" to-layer="3908" to-port="0"/>
		<edge from-layer="3907" from-port="2" to-layer="3908" to-port="1"/>
		<edge from-layer="3909" from-port="0" to-layer="3910" to-port="0"/>
		<edge from-layer="3908" from-port="2" to-layer="3911" to-port="0"/>
		<edge from-layer="3910" from-port="1" to-layer="3911" to-port="1"/>
		<edge from-layer="3912" from-port="0" to-layer="3913" to-port="0"/>
		<edge from-layer="3911" from-port="2" to-layer="3914" to-port="0"/>
		<edge from-layer="3913" from-port="1" to-layer="3914" to-port="1"/>
		<edge from-layer="3914" from-port="2" to-layer="3915" to-port="0"/>
		<edge from-layer="3900" from-port="0" to-layer="3915" to-port="1"/>
		<edge from-layer="3901" from-port="0" to-layer="3915" to-port="2"/>
		<edge from-layer="3902" from-port="0" to-layer="3915" to-port="3"/>
		<edge from-layer="3903" from-port="0" to-layer="3915" to-port="4"/>
		<edge from-layer="3918" from-port="0" to-layer="3919" to-port="0"/>
		<edge from-layer="3919" from-port="1" to-layer="3920" to-port="0"/>
		<edge from-layer="3917" from-port="0" to-layer="3920" to-port="1"/>
		<edge from-layer="3920" from-port="2" to-layer="3921" to-port="0"/>
		<edge from-layer="3916" from-port="0" to-layer="3921" to-port="1"/>
		<edge from-layer="3915" from-port="5" to-layer="3922" to-port="0"/>
		<edge from-layer="3921" from-port="2" to-layer="3922" to-port="1"/>
		<edge from-layer="3923" from-port="0" to-layer="3924" to-port="0"/>
		<edge from-layer="3922" from-port="2" to-layer="3925" to-port="0"/>
		<edge from-layer="3924" from-port="1" to-layer="3925" to-port="1"/>
		<edge from-layer="3925" from-port="2" to-layer="3926" to-port="0"/>
		<edge from-layer="3896" from-port="0" to-layer="3926" to-port="1"/>
		<edge from-layer="3897" from-port="0" to-layer="3926" to-port="2"/>
		<edge from-layer="3898" from-port="0" to-layer="3926" to-port="3"/>
		<edge from-layer="3899" from-port="0" to-layer="3926" to-port="4"/>
		<edge from-layer="3928" from-port="0" to-layer="3929" to-port="0"/>
		<edge from-layer="3929" from-port="1" to-layer="3930" to-port="0"/>
		<edge from-layer="3927" from-port="0" to-layer="3930" to-port="1"/>
		<edge from-layer="3926" from-port="5" to-layer="3931" to-port="0"/>
		<edge from-layer="3930" from-port="2" to-layer="3931" to-port="1"/>
		<edge from-layer="3932" from-port="0" to-layer="3933" to-port="0"/>
		<edge from-layer="3931" from-port="2" to-layer="3934" to-port="0"/>
		<edge from-layer="3933" from-port="1" to-layer="3934" to-port="1"/>
		<edge from-layer="3934" from-port="2" to-layer="3936" to-port="0"/>
		<edge from-layer="3935" from-port="0" to-layer="3936" to-port="1"/>
		<edge from-layer="3936" from-port="2" to-layer="3938" to-port="0"/>
		<edge from-layer="3937" from-port="0" to-layer="3938" to-port="1"/>
		<edge from-layer="4020" from-port="0" to-layer="4021" to-port="0"/>
		<edge from-layer="4021" from-port="1" to-layer="4022" to-port="0"/>
		<edge from-layer="4019" from-port="0" to-layer="4022" to-port="1"/>
		<edge from-layer="3346" from-port="5" to-layer="4023" to-port="0"/>
		<edge from-layer="4022" from-port="2" to-layer="4023" to-port="1"/>
		<edge from-layer="4024" from-port="0" to-layer="4025" to-port="0"/>
		<edge from-layer="4023" from-port="2" to-layer="4026" to-port="0"/>
		<edge from-layer="4025" from-port="1" to-layer="4026" to-port="1"/>
		<edge from-layer="4026" from-port="2" to-layer="4027" to-port="0"/>
		<edge from-layer="4015" from-port="0" to-layer="4027" to-port="1"/>
		<edge from-layer="4016" from-port="0" to-layer="4027" to-port="2"/>
		<edge from-layer="4017" from-port="0" to-layer="4027" to-port="3"/>
		<edge from-layer="4018" from-port="0" to-layer="4027" to-port="4"/>
		<edge from-layer="4027" from-port="5" to-layer="4028" to-port="0"/>
		<edge from-layer="3091" from-port="5" to-layer="4028" to-port="1"/>
		<edge from-layer="4029" from-port="0" to-layer="4030" to-port="0"/>
		<edge from-layer="4028" from-port="2" to-layer="4031" to-port="0"/>
		<edge from-layer="4030" from-port="1" to-layer="4031" to-port="1"/>
		<edge from-layer="4031" from-port="2" to-layer="4032" to-port="0"/>
		<edge from-layer="4011" from-port="0" to-layer="4032" to-port="1"/>
		<edge from-layer="4012" from-port="0" to-layer="4032" to-port="2"/>
		<edge from-layer="4013" from-port="0" to-layer="4032" to-port="3"/>
		<edge from-layer="4014" from-port="0" to-layer="4032" to-port="4"/>
		<edge from-layer="4034" from-port="0" to-layer="4035" to-port="0"/>
		<edge from-layer="4035" from-port="1" to-layer="4036" to-port="0"/>
		<edge from-layer="4033" from-port="0" to-layer="4036" to-port="1"/>
		<edge from-layer="4032" from-port="5" to-layer="4037" to-port="0"/>
		<edge from-layer="4036" from-port="2" to-layer="4037" to-port="1"/>
		<edge from-layer="4038" from-port="0" to-layer="4039" to-port="0"/>
		<edge from-layer="4037" from-port="2" to-layer="4040" to-port="0"/>
		<edge from-layer="4039" from-port="1" to-layer="4040" to-port="1"/>
		<edge from-layer="4041" from-port="0" to-layer="4042" to-port="0"/>
		<edge from-layer="4040" from-port="2" to-layer="4043" to-port="0"/>
		<edge from-layer="4042" from-port="1" to-layer="4043" to-port="1"/>
		<edge from-layer="4043" from-port="2" to-layer="4044" to-port="0"/>
		<edge from-layer="4007" from-port="0" to-layer="4044" to-port="1"/>
		<edge from-layer="4008" from-port="0" to-layer="4044" to-port="2"/>
		<edge from-layer="4009" from-port="0" to-layer="4044" to-port="3"/>
		<edge from-layer="4010" from-port="0" to-layer="4044" to-port="4"/>
		<edge from-layer="4047" from-port="0" to-layer="4048" to-port="0"/>
		<edge from-layer="4048" from-port="1" to-layer="4049" to-port="0"/>
		<edge from-layer="4046" from-port="0" to-layer="4049" to-port="1"/>
		<edge from-layer="4049" from-port="2" to-layer="4050" to-port="0"/>
		<edge from-layer="4045" from-port="0" to-layer="4050" to-port="1"/>
		<edge from-layer="4044" from-port="5" to-layer="4051" to-port="0"/>
		<edge from-layer="4050" from-port="2" to-layer="4051" to-port="1"/>
		<edge from-layer="4052" from-port="0" to-layer="4053" to-port="0"/>
		<edge from-layer="4051" from-port="2" to-layer="4054" to-port="0"/>
		<edge from-layer="4053" from-port="1" to-layer="4054" to-port="1"/>
		<edge from-layer="4055" from-port="0" to-layer="4056" to-port="0"/>
		<edge from-layer="4054" from-port="2" to-layer="4057" to-port="0"/>
		<edge from-layer="4056" from-port="1" to-layer="4057" to-port="1"/>
		<edge from-layer="4057" from-port="2" to-layer="4058" to-port="0"/>
		<edge from-layer="4003" from-port="0" to-layer="4058" to-port="1"/>
		<edge from-layer="4004" from-port="0" to-layer="4058" to-port="2"/>
		<edge from-layer="4005" from-port="0" to-layer="4058" to-port="3"/>
		<edge from-layer="4006" from-port="0" to-layer="4058" to-port="4"/>
		<edge from-layer="4060" from-port="0" to-layer="4061" to-port="0"/>
		<edge from-layer="4061" from-port="1" to-layer="4062" to-port="0"/>
		<edge from-layer="4059" from-port="0" to-layer="4062" to-port="1"/>
		<edge from-layer="4058" from-port="5" to-layer="4063" to-port="0"/>
		<edge from-layer="4062" from-port="2" to-layer="4063" to-port="1"/>
		<edge from-layer="4064" from-port="0" to-layer="4065" to-port="0"/>
		<edge from-layer="4063" from-port="2" to-layer="4066" to-port="0"/>
		<edge from-layer="4065" from-port="1" to-layer="4066" to-port="1"/>
		<edge from-layer="4066" from-port="2" to-layer="4067" to-port="0"/>
		<edge from-layer="3999" from-port="0" to-layer="4067" to-port="1"/>
		<edge from-layer="4000" from-port="0" to-layer="4067" to-port="2"/>
		<edge from-layer="4001" from-port="0" to-layer="4067" to-port="3"/>
		<edge from-layer="4002" from-port="0" to-layer="4067" to-port="4"/>
		<edge from-layer="4067" from-port="5" to-layer="4068" to-port="0"/>
		<edge from-layer="4032" from-port="5" to-layer="4068" to-port="1"/>
		<edge from-layer="4069" from-port="0" to-layer="4070" to-port="0"/>
		<edge from-layer="4068" from-port="2" to-layer="4071" to-port="0"/>
		<edge from-layer="4070" from-port="1" to-layer="4071" to-port="1"/>
		<edge from-layer="4071" from-port="2" to-layer="4072" to-port="0"/>
		<edge from-layer="3995" from-port="0" to-layer="4072" to-port="1"/>
		<edge from-layer="3996" from-port="0" to-layer="4072" to-port="2"/>
		<edge from-layer="3997" from-port="0" to-layer="4072" to-port="3"/>
		<edge from-layer="3998" from-port="0" to-layer="4072" to-port="4"/>
		<edge from-layer="4074" from-port="0" to-layer="4075" to-port="0"/>
		<edge from-layer="4075" from-port="1" to-layer="4076" to-port="0"/>
		<edge from-layer="4073" from-port="0" to-layer="4076" to-port="1"/>
		<edge from-layer="4072" from-port="5" to-layer="4077" to-port="0"/>
		<edge from-layer="4076" from-port="2" to-layer="4077" to-port="1"/>
		<edge from-layer="4078" from-port="0" to-layer="4079" to-port="0"/>
		<edge from-layer="4077" from-port="2" to-layer="4080" to-port="0"/>
		<edge from-layer="4079" from-port="1" to-layer="4080" to-port="1"/>
		<edge from-layer="4081" from-port="0" to-layer="4082" to-port="0"/>
		<edge from-layer="4080" from-port="2" to-layer="4083" to-port="0"/>
		<edge from-layer="4082" from-port="1" to-layer="4083" to-port="1"/>
		<edge from-layer="4083" from-port="2" to-layer="4084" to-port="0"/>
		<edge from-layer="3991" from-port="0" to-layer="4084" to-port="1"/>
		<edge from-layer="3992" from-port="0" to-layer="4084" to-port="2"/>
		<edge from-layer="3993" from-port="0" to-layer="4084" to-port="3"/>
		<edge from-layer="3994" from-port="0" to-layer="4084" to-port="4"/>
		<edge from-layer="4087" from-port="0" to-layer="4088" to-port="0"/>
		<edge from-layer="4088" from-port="1" to-layer="4089" to-port="0"/>
		<edge from-layer="4086" from-port="0" to-layer="4089" to-port="1"/>
		<edge from-layer="4089" from-port="2" to-layer="4090" to-port="0"/>
		<edge from-layer="4085" from-port="0" to-layer="4090" to-port="1"/>
		<edge from-layer="4084" from-port="5" to-layer="4091" to-port="0"/>
		<edge from-layer="4090" from-port="2" to-layer="4091" to-port="1"/>
		<edge from-layer="4092" from-port="0" to-layer="4093" to-port="0"/>
		<edge from-layer="4091" from-port="2" to-layer="4094" to-port="0"/>
		<edge from-layer="4093" from-port="1" to-layer="4094" to-port="1"/>
		<edge from-layer="4095" from-port="0" to-layer="4096" to-port="0"/>
		<edge from-layer="4094" from-port="2" to-layer="4097" to-port="0"/>
		<edge from-layer="4096" from-port="1" to-layer="4097" to-port="1"/>
		<edge from-layer="4097" from-port="2" to-layer="4098" to-port="0"/>
		<edge from-layer="3987" from-port="0" to-layer="4098" to-port="1"/>
		<edge from-layer="3988" from-port="0" to-layer="4098" to-port="2"/>
		<edge from-layer="3989" from-port="0" to-layer="4098" to-port="3"/>
		<edge from-layer="3990" from-port="0" to-layer="4098" to-port="4"/>
		<edge from-layer="4100" from-port="0" to-layer="4101" to-port="0"/>
		<edge from-layer="4101" from-port="1" to-layer="4102" to-port="0"/>
		<edge from-layer="4099" from-port="0" to-layer="4102" to-port="1"/>
		<edge from-layer="4098" from-port="5" to-layer="4103" to-port="0"/>
		<edge from-layer="4102" from-port="2" to-layer="4103" to-port="1"/>
		<edge from-layer="4104" from-port="0" to-layer="4105" to-port="0"/>
		<edge from-layer="4103" from-port="2" to-layer="4106" to-port="0"/>
		<edge from-layer="4105" from-port="1" to-layer="4106" to-port="1"/>
		<edge from-layer="4106" from-port="2" to-layer="4107" to-port="0"/>
		<edge from-layer="3983" from-port="0" to-layer="4107" to-port="1"/>
		<edge from-layer="3984" from-port="0" to-layer="4107" to-port="2"/>
		<edge from-layer="3985" from-port="0" to-layer="4107" to-port="3"/>
		<edge from-layer="3986" from-port="0" to-layer="4107" to-port="4"/>
		<edge from-layer="4107" from-port="5" to-layer="4108" to-port="0"/>
		<edge from-layer="4072" from-port="5" to-layer="4108" to-port="1"/>
		<edge from-layer="4109" from-port="0" to-layer="4110" to-port="0"/>
		<edge from-layer="4108" from-port="2" to-layer="4111" to-port="0"/>
		<edge from-layer="4110" from-port="1" to-layer="4111" to-port="1"/>
		<edge from-layer="4111" from-port="2" to-layer="4112" to-port="0"/>
		<edge from-layer="3979" from-port="0" to-layer="4112" to-port="1"/>
		<edge from-layer="3980" from-port="0" to-layer="4112" to-port="2"/>
		<edge from-layer="3981" from-port="0" to-layer="4112" to-port="3"/>
		<edge from-layer="3982" from-port="0" to-layer="4112" to-port="4"/>
		<edge from-layer="4114" from-port="0" to-layer="4115" to-port="0"/>
		<edge from-layer="4115" from-port="1" to-layer="4116" to-port="0"/>
		<edge from-layer="4113" from-port="0" to-layer="4116" to-port="1"/>
		<edge from-layer="4112" from-port="5" to-layer="4117" to-port="0"/>
		<edge from-layer="4116" from-port="2" to-layer="4117" to-port="1"/>
		<edge from-layer="4118" from-port="0" to-layer="4119" to-port="0"/>
		<edge from-layer="4117" from-port="2" to-layer="4120" to-port="0"/>
		<edge from-layer="4119" from-port="1" to-layer="4120" to-port="1"/>
		<edge from-layer="4121" from-port="0" to-layer="4122" to-port="0"/>
		<edge from-layer="4120" from-port="2" to-layer="4123" to-port="0"/>
		<edge from-layer="4122" from-port="1" to-layer="4123" to-port="1"/>
		<edge from-layer="4123" from-port="2" to-layer="4124" to-port="0"/>
		<edge from-layer="3975" from-port="0" to-layer="4124" to-port="1"/>
		<edge from-layer="3976" from-port="0" to-layer="4124" to-port="2"/>
		<edge from-layer="3977" from-port="0" to-layer="4124" to-port="3"/>
		<edge from-layer="3978" from-port="0" to-layer="4124" to-port="4"/>
		<edge from-layer="4127" from-port="0" to-layer="4128" to-port="0"/>
		<edge from-layer="4128" from-port="1" to-layer="4129" to-port="0"/>
		<edge from-layer="4126" from-port="0" to-layer="4129" to-port="1"/>
		<edge from-layer="4129" from-port="2" to-layer="4130" to-port="0"/>
		<edge from-layer="4125" from-port="0" to-layer="4130" to-port="1"/>
		<edge from-layer="4124" from-port="5" to-layer="4131" to-port="0"/>
		<edge from-layer="4130" from-port="2" to-layer="4131" to-port="1"/>
		<edge from-layer="4132" from-port="0" to-layer="4133" to-port="0"/>
		<edge from-layer="4131" from-port="2" to-layer="4134" to-port="0"/>
		<edge from-layer="4133" from-port="1" to-layer="4134" to-port="1"/>
		<edge from-layer="4135" from-port="0" to-layer="4136" to-port="0"/>
		<edge from-layer="4134" from-port="2" to-layer="4137" to-port="0"/>
		<edge from-layer="4136" from-port="1" to-layer="4137" to-port="1"/>
		<edge from-layer="4137" from-port="2" to-layer="4138" to-port="0"/>
		<edge from-layer="3971" from-port="0" to-layer="4138" to-port="1"/>
		<edge from-layer="3972" from-port="0" to-layer="4138" to-port="2"/>
		<edge from-layer="3973" from-port="0" to-layer="4138" to-port="3"/>
		<edge from-layer="3974" from-port="0" to-layer="4138" to-port="4"/>
		<edge from-layer="4140" from-port="0" to-layer="4141" to-port="0"/>
		<edge from-layer="4141" from-port="1" to-layer="4142" to-port="0"/>
		<edge from-layer="4139" from-port="0" to-layer="4142" to-port="1"/>
		<edge from-layer="4138" from-port="5" to-layer="4143" to-port="0"/>
		<edge from-layer="4142" from-port="2" to-layer="4143" to-port="1"/>
		<edge from-layer="4144" from-port="0" to-layer="4145" to-port="0"/>
		<edge from-layer="4143" from-port="2" to-layer="4146" to-port="0"/>
		<edge from-layer="4145" from-port="1" to-layer="4146" to-port="1"/>
		<edge from-layer="4146" from-port="2" to-layer="4147" to-port="0"/>
		<edge from-layer="3967" from-port="0" to-layer="4147" to-port="1"/>
		<edge from-layer="3968" from-port="0" to-layer="4147" to-port="2"/>
		<edge from-layer="3969" from-port="0" to-layer="4147" to-port="3"/>
		<edge from-layer="3970" from-port="0" to-layer="4147" to-port="4"/>
		<edge from-layer="4147" from-port="5" to-layer="4148" to-port="0"/>
		<edge from-layer="4112" from-port="5" to-layer="4148" to-port="1"/>
		<edge from-layer="4149" from-port="0" to-layer="4150" to-port="0"/>
		<edge from-layer="4148" from-port="2" to-layer="4151" to-port="0"/>
		<edge from-layer="4150" from-port="1" to-layer="4151" to-port="1"/>
		<edge from-layer="4151" from-port="2" to-layer="4152" to-port="0"/>
		<edge from-layer="3963" from-port="0" to-layer="4152" to-port="1"/>
		<edge from-layer="3964" from-port="0" to-layer="4152" to-port="2"/>
		<edge from-layer="3965" from-port="0" to-layer="4152" to-port="3"/>
		<edge from-layer="3966" from-port="0" to-layer="4152" to-port="4"/>
		<edge from-layer="4154" from-port="0" to-layer="4155" to-port="0"/>
		<edge from-layer="4155" from-port="1" to-layer="4156" to-port="0"/>
		<edge from-layer="4153" from-port="0" to-layer="4156" to-port="1"/>
		<edge from-layer="4152" from-port="5" to-layer="4157" to-port="0"/>
		<edge from-layer="4156" from-port="2" to-layer="4157" to-port="1"/>
		<edge from-layer="4158" from-port="0" to-layer="4159" to-port="0"/>
		<edge from-layer="4157" from-port="2" to-layer="4160" to-port="0"/>
		<edge from-layer="4159" from-port="1" to-layer="4160" to-port="1"/>
		<edge from-layer="4161" from-port="0" to-layer="4162" to-port="0"/>
		<edge from-layer="4160" from-port="2" to-layer="4163" to-port="0"/>
		<edge from-layer="4162" from-port="1" to-layer="4163" to-port="1"/>
		<edge from-layer="4163" from-port="2" to-layer="4164" to-port="0"/>
		<edge from-layer="3959" from-port="0" to-layer="4164" to-port="1"/>
		<edge from-layer="3960" from-port="0" to-layer="4164" to-port="2"/>
		<edge from-layer="3961" from-port="0" to-layer="4164" to-port="3"/>
		<edge from-layer="3962" from-port="0" to-layer="4164" to-port="4"/>
		<edge from-layer="4167" from-port="0" to-layer="4168" to-port="0"/>
		<edge from-layer="4168" from-port="1" to-layer="4169" to-port="0"/>
		<edge from-layer="4166" from-port="0" to-layer="4169" to-port="1"/>
		<edge from-layer="4169" from-port="2" to-layer="4170" to-port="0"/>
		<edge from-layer="4165" from-port="0" to-layer="4170" to-port="1"/>
		<edge from-layer="4164" from-port="5" to-layer="4171" to-port="0"/>
		<edge from-layer="4170" from-port="2" to-layer="4171" to-port="1"/>
		<edge from-layer="4172" from-port="0" to-layer="4173" to-port="0"/>
		<edge from-layer="4171" from-port="2" to-layer="4174" to-port="0"/>
		<edge from-layer="4173" from-port="1" to-layer="4174" to-port="1"/>
		<edge from-layer="4175" from-port="0" to-layer="4176" to-port="0"/>
		<edge from-layer="4174" from-port="2" to-layer="4177" to-port="0"/>
		<edge from-layer="4176" from-port="1" to-layer="4177" to-port="1"/>
		<edge from-layer="4177" from-port="2" to-layer="4178" to-port="0"/>
		<edge from-layer="3955" from-port="0" to-layer="4178" to-port="1"/>
		<edge from-layer="3956" from-port="0" to-layer="4178" to-port="2"/>
		<edge from-layer="3957" from-port="0" to-layer="4178" to-port="3"/>
		<edge from-layer="3958" from-port="0" to-layer="4178" to-port="4"/>
		<edge from-layer="4180" from-port="0" to-layer="4181" to-port="0"/>
		<edge from-layer="4181" from-port="1" to-layer="4182" to-port="0"/>
		<edge from-layer="4179" from-port="0" to-layer="4182" to-port="1"/>
		<edge from-layer="4178" from-port="5" to-layer="4183" to-port="0"/>
		<edge from-layer="4182" from-port="2" to-layer="4183" to-port="1"/>
		<edge from-layer="4184" from-port="0" to-layer="4185" to-port="0"/>
		<edge from-layer="4183" from-port="2" to-layer="4186" to-port="0"/>
		<edge from-layer="4185" from-port="1" to-layer="4186" to-port="1"/>
		<edge from-layer="4186" from-port="2" to-layer="4187" to-port="0"/>
		<edge from-layer="3951" from-port="0" to-layer="4187" to-port="1"/>
		<edge from-layer="3952" from-port="0" to-layer="4187" to-port="2"/>
		<edge from-layer="3953" from-port="0" to-layer="4187" to-port="3"/>
		<edge from-layer="3954" from-port="0" to-layer="4187" to-port="4"/>
		<edge from-layer="4187" from-port="5" to-layer="4188" to-port="0"/>
		<edge from-layer="4152" from-port="5" to-layer="4188" to-port="1"/>
		<edge from-layer="4189" from-port="0" to-layer="4190" to-port="0"/>
		<edge from-layer="4188" from-port="2" to-layer="4191" to-port="0"/>
		<edge from-layer="4190" from-port="1" to-layer="4191" to-port="1"/>
		<edge from-layer="4191" from-port="2" to-layer="4192" to-port="0"/>
		<edge from-layer="3947" from-port="0" to-layer="4192" to-port="1"/>
		<edge from-layer="3948" from-port="0" to-layer="4192" to-port="2"/>
		<edge from-layer="3949" from-port="0" to-layer="4192" to-port="3"/>
		<edge from-layer="3950" from-port="0" to-layer="4192" to-port="4"/>
		<edge from-layer="4194" from-port="0" to-layer="4195" to-port="0"/>
		<edge from-layer="4195" from-port="1" to-layer="4196" to-port="0"/>
		<edge from-layer="4193" from-port="0" to-layer="4196" to-port="1"/>
		<edge from-layer="4192" from-port="5" to-layer="4197" to-port="0"/>
		<edge from-layer="4196" from-port="2" to-layer="4197" to-port="1"/>
		<edge from-layer="4198" from-port="0" to-layer="4199" to-port="0"/>
		<edge from-layer="4197" from-port="2" to-layer="4200" to-port="0"/>
		<edge from-layer="4199" from-port="1" to-layer="4200" to-port="1"/>
		<edge from-layer="4201" from-port="0" to-layer="4202" to-port="0"/>
		<edge from-layer="4200" from-port="2" to-layer="4203" to-port="0"/>
		<edge from-layer="4202" from-port="1" to-layer="4203" to-port="1"/>
		<edge from-layer="4203" from-port="2" to-layer="4204" to-port="0"/>
		<edge from-layer="3943" from-port="0" to-layer="4204" to-port="1"/>
		<edge from-layer="3944" from-port="0" to-layer="4204" to-port="2"/>
		<edge from-layer="3945" from-port="0" to-layer="4204" to-port="3"/>
		<edge from-layer="3946" from-port="0" to-layer="4204" to-port="4"/>
		<edge from-layer="4207" from-port="0" to-layer="4208" to-port="0"/>
		<edge from-layer="4208" from-port="1" to-layer="4209" to-port="0"/>
		<edge from-layer="4206" from-port="0" to-layer="4209" to-port="1"/>
		<edge from-layer="4209" from-port="2" to-layer="4210" to-port="0"/>
		<edge from-layer="4205" from-port="0" to-layer="4210" to-port="1"/>
		<edge from-layer="4204" from-port="5" to-layer="4211" to-port="0"/>
		<edge from-layer="4210" from-port="2" to-layer="4211" to-port="1"/>
		<edge from-layer="4212" from-port="0" to-layer="4213" to-port="0"/>
		<edge from-layer="4211" from-port="2" to-layer="4214" to-port="0"/>
		<edge from-layer="4213" from-port="1" to-layer="4214" to-port="1"/>
		<edge from-layer="4214" from-port="2" to-layer="4215" to-port="0"/>
		<edge from-layer="3939" from-port="0" to-layer="4215" to-port="1"/>
		<edge from-layer="3940" from-port="0" to-layer="4215" to-port="2"/>
		<edge from-layer="3941" from-port="0" to-layer="4215" to-port="3"/>
		<edge from-layer="3942" from-port="0" to-layer="4215" to-port="4"/>
		<edge from-layer="4217" from-port="0" to-layer="4218" to-port="0"/>
		<edge from-layer="4218" from-port="1" to-layer="4219" to-port="0"/>
		<edge from-layer="4216" from-port="0" to-layer="4219" to-port="1"/>
		<edge from-layer="4215" from-port="5" to-layer="4220" to-port="0"/>
		<edge from-layer="4219" from-port="2" to-layer="4220" to-port="1"/>
		<edge from-layer="4221" from-port="0" to-layer="4222" to-port="0"/>
		<edge from-layer="4220" from-port="2" to-layer="4223" to-port="0"/>
		<edge from-layer="4222" from-port="1" to-layer="4223" to-port="1"/>
		<edge from-layer="4223" from-port="2" to-layer="4225" to-port="0"/>
		<edge from-layer="4224" from-port="0" to-layer="4225" to-port="1"/>
		<edge from-layer="4225" from-port="2" to-layer="4227" to-port="0"/>
		<edge from-layer="4226" from-port="0" to-layer="4227" to-port="1"/>
		<edge from-layer="3938" from-port="2" to-layer="4228" to-port="0"/>
		<edge from-layer="4227" from-port="2" to-layer="4228" to-port="1"/>
		<edge from-layer="4228" from-port="2" to-layer="4229" to-port="0"/>
		<edge from-layer="4240" from-port="0" to-layer="4241" to-port="0"/>
		<edge from-layer="4241" from-port="1" to-layer="4242" to-port="0"/>
		<edge from-layer="4239" from-port="0" to-layer="4242" to-port="1"/>
		<edge from-layer="2752" from-port="5" to-layer="4243" to-port="0"/>
		<edge from-layer="4242" from-port="2" to-layer="4243" to-port="1"/>
		<edge from-layer="4244" from-port="0" to-layer="4245" to-port="0"/>
		<edge from-layer="4243" from-port="2" to-layer="4246" to-port="0"/>
		<edge from-layer="4245" from-port="1" to-layer="4246" to-port="1"/>
		<edge from-layer="4247" from-port="0" to-layer="4248" to-port="0"/>
		<edge from-layer="4246" from-port="2" to-layer="4249" to-port="0"/>
		<edge from-layer="4248" from-port="1" to-layer="4249" to-port="1"/>
		<edge from-layer="4249" from-port="2" to-layer="4250" to-port="0"/>
		<edge from-layer="4235" from-port="0" to-layer="4250" to-port="1"/>
		<edge from-layer="4236" from-port="0" to-layer="4250" to-port="2"/>
		<edge from-layer="4237" from-port="0" to-layer="4250" to-port="3"/>
		<edge from-layer="4238" from-port="0" to-layer="4250" to-port="4"/>
		<edge from-layer="4253" from-port="0" to-layer="4254" to-port="0"/>
		<edge from-layer="4254" from-port="1" to-layer="4255" to-port="0"/>
		<edge from-layer="4252" from-port="0" to-layer="4255" to-port="1"/>
		<edge from-layer="4255" from-port="2" to-layer="4256" to-port="0"/>
		<edge from-layer="4251" from-port="0" to-layer="4256" to-port="1"/>
		<edge from-layer="4250" from-port="5" to-layer="4257" to-port="0"/>
		<edge from-layer="4256" from-port="2" to-layer="4257" to-port="1"/>
		<edge from-layer="4258" from-port="0" to-layer="4259" to-port="0"/>
		<edge from-layer="4257" from-port="2" to-layer="4260" to-port="0"/>
		<edge from-layer="4259" from-port="1" to-layer="4260" to-port="1"/>
		<edge from-layer="4260" from-port="2" to-layer="4261" to-port="0"/>
		<edge from-layer="4231" from-port="0" to-layer="4261" to-port="1"/>
		<edge from-layer="4232" from-port="0" to-layer="4261" to-port="2"/>
		<edge from-layer="4233" from-port="0" to-layer="4261" to-port="3"/>
		<edge from-layer="4234" from-port="0" to-layer="4261" to-port="4"/>
		<edge from-layer="4263" from-port="0" to-layer="4264" to-port="0"/>
		<edge from-layer="4264" from-port="1" to-layer="4265" to-port="0"/>
		<edge from-layer="4262" from-port="0" to-layer="4265" to-port="1"/>
		<edge from-layer="4261" from-port="5" to-layer="4266" to-port="0"/>
		<edge from-layer="4265" from-port="2" to-layer="4266" to-port="1"/>
		<edge from-layer="4267" from-port="0" to-layer="4268" to-port="0"/>
		<edge from-layer="4266" from-port="2" to-layer="4269" to-port="0"/>
		<edge from-layer="4268" from-port="1" to-layer="4269" to-port="1"/>
		<edge from-layer="4269" from-port="2" to-layer="4271" to-port="0"/>
		<edge from-layer="4270" from-port="0" to-layer="4271" to-port="1"/>
		<edge from-layer="4271" from-port="2" to-layer="4273" to-port="0"/>
		<edge from-layer="4272" from-port="0" to-layer="4273" to-port="1"/>
		<edge from-layer="4283" from-port="0" to-layer="4284" to-port="0"/>
		<edge from-layer="4284" from-port="1" to-layer="4285" to-port="0"/>
		<edge from-layer="4282" from-port="0" to-layer="4285" to-port="1"/>
		<edge from-layer="4192" from-port="5" to-layer="4286" to-port="0"/>
		<edge from-layer="4285" from-port="2" to-layer="4286" to-port="1"/>
		<edge from-layer="4287" from-port="0" to-layer="4288" to-port="0"/>
		<edge from-layer="4286" from-port="2" to-layer="4289" to-port="0"/>
		<edge from-layer="4288" from-port="1" to-layer="4289" to-port="1"/>
		<edge from-layer="4290" from-port="0" to-layer="4291" to-port="0"/>
		<edge from-layer="4289" from-port="2" to-layer="4292" to-port="0"/>
		<edge from-layer="4291" from-port="1" to-layer="4292" to-port="1"/>
		<edge from-layer="4292" from-port="2" to-layer="4293" to-port="0"/>
		<edge from-layer="4278" from-port="0" to-layer="4293" to-port="1"/>
		<edge from-layer="4279" from-port="0" to-layer="4293" to-port="2"/>
		<edge from-layer="4280" from-port="0" to-layer="4293" to-port="3"/>
		<edge from-layer="4281" from-port="0" to-layer="4293" to-port="4"/>
		<edge from-layer="4296" from-port="0" to-layer="4297" to-port="0"/>
		<edge from-layer="4297" from-port="1" to-layer="4298" to-port="0"/>
		<edge from-layer="4295" from-port="0" to-layer="4298" to-port="1"/>
		<edge from-layer="4298" from-port="2" to-layer="4299" to-port="0"/>
		<edge from-layer="4294" from-port="0" to-layer="4299" to-port="1"/>
		<edge from-layer="4293" from-port="5" to-layer="4300" to-port="0"/>
		<edge from-layer="4299" from-port="2" to-layer="4300" to-port="1"/>
		<edge from-layer="4301" from-port="0" to-layer="4302" to-port="0"/>
		<edge from-layer="4300" from-port="2" to-layer="4303" to-port="0"/>
		<edge from-layer="4302" from-port="1" to-layer="4303" to-port="1"/>
		<edge from-layer="4303" from-port="2" to-layer="4304" to-port="0"/>
		<edge from-layer="4274" from-port="0" to-layer="4304" to-port="1"/>
		<edge from-layer="4275" from-port="0" to-layer="4304" to-port="2"/>
		<edge from-layer="4276" from-port="0" to-layer="4304" to-port="3"/>
		<edge from-layer="4277" from-port="0" to-layer="4304" to-port="4"/>
		<edge from-layer="4306" from-port="0" to-layer="4307" to-port="0"/>
		<edge from-layer="4307" from-port="1" to-layer="4308" to-port="0"/>
		<edge from-layer="4305" from-port="0" to-layer="4308" to-port="1"/>
		<edge from-layer="4304" from-port="5" to-layer="4309" to-port="0"/>
		<edge from-layer="4308" from-port="2" to-layer="4309" to-port="1"/>
		<edge from-layer="4310" from-port="0" to-layer="4311" to-port="0"/>
		<edge from-layer="4309" from-port="2" to-layer="4312" to-port="0"/>
		<edge from-layer="4311" from-port="1" to-layer="4312" to-port="1"/>
		<edge from-layer="4312" from-port="2" to-layer="4314" to-port="0"/>
		<edge from-layer="4313" from-port="0" to-layer="4314" to-port="1"/>
		<edge from-layer="4314" from-port="2" to-layer="4316" to-port="0"/>
		<edge from-layer="4315" from-port="0" to-layer="4316" to-port="1"/>
		<edge from-layer="4273" from-port="2" to-layer="4317" to-port="0"/>
		<edge from-layer="4316" from-port="2" to-layer="4317" to-port="1"/>
		<edge from-layer="2059" from-port="2" to-layer="2060" to-port="0"/>
		<edge from-layer="3594" from-port="2" to-layer="3595" to-port="0"/>
		<edge from-layer="3694" from-port="2" to-layer="3695" to-port="0"/>
		<edge from-layer="3794" from-port="2" to-layer="3795" to-port="0"/>
		<edge from-layer="3894" from-port="2" to-layer="3895" to-port="0"/>
		<edge from-layer="4229" from-port="1" to-layer="4230" to-port="0"/>
		<edge from-layer="4317" from-port="2" to-layer="4318" to-port="0"/>
	</edges>
	<rt_info>
		<MO_version value="custom_HEAD_0250f62d11102ae97a35803756f079090876ddc1"/>
		<Runtime_version value="2023.0.0-10367-0250f62d111-HEAD"/>
		<conversion_parameters>
			<framework value="tf"/>
			<input value="input"/>
			<input_model value="DIR/model_frozen.pb"/>
			<input_shape value="[1,400,680,3]"/>
			<layout value="input(nhwc)"/>
			<model_name value="person-detection-action-recognition-0006"/>
			<output value="ActionNet/out_detection_loc,ActionNet/out_detection_conf,ActionNet/action_heads/out_head_1_anchor_1,ActionNet/action_heads/out_head_2_anchor_1,ActionNet/action_heads/out_head_2_anchor_2,ActionNet/action_heads/out_head_2_anchor_3,ActionNet/action_heads/out_head_2_anchor_4"/>
			<output_dir value="DIR"/>
		</conversion_parameters>
		<legacy_frontend value="False"/>
		<quantization_parameters>
			<cli_params>
				<ac_config value="None"/>
				<data_source value="None"/>
				<direct_dump value="True"/>
				<engine value="None"/>
				<evaluate value="False"/>
				<keep_uncompressed_weights value="False"/>
				<log_level value="INFO"/>
				<max_drop value="None"/>
				<model value="None"/>
				<name value="None"/>
				<output_dir value="PATH"/>
				<pbar value="False"/>
				<preset value="None"/>
				<quantize value="None"/>
				<stream_output value="False"/>
				<weights value="None"/>
			</cli_params>
			<config value="{
		'compression': {
			'algorithms': [
				{
					'name': 'DefaultQuantization',
					'params': {
						'num_samples_for_tuning': 2000,
						'preset': 'mixed',
						'stat_subset_size': 300,
						'use_layerwise_tuning': false
					}
				}
			],
			'dump_intermediate_model': true,
			'target_device': 'ANY'
		},
		'engine': {
			'models': [
				{
					'name': 'person-detection-action-recognition-0006',
					'launchers': [
						{
							'framework': 'openvino',
							'adapter': {
								'type': 'action_detection',
								'multihead_net': true,
								'loc_out': 'ActionNet/out_detection_loc',
								'main_conf_out': 'ActionNet/out_detection_conf',
								'add_conf_out_prefix': 'ActionNet/action_heads/out_head_',
								'add_conf_out_suffix': '_anchor_',
								'head_sizes': [
									1,
									4
								],
								'head_scales': [
									8,
									16
								],
								'anchors': [
									[
										[
											58.670372,
											26.17863728
										]
									],
									[
										[
											81.829632,
											35.36
										],
										[
											107.651852,
											45.8114572
										],
										[
											142.595732,
											63.31491832
										],
										[
											201.107692,
											93.5070856
										]
									]
								],
								'variance': [
									0.1,
									0.1,
									0.2,
									0.2
								],
								'in_sizes': [
									400,
									680
								],
								'num_action_classes': 6,
								'detection_threshold': 0.3,
								'action_scale': 16.0
							},
							'device': 'cpu'
						}
					],
					'datasets': [
						{
							'name': 'action_detection_dataset_6_classes',
							'data_source': 'PATH',
							'annotation_conversion': {
								'converter': 'action_recognition',
								'annotation_file': 'PATH',
								'use_case': 'common_6_actions'
							},
							'reader': 'opencv_capture',
							'preprocessing': [
								{
									'type': 'resize',
									'dst_width': 680,
									'dst_height': 400
								}
							],
							'postprocessing': [
								{
									'type': 'soft_nms',
									'sigma': 0.6,
									'min_score': 0.3,
									'keep_top_k': 200
								},
								{
									'type': 'filter',
									'is_empty': true,
									'apply_to': 'prediction',
									'remove_filtered': true
								},
								{
									'type': 'normalize_boxes'
								}
							],
							'metrics': [
								{
									'type': 'map',
									'name': 'class_agnostic@ap',
									'ignore_difficult': false,
									'include_boundaries': false,
									'allow_multiple_matches_per_ignored': false,
									'distinct_conf': true,
									'annotation_source': 'person_annotation',
									'prediction_source': 'class_agnostic_prediction',
									'label_map': 'person_label_map',
									'reference': 0.907
								},
								{
									'type': 'detection_accuracy',
									'use_normalization': true,
									'annotation_source': 'action_annotation',
									'prediction_source': 'action_prediction',
									'label_map': 'action_label_map',
									'ignore_label': 6,
									'reference': 0.8074
								}
							],
							'_command_line_mapping': {
								'annotation_file': 'PATH'
							}
						}
					]
				}
			],
			'stat_requests_number': null,
			'eval_requests_number': null,
			'type': 'accuracy_checker'
		}
	}"/>
			<version value="invalid version"/>
		</quantization_parameters>
	</rt_info>
	<quantization_parameters>
		<config>{
		'compression': {
			'algorithms': [
				{
					'name': 'DefaultQuantization',
					'params': {
						'num_samples_for_tuning': 2000,
						'preset': 'mixed',
						'stat_subset_size': 300,
						'use_layerwise_tuning': false
					}
				}
			],
			'dump_intermediate_model': true,
			'target_device': 'ANY'
		},
		'engine': {
			'models': [
				{
					'name': 'person-detection-action-recognition-0006',
					'launchers': [
						{
							'framework': 'openvino',
							'adapter': {
								'type': 'action_detection',
								'multihead_net': true,
								'loc_out': 'ActionNet/out_detection_loc',
								'main_conf_out': 'ActionNet/out_detection_conf',
								'add_conf_out_prefix': 'ActionNet/action_heads/out_head_',
								'add_conf_out_suffix': '_anchor_',
								'head_sizes': [
									1,
									4
								],
								'head_scales': [
									8,
									16
								],
								'anchors': [
									[
										[
											58.670372,
											26.17863728
										]
									],
									[
										[
											81.829632,
											35.36
										],
										[
											107.651852,
											45.8114572
										],
										[
											142.595732,
											63.31491832
										],
										[
											201.107692,
											93.5070856
										]
									]
								],
								'variance': [
									0.1,
									0.1,
									0.2,
									0.2
								],
								'in_sizes': [
									400,
									680
								],
								'num_action_classes': 6,
								'detection_threshold': 0.3,
								'action_scale': 16.0
							},
							'device': 'cpu'
						}
					],
					'datasets': [
						{
							'name': 'action_detection_dataset_6_classes',
							'data_source': 'PATH',
							'annotation_conversion': {
								'converter': 'action_recognition',
								'annotation_file': 'PATH',
								'use_case': 'common_6_actions'
							},
							'reader': 'opencv_capture',
							'preprocessing': [
								{
									'type': 'resize',
									'dst_width': 680,
									'dst_height': 400
								}
							],
							'postprocessing': [
								{
									'type': 'soft_nms',
									'sigma': 0.6,
									'min_score': 0.3,
									'keep_top_k': 200
								},
								{
									'type': 'filter',
									'is_empty': true,
									'apply_to': 'prediction',
									'remove_filtered': true
								},
								{
									'type': 'normalize_boxes'
								}
							],
							'metrics': [
								{
									'type': 'map',
									'name': 'class_agnostic@ap',
									'ignore_difficult': false,
									'include_boundaries': false,
									'allow_multiple_matches_per_ignored': false,
									'distinct_conf': true,
									'annotation_source': 'person_annotation',
									'prediction_source': 'class_agnostic_prediction',
									'label_map': 'person_label_map',
									'reference': 0.907
								},
								{
									'type': 'detection_accuracy',
									'use_normalization': true,
									'annotation_source': 'action_annotation',
									'prediction_source': 'action_prediction',
									'label_map': 'action_label_map',
									'ignore_label': 6,
									'reference': 0.8074
								}
							],
							'_command_line_mapping': {
								'annotation_file': 'PATH'
							}
						}
					]
				}
			],
			'stat_requests_number': null,
			'eval_requests_number': null,
			'type': 'accuracy_checker'
		}
	}</config>
		<version value="invalid version"/>
		<cli_params value="{'quantize': None, 'preset': None, 'model': None, 'weights': None, 'name': None, 'engine': None, 'ac_config': None, 'max_drop': None, 'evaluate': False, 'output_dir': 'PATH', 'direct_dump': True, 'log_level': 'INFO', 'pbar': False, 'stream_output': False, 'keep_uncompressed_weights': False, 'data_source': None}"/>
	</quantization_parameters>
</net>
